test_for_cleanRL/training_logs_jumping_ball/duelingCNN_fps10_lr0.0001_2025-05-19_20-15-04/dueling_cnn_final.pt (torch, 597077 bytes, 23 tensors)

cnn.cnn.0.weight f4 [32, 1, 3, 3]
00000000: 337b 823e 99a7 8d3e 14ee 9fbd bdc6 9c3e
00000010: 2093 95bd 7cc1 893d 0b2e 26be 8a75 483e
00000020: 3373 963e 6869 7abe c357 943e e888 7f3d
00000030: 1a2e 7c3e 68e8 383d 3e96 243e d8c5 40bd
00000040: 8590 833e f8ce 493d 1859 1fbe b402 ae3d
00000050: c843 1dbe d81d 20bd a8a2 0abe 3e6e 623e
00000060: 1cb8 86be b35b 1dbe 90c4 c0bd fe3b 4dbe
00000070: 48dd 003d 5c90 a8be 7121 9a3e d6f9 90be
00000080: 65c2 833e b837 633d 3caa ddbd 4aed 523e
00000090: c8c9 543d 75e4 893e 0042 153d 764b d7bd
000000a0: e06b b73d 0c20 b9bd 18a7 0f3e ff5f 983e
000000b0: 9e4f 453e b838 15be 2a0a 453e 404b 743d
000000c0: 4e57 2d3e 5e0b 50be c3f1 a8be b3e0 03be
000000d0: bee7 82be e509 8c3e 20a1 c43d 8862 0d3e
000000e0: a4e6 d73d c002 bebb ad90 853e a085 72be
000000f0: d0ee ab3c 46f9 68be 6c80 d23d 2c19 ebbd
00000100: 202e d13d 503a 8ebd af8c 8d3e 164f 4abe
00000110: 0e92 4bbe 3395 4bbe 4181 993e dc7f e33d
00000120: 6139 a43e dfd8 8cbe bb47 a9be ff85 85be
00000130: 789c 65be f240 0a3e 4c72 f43d a5cf 8d3e
00000140: f045 30be e3b0 68be a21a 353e eef7 09be
00000150: d229 4f3e 4cff a1bd 2242 433e 409a 84be
00000160: f840 2cbe 0421 d03d 2452 903d 460d aebd
00000170: 5a75 4b3e a20a 683e 9e86 77be 1e3a 36be
00000180: e145 9c3e 9c5a e6bd 3c04 f2bd db22 a5be
00000190: b078 43be 5c88 aa3d f836 34bd e3c4 77be
000001a0: e01a 003c 9328 69be 04cb 90be a3f5 3bbe
000001b0: 9a5e 95be 0657 59be 9599 aa3e 4cf0 803d
000001c0: d05e d23d 9a2d 9fbe c62d 60be c63a e3bd
000001d0: a87f 553d 5a2c 96be 4312 13be 7658 4cbe
000001e0: 0028 723a c005 febd 4039 bdbc 304c 67be
000001f0: 204a 6abe 6e22 47be d0ac e9bd 36b4 86be
00000200: 4f19 8f3e 1c7c 87bd 4fd7 923e ecb4 d43d
00000210: 2085 90be f636 6c3e 0cd5 bbbd 8bd7 02be
00000220: 56aa 8dbe 8bab a9be 7451 c33d d41f 95bd
00000230: 92e3 043e 560f 8cbe 726a 7d3e 988e 7abe
00000240: b8c1 6bbd a096 8e3d c636 303e edc7 893e
00000250: 6b78 9b3e 4c53 87be 0cce ab3d fbd0 12be
00000260: a89e 15bd 107c 7fbe 0574 9b3e 9385 7abe
00000270: 126d 363e 84ea ef3d 2cd6 dd3d 638a 38be
00000280: b320 9b3e 2c04 963d f8a2 2f3d 9c66 96be
00000290: ae49 0f3e 00d4 4cbd 835f 1cbe f397 923e
000002a0: 2033 983d 08da 3cbe 18c3 2cbe b067 82bc
000002b0: 5a96 3e3e c671 aebd 98c1 42be 3cc6 e9bd
000002c0: 6600 7fbe 0c76 f33d 551a 843e 28ac a0be
000002d0: c08c 9e3d 7a54 303e 3893 773d 4c1d f3bd
000002e0: 0228 323e 0a60 333e 8444 ff3d 18eb 6fbd
000002f0: 60c5 b4bd 8810 123d 1831 71bd 766f cbbd
00000300: c22e 5a3e bdab 923e 182a 07bd d0d8 98bd
00000310: 0063 9f3b 100b a3bc ec1e a43d 604e bf3d
00000320: 5802 9bbe 06ee fbbd 33b9 8f3e d6f7 043e
00000330: 10d1 87bc b6ca 4dbe 58d4 50be a7e0 98be
00000340: 1086 debd 148a e63d 3aa4 593e ba97 1d3e
00000350: 1bdc 96be db43 4dbe e878 57bd 2518 a53e
00000360: 7881 453d 6cca b0bd fe36 0d3e f001 02be
00000370: 10ee 5cbe 8622 793e 7334 1bbe 1cda 88bd
00000380: aac7 a9be c271 643e 914d 813e f0cb f83d
00000390: c000 6ebe 1070 a8be a49c 8abe 4a88 7e3e
000003a0: 48e0 233e e59d 8f3e 72d0 323e 10c7 ac3d
000003b0: 80ec 55bb 04cb 81be f338 92be 02a2 9fbe
000003c0: 98ba 0b3e 7095 27be 7063 89bd 6b70 44be
000003d0: c0cb 78bd 083e 70be 5608 5fbe ac72 e23d
000003e0: d6e2 cabd 46b8 523e 6601 dbbd 1664 7abe
000003f0: e0e5 70bd e075 25be 2cdb d0bd 5379 a2be
0.2548462 0.2766693 -0.07809082 0.30620375 -0.073034525 0.06726357 -0.16228501 0.19576088
0.29384765 -0.24454272 0.28973207 0.062386423 0.24626961 0.045143515 0.16072938 -0.04706368
0.25696197 0.049269646 -0.1556133 0.08496609 -0.15357888 -0.03909096 -0.13538611 0.22112367
-0.2631234 -0.15367012 -0.09412491 -0.20042416 0.03146103 -0.32922637 0.3010364 -0.2831561
0.2573425 0.05547306 -0.10823485 0.20598331 0.051950246 0.2693211 0.036439896 -0.1051244
0.089561224 -0.090393156 0.14028585 0.2976074 0.19268653 -0.14572418 0.19242159 0.059642076
0.16927835 -0.20316836 -0.3299695 -0.12878685 -0.2556743 0.273513 0.09601045 0.13807118
0.10542038 -0.0057986677 0.2608694 -0.23683786 0.020987898 -0.2275134 0.10278401 -0.114794105
0.10213876 -0.06944716 0.27646396 -0.19756731 -0.19879934 -0.19881134 0.29981425 0.111083716
0.32075027 -0.2750921 -0.33062539 -0.26078793 -0.2242297 0.13501337 0.11935863 0.27697483
-0.17214179 -0.22723727 0.17685941 -0.13473484 0.20230797 -0.07910022 0.19068196 -0.25898933
-0.16821659 0.10162547 0.07046917 -0.084986255 0.19868985 0.22660306 -0.24172446 -0.17795607
0.30522063 -0.11247751 -0.11817214 -0.32253155 -0.19089007 0.0832679 -0.043997735 -0.241962
0.0078189075 -0.22769384 -0.2827989 -0.18355422 -0.29173738 -0.21224603 0.333203 0.06295833
0.1027199 -0.3108948 -0.21892461 -0.110951945 0.052123696 -0.29330713 -0.14362435 -0.1995562
0.0009237528 -0.124034405 -0.023098588 -0.22587657 -0.22879839 -0.19446728 -0.114099145 -0.26309365
0.27948996 -0.06615469 0.28679892 0.103860706 -0.28226566 0.23067841 -0.09171495 -0.12777536
-0.27669019 -0.3313869 0.0953702 -0.07281461 0.12977436 -0.2735545 0.24747637 -0.24468458
-0.05755779 0.06962323 0.17208394 0.26910344 0.3036531 -0.26430738 0.0838891 -0.14337532
-0.03652826 -0.2494967 0.30361953 -0.24465017 0.17815045 0.11714652 0.10831866 -0.1802154
0.30298385 0.073250145 0.04288003 -0.2937516 0.1399295 -0.050006866 -0.1527081 0.28631553
0.07431626 -0.18442547 -0.16871297 -0.015918583 0.18612042 -0.08517794 -0.19019163 -0.11414763
-0.24902496 0.1188775 0.2580134 -0.31381345 0.0774169 0.17219725 0.060443133 -0.11870822
0.17398074 0.17517105 0.1246424 -0.058573812 -0.08826709 0.035660297 -0.05888471 -0.09933369
0.21306899 0.2864665 -0.032999128 -0.07463229 0.0048640966 -0.019902736 0.080137104 0.09341121
-0.30275226 -0.12301259 0.28070983 0.12985167 -0.016579181 -0.2009686 -0.20393503 -0.29858896
-0.10865414 0.11256805 0.21254054 0.1538991 -0.29464802 -0.20045416 -0.05260554 0.32244983
0.048219174 -0.08632359 0.13790509 -0.12696052 -0.21575189 0.24329576 -0.15156727 -0.06682226
-0.33160144 0.2230902 0.2525449 0.12148273 -0.23242474 -0.32897997 -0.27072632 0.24856678
0.16003525 0.2805015 0.17462328 0.08436406 -0.0032642186 -0.253502 -0.28559074 -0.3117829
0.13645399 -0.163656 -0.06708419 -0.19183509 -0.060741186 -0.23461163 -0.21780524 0.11057028
-0.09906547 0.20578107 -0.10693626 -0.24452242 -0.058812976 -0.16158247 -0.10198054 -0.31733188

cnn.cnn.0.bias f4 [32]
00000000: 4113 8f3e b82d 56bd a87c 1bbd 104e 0bbe
00000010: 6b1f 9abe 5415 a6be 04b8 fd3d 6368 3bbe
00000020: 736f 5bbe 300e d5bc ec55 e3bd 5cdb dcbd
00000030: a07a 2f3c 54cd 90bd f60c ebbd b36e 23be
00000040: aae4 8abe f11a 8f3e e398 08be 84e4 b43d
00000050: b0dc ecbd c0e5 dd3c d51c 9f3e 9042 1d3e
00000060: 52e6 93be e679 073e 0d01 a23e 2499 b33d
00000070: 9ad6 643e 1542 a83e 6835 51bd c4b0 8d3d
0.27944377 -0.052289695 -0.03796068 -0.13603997 -0.30102095 -0.32438147 0.12388614 -0.18301539
-0.21429233 -0.026007742 -0.11100373 -0.10784027 0.010710388 -0.07070413 -0.114770815 -0.15960197
-0.27127582 0.27950242 -0.13339572 0.088326484 -0.1156553 0.027087092 0.31076685 0.15357423
-0.28886658 0.13230094 0.31641427 0.08769444 0.22347489 0.32862917 -0.051076323 0.06918481

cnn.cnn.2.weight f4 [32]
00000000: 0000 803f 0000 803f 0000 803f 0000 803f
00000010: 0000 803f 0000 803f 0000 803f 0000 803f
00000020: 0000 803f 0000 803f 0000 803f 0000 803f
00000030: 0000 803f 0000 803f 0000 803f 0000 803f
00000040: 0000 803f 0000 803f 0000 803f 0000 803f
00000050: 0000 803f 0000 803f 0000 803f 0000 803f
00000060: 0000 803f 0000 803f 0000 803f 0000 803f
00000070: 0000 803f 0000 803f 0000 803f 0000 803f
1.0 1.0 1.0 1.0 1.0 1.0 1.0 1.0
1.0 1.0 1.0 1.0 1.0 1.0 1.0 1.0
1.0 1.0 1.0 1.0 1.0 1.0 1.0 1.0
1.0 1.0 1.0 1.0 1.0 1.0 1.0 1.0

cnn.cnn.2.bias f4 [32]
00000000: 0000 0000 0000 0000 0000 0000 0000 0000
00000010: 0000 0000 0000 0000 0000 0000 0000 0000
00000020: 0000 0000 0000 0000 0000 0000 0000 0000
00000030: 0000 0000 0000 0000 0000 0000 0000 0000
00000040: 0000 0000 0000 0000 0000 0000 0000 0000
00000050: 0000 0000 0000 0000 0000 0000 0000 0000
00000060: 0000 0000 0000 0000 0000 0000 0000 0000
00000070: 0000 0000 0000 0000 0000 0000 0000 0000
0.0 0.0 0.0 0.0 0.0 0.0 0.0 0.0
0.0 0.0 0.0 0.0 0.0 0.0 0.0 0.0
0.0 0.0 0.0 0.0 0.0 0.0 0.0 0.0
0.0 0.0 0.0 0.0 0.0 0.0 0.0 0.0

cnn.cnn.2.running_mean f4 [32]
00000000: 9beb e43c 0000 0000 0000 0000 0000 0000
00000010: 0000 0000 0000 0000 9df9 4a3c 0000 0000
00000020: 0000 0000 0000 0000 0000 0000 0000 0000
00000030: 1a62 8c3a 0000 0000 0000 0000 0000 0000
00000040: 0000 0000 e8f7 e43c 0000 0000 d0b6 103c
00000050: 0000 0000 9a84 313b 8894 fe3c b39d 7b3c
00000060: 0000 0000 0ac3 583c 719a 013d b7ad 0f3c
00000070: 1512 b73c 449b 063d 0000 0000 6db4 e23b
0.027944377 0.0 0.0 0.0 0.0 0.0 0.012388614 0.0
0.0 0.0 0.0 0.0 0.0010710389 0.0 0.0 0.0
0.0 0.027950242 0.0 0.008832648 0.0 0.0027087093 0.031076685 0.015357423
0.0 0.013230095 0.031641427 0.008769444 0.02234749 0.032862917 0.0 0.006918481

cnn.cnn.2.running_var f4 [32]
00000000: 6666 663f 6666 663f 6666 663f 6666 663f
00000010: 6666 663f 6666 663f 6666 663f 6666 663f
00000020: 6666 663f 6666 663f 6666 663f 6666 663f
00000030: 6666 663f 6666 663f 6666 663f 6666 663f
00000040: 6666 663f 6666 663f 6666 663f 6666 663f
00000050: 6666 663f 6666 663f 6666 663f 6666 663f
00000060: 6666 663f 6666 663f 6666 663f 6666 663f
00000070: 6666 663f 6666 663f 6666 663f 6666 663f
0.9 0.9 0.9 0.9 0.9 0.9 0.9 0.9
0.9 0.9 0.9 0.9 0.9 0.9 0.9 0.9
0.9 0.9 0.9 0.9 0.9 0.9 0.9 0.9
0.9 0.9 0.9 0.9 0.9 0.9 0.9 0.9

cnn.cnn.3.weight f4 [64, 32, 3, 3]
00000000: c8c0 27bd 50f4 46bc 25bf 323d a676 f73c
00000010: baba 18bd d18a 41bd a1ef 24bd 2231 6ebd
00000020: fa3d 3abd fcbf 6ebc 43e3 223d cc98 213c
00000030: 3d94 37bd c29f 41bd ee23 f03c 6a88 33bd
00000040: 58be edbb 1690 e73c 6868 dfbc d08a d2bb
00000050: 6012 a8bb fc67 64bc f0c0 f4bc 2228 57bd
00000060: b61a 43bd 123d 01bd 1d1d 693d f628 e9bc
00000070: 5414 22bd 2404 6a3c ca0a 853c 353e 043d
00000080: 4576 373d 1b68 063d cc4e 6fbd 183f ab3b
00000090: 3b34 123d 3876 b2bb 583a 0ebd e518 663d
000000a0: d08c b4bc 9f6a 09bd 3999 59bd 707f 2c3b
000000b0: 8ee8 d53c 34b6 553c 34ea 3e3c 320b 37bd
000000c0: f666 61bd 8001 883a 5914 5c3d c73e 0b3d
000000d0: 0e87 0cbd d0a4 fabb 0ded 31bd e5df e8bc
000000e0: c4d6 2e3c e96d 033d 39ef 473d e197 5dbd
000000f0: 5b60 213d 8a3a 2abd 1ec3 b43c bf3f 4c3d
00000100: 80e9 583a 3797 5b3d 80a6 4dbd f060 b8bc
00000110: fdc5 0c3d 6c56 52bc 04a0 45bc 6431 c9bc
00000120: cd5e 263d 5ac6 ec3c e6af 9a3c 93a2 07bd
00000130: 54ec 43bd 28d8 d03b ea04 8f3c 72e0 debc
00000140: 3e10 87bc 9301 233d 18d0 993b 503c 2e3b
00000150: 2c98 6dbc 8492 5abd 90f0 62bd 20bf e6bc
00000160: 4260 f5bc 8264 963c 4486 8cbc 9cd9 bcbc
00000170: 751e 663d 4e24 a83c c310 2c3d a7b0 e9bc
00000180: a42c c5bc 226b b13c c4cf 20bd 06c7 1dbd
00000190: 6085 3abb 328f b0bc d2ef 34bd 112a 0f3d
000001a0: 8f17 423d c49d 1c3c 6418 28bc 7e90 5fbd
000001b0: 1ed3 afbc 44c9 753c d69d e33c a018 f4bb
000001c0: 12d8 bebc d97d 063d e437 40bd 158b 183d
000001d0: da45 bbbc 006c 6c3a 1cc9 3ebc d818 ea3b
000001e0: 6ee0 91bc ad7f 2f3d 00ca c8ba a167 3c3d
000001f0: e50f 683d 0c2d ebbc dc12 30bd 95a4 413d
00000200: e321 3d3d 024a 38bd 4843 95bb b502 6ebd
00000210: 8c93 45bd 8477 3a3c 766b 803c 7ca7 4c3c
00000220: fe60 83bc 2dac 5e3d 3c09 0a3c 1e6c 0ebd
00000230: d0a0 5abb 4cd8 673c 5e0b a93c 10a9 2abd
00000240: f2ea b43c a59c f6bc 168e 48bd 07d5 03bd
00000250: ddc4 683d e553 4e3d 2322 583d 35ae 0d3d
00000260: ab55 363d 3439 01bc 72cd 04bd 7e31 f13c
00000270: e222 fabc 91e2 22bd fa25 9abc 149b 4a3c
00000280: 7280 f83c fc7d bbbc 4c0e 0ebd 0c3b 023c
00000290: dc43 0ebd be23 1dbd 2a9e fb3c b02d 22bc
000002a0: e38c 5c3d 3bca 6a3d 3a62 903c 9621 a63c
000002b0: 0453 5e3c c0e9 713a e86f 8cbb 004e 543a
000002c0: 4a42 b43c 9f68 603d a033 7abc 780d ccbc
000002d0: 78cb 69bc 8036 e9bc 5c29 243c 8129 343d
000002e0: c5bc 3c3d d6a0 dd3c b09f 31bd e189 01bd
000002f0: 101e 54bc 08f4 31bc 58cf 9e3b 908f 5dbd
00000300: 563e 963c 4a20 38bd fcb7 18bd 68a9 48bd
00000310: 0b4d 523d 748d 64bd c312 363d e0d1 01bb
00000320: e88e e0bb 07f7 163d 4877 b2bb 8f5e 173d
00000330: 9981 2e3d e88c 51bd 02be b93c 0c41 363c
00000340: 8494 4f3c 0cf2 0c3c d209 843c 4038 e8bc
00000350: c009 f7bb f351 653d 3128 223d 7014 11bb
00000360: 7601 63bd 7040 293b f25b 24bd 6d45 443d
00000370: ac86 12bd 8069 8bbb 8445 56bc 9ccd 2b3c
00000380: 2720 633d 5878 b73b 59c9 0b3d 2159 3b3d
00000390: 17da 423d 1cb5 a6bc 20ed 57bc e2a3 e83c
000003a0: dcb7 83bc 220a e23c acea 52bc d0b3 23bd
000003b0: ba7c c43c d404 143c 1a38 d73c 73c9 6f3d
000003c0: a9c8 243d cbcd 643d 10b1 4e3b c29e 4fbd
000003d0: eb51 29bd 0aed 15bd 84b2 54bd 19f6 f1bc
000003e0: fb2f 5ebd 7eae 5ebd aa39 10bd a3f0 6dbd
000003f0: 3426 14bd 8e10 b83c 674e 493d 3a97 8fbc
-0.040955335 -0.01214321 0.04363932 0.030207943 -0.03728745 -0.047251526 -0.04026759 -0.058152325
-0.04546926 -0.01457214 0.039767515 0.00986309 -0.044819105 -0.047271498 0.029314008 -0.043831266
-0.0072553568 0.028266948 -0.027271464 -0.006425239 -0.0051291436 -0.013940807 -0.029877156 -0.052528508
-0.047632895 -0.03155238 0.05691253 -0.028461915 -0.039570168 0.014283214 0.016240496 0.032285888
0.044790525 0.032814126 -0.058424756 0.005226027 0.035694342 -0.0054462217 -0.03472361 0.056176085
-0.0220398 -0.033548947 -0.05312464 0.0026321076 0.026111867 0.013043929 0.011652518 -0.04468841
-0.05502983 0.0010376424 0.053730343 0.033995416 -0.034308486 -0.0076490417 -0.04343896 -0.028427074
0.010671321 0.03208724 0.048812125 -0.05409992 0.039398532 -0.041559733 0.022065695 0.04986548
0.00082745403 0.053611007 -0.050207615 -0.02250716 0.034368504 -0.012837987 -0.0120620765 -0.024559684
0.040617753 0.028903175 0.018882703 -0.033114027 -0.047832802 0.006373424 0.017458398 -0.027206633
-0.016487237 0.039796423 0.004693996 0.0026586242 -0.014501613 -0.053362384 -0.0554052 -0.028167307
-0.029953126 0.018358473 -0.017153867 -0.023052983 0.05618139 0.020525124 0.042008173 -0.028526617
-0.024069138 0.02165753 -0.03926064 -0.03851988 -0.0028460845 -0.021552656 -0.044174023 0.034952227
0.04738575 0.009559099 -0.010259721 -0.054581158 -0.021462973 0.015001599 0.027785223 -0.0074492246
-0.02329639 0.03283486 -0.0469283 0.037242014 -0.022860456 0.0009018779 -0.011644628 0.007144075
-0.017807212 0.04284637 -0.001531899 0.045997266 0.056655783 -0.028708003 -0.042986736 0.0472761
0.046174895 -0.044992454 -0.0045551397 -0.05810805 -0.048236415 0.011381034 0.015676241 0.012491103
-0.01603746 0.05436342 0.008425053 -0.034771077 -0.0033360012 0.01415069 0.020635303 -0.041665137
0.022084687 -0.03010399 -0.04896363 -0.03218558 0.05682837 0.050372977 0.05276693 0.034589965
0.044515293 -0.007887173 -0.03242249 0.029442545 -0.030534212 -0.03976685 -0.018816937 0.012366075
0.030334685 -0.022887222 -0.034681603 0.007948648 -0.034732684 -0.038364165 0.030715067 -0.009898588
0.053845298 0.05732177 0.017624963 0.020279687 0.013569597 0.0009228252 -0.004285801 0.0008098781
0.022004265 0.054787274 -0.015271097 -0.024908766 -0.014269702 -0.02846837 0.0100196265 0.043984894
0.046078462 0.027054232 -0.04336518 -0.031625632 -0.012946621 -0.010861404 0.0048464946 -0.05409199
0.018340271 -0.04495267 -0.037284836 -0.048989683 0.051343005 -0.055798963 0.044451486 -0.0019808933
-0.0068529733 0.036856677 -0.0054463483 0.036955412 0.042604063 -0.05115977 0.02267361 0.011123907
0.012669686 0.00860263 0.016117964 -0.028347135 -0.007539004 0.055986356 0.03958911 -0.0022137426
-0.055421315 0.0025825761 -0.04012675 0.047917772 -0.035772964 -0.00425452 -0.013078097 0.010486033
0.055450585 0.005599063 0.034127567 0.045739297 0.047571268 -0.020350032 -0.013179094 0.028398458
-0.016078882 0.027592722 -0.012873333 -0.039966404 0.023985256 0.009034354 0.026271868 0.058541726
0.040230427 0.055860322 0.0031538643 -0.050688513 -0.04133789 -0.03660301 -0.05192806 -0.029536294
-0.054244976 -0.054365627 -0.035211243 -0.058090817 -0.036169246 0.022468831 0.049147036 -0.017528165

cnn.cnn.3.bias f4 [64]
00000000: fa8f 70bd bcac 34bc 0dd4 193d f0e7 14bd
00000010: a8f7 9dbc c0d9 1c3b 8caa d1bc 6870 b13b
00000020: 6680 5ebd 9259 823c 2fd6 613d d078 6c3b
00000030: b72f 6b3d 089d 54bd 5acc fabc f89f 92bc
00000040: a553 4e3d 3216 5dbd 587b 2fbc 4e27 58bd
00000050: 84b2 393c 399e 51bd 4439 46bd 7237 16bd
00000060: c266 b9bc f141 193d 6425 1c3c 9993 59bd
00000070: 5139 643d a0be 9cba 36fc 8c3c b443 f9bc
00000080: 5598 e3bc 7cc3 34bd 2cc8 3dbd f1a5 f6bc
00000090: 1735 053d 96b5 b7bc 71d1 4cbd 4275 8d3c
000000a0: 9ca0 7dbc 68fa 2cbd b373 433d 683a 61bd
000000b0: 3dba 6abd f17e 0b3d 9f1e 063d c0bf b8bc
000000c0: 0b9a 2a3d b6c0 1ebd 6c01 e3bc c8f9 0abc
000000d0: 6894 a1bc 1b0e 1c3d cc53 60bd 7f6c 433d
000000e0: 4b3e 0a3d 2a12 05bd e269 febc bc2e 163c
000000f0: 50d0 92bb 9405 56bd db74 453d 9fe9 3d3d
-0.058731057 -0.011027511 0.037555743 -0.036354005 -0.01928313 0.00239335 -0.025594018 0.005415011
-0.05432167 0.015911851 0.055135902 0.0036082752 0.05741855 -0.05190757 -0.03061502 -0.017898545
0.05037274 -0.053976245 -0.01071056 -0.05277186 0.011334065 -0.051176284 -0.048394457 -0.03667397
-0.022632007 0.037416402 0.009530399 -0.053119276 0.055718724 -0.0011958666 0.017210107 -0.030427791
-0.027782599 -0.04413174 -0.046333477 -0.030108424 0.032521334 -0.022425454 -0.050004426 0.017267827
-0.015480187 -0.042230994 0.04771776 -0.05498734 -0.057306517 0.034056608 0.032744046 -0.022552371
0.041650813 -0.038758002 -0.027710639 -0.008482404 -0.019724086 0.03809939 -0.054767415 0.04771089
0.033750813 -0.032488026 -0.031056348 0.009166416 -0.004480399 -0.052251413 0.048207145 0.046365377

cnn.cnn.5.weight f4 [64]
00000000: 0000 803f 0000 803f 0000 803f 0000 803f
00000010: 0000 803f 0000 803f 0000 803f 0000 803f
00000020: 0000 803f 0000 803f 0000 803f 0000 803f
00000030: 0000 803f 0000 803f 0000 803f 0000 803f
00000040: 0000 803f 0000 803f 0000 803f 0000 803f
00000050: 0000 803f 0000 803f 0000 803f 0000 803f
00000060: 0000 803f 0000 803f 0000 803f 0000 803f
00000070: 0000 803f 0000 803f 0000 803f 0000 803f
00000080: 0000 803f 0000 803f 0000 803f 0000 803f
00000090: 0000 803f 0000 803f 0000 803f 0000 803f
000000a0: 0000 803f 0000 803f 0000 803f 0000 803f
000000b0: 0000 803f 0000 803f 0000 803f 0000 803f
000000c0: 0000 803f 0000 803f 0000 803f 0000 803f
000000d0: 0000 803f 0000 803f 0000 803f 0000 803f
000000e0: 0000 803f 0000 803f 0000 803f 0000 803f
000000f0: 0000 803f 0000 803f 0000 803f 0000 803f
1.0 1.0 1.0 1.0 1.0 1.0 1.0 1.0
1.0 1.0 1.0 1.0 1.0 1.0 1.0 1.0
1.0 1.0 1.0 1.0 1.0 1.0 1.0 1.0
1.0 1.0 1.0 1.0 1.0 1.0 1.0 1.0
1.0 1.0 1.0 1.0 1.0 1.0 1.0 1.0
1.0 1.0 1.0 1.0 1.0 1.0 1.0 1.0
1.0 1.0 1.0 1.0 1.0 1.0 1.0 1.0
1.0 1.0 1.0 1.0 1.0 1.0 1.0 1.0

cnn.cnn.5.bias f4 [64]
00000000: 0000 0000 0000 0000 0000 0000 0000 0000
00000010: 0000 0000 0000 0000 0000 0000 0000 0000
00000020: 0000 0000 0000 0000 0000 0000 0000 0000
00000030: 0000 0000 0000 0000 0000 0000 0000 0000
00000040: 0000 0000 0000 0000 0000 0000 0000 0000
00000050: 0000 0000 0000 0000 0000 0000 0000 0000
00000060: 0000 0000 0000 0000 0000 0000 0000 0000
00000070: 0000 0000 0000 0000 0000 0000 0000 0000
00000080: 0000 0000 0000 0000 0000 0000 0000 0000
00000090: 0000 0000 0000 0000 0000 0000 0000 0000
000000a0: 0000 0000 0000 0000 0000 0000 0000 0000
000000b0: 0000 0000 0000 0000 0000 0000 0000 0000
000000c0: 0000 0000 0000 0000 0000 0000 0000 0000
000000d0: 0000 0000 0000 0000 0000 0000 0000 0000
000000e0: 0000 0000 0000 0000 0000 0000 0000 0000
000000f0: 0000 0000 0000 0000 0000 0000 0000 0000
0.0 0.0 0.0 0.0 0.0 0.0 0.0 0.0
0.0 0.0 0.0 0.0 0.0 0.0 0.0 0.0
0.0 0.0 0.0 0.0 0.0 0.0 0.0 0.0
0.0 0.0 0.0 0.0 0.0 0.0 0.0 0.0
0.0 0.0 0.0 0.0 0.0 0.0 0.0 0.0
0.0 0.0 0.0 0.0 0.0 0.0 0.0 0.0
0.0 0.0 0.0 0.0 0.0 0.0 0.0 0.0
0.0 0.0 0.0 0.0 0.0 0.0 0.0 0.0

cnn.cnn.5.running_mean f4 [64]
00000000: 0000 0000 0000 0000 1520 763b 0000 0000
00000010: 0000 0000 00f6 7a39 0000 0000 87f3 0d3a
00000020: 0000 0000 508f d03a 59ab b43b 732d bd39
00000030: 2c26 bc3b 0000 0000 0000 0000 0000 0000
00000040: b70f a53b 0000 0000 0000 0000 0000 0000
00000050: d08e 943a 0000 0000 0000 0000 0000 0000
00000060: 0000 0000 4f36 753b 6dd5 793a 0000 0000
00000070: 4194 b63b 0000 0000 8a93 e13a 0000 0000
00000080: 0000 0000 0000 0000 0000 0000 0000 0000
00000090: bf21 553b 0000 0000 0000 0000 3755 e23a
000000a0: 0000 0000 0000 0000 8f5c 9c3b 0000 0000
000000b0: 0000 0000 8231 5f3b 6597 563b 0000 0000
000000c0: 3c7b 883b 0000 0000 0000 0000 0000 0000
000000d0: 0000 0000 2bb0 793b 0000 0000 cc56 9c3b
000000e0: 7830 5d3b 0000 0000 0000 0000 c74a 703a
000000f0: 0000 0000 0000 0000 16f7 9d3b 19ee 973b
0.0 0.0 0.0037555743 0.0 0.0 0.000239335 0.0 0.00054150115
0.0 0.0015911851 0.0055135903 0.00036082751 0.005741855 0.0 0.0 0.0
0.0050372737 0.0 0.0 0.0 0.0011334065 0.0 0.0 0.0
0.0 0.0037416404 0.0009530399 0.0 0.0055718725 0.0 0.0017210108 0.0
0.0 0.0 0.0 0.0 0.0032521335 0.0 0.0 0.0017267828
0.0 0.0 0.004771776 0.0 0.0 0.0034056609 0.0032744047 0.0
0.0041650813 0.0 0.0 0.0 0.0 0.003809939 0.0 0.004771089
0.0033750813 0.0 0.0 0.0009166416 0.0 0.0 0.0048207147 0.0046365377

cnn.cnn.5.running_var f4 [64]
00000000: 6666 663f 6666 663f 6666 663f 6666 663f
00000010: 6666 663f 6666 663f 6666 663f 6666 663f
00000020: 6666 663f 6666 663f 6666 663f 6666 663f
00000030: 6666 663f 6666 663f 6666 663f 6666 663f
00000040: 6666 663f 6666 663f 6666 663f 6666 663f
00000050: 6666 663f 6666 663f 6666 663f 6666 663f
00000060: 6666 663f 6666 663f 6666 663f 6666 663f
00000070: 6666 663f 6666 663f 6666 663f 6666 663f
00000080: 6666 663f 6666 663f 6666 663f 6666 663f
00000090: 6666 663f 6666 663f 6666 663f 6666 663f
000000a0: 6666 663f 6666 663f 6666 663f 6666 663f
000000b0: 6666 663f 6666 663f 6666 663f 6666 663f
000000c0: 6666 663f 6666 663f 6666 663f 6666 663f
000000d0: 6666 663f 6666 663f 6666 663f 6666 663f
000000e0: 6666 663f 6666 663f 6666 663f 6666 663f
000000f0: 6666 663f 6666 663f 6666 663f 6666 663f
0.9 0.9 0.9 0.9 0.9 0.9 0.9 0.9
0.9 0.9 0.9 0.9 0.9 0.9 0.9 0.9
0.9 0.9 0.9 0.9 0.9 0.9 0.9 0.9
0.9 0.9 0.9 0.9 0.9 0.9 0.9 0.9
0.9 0.9 0.9 0.9 0.9 0.9 0.9 0.9
0.9 0.9 0.9 0.9 0.9 0.9 0.9 0.9
0.9 0.9 0.9 0.9 0.9 0.9 0.9 0.9
0.9 0.9 0.9 0.9 0.9 0.9 0.9 0.9

cnn.cnn.6.weight f4 [64, 64, 3, 3]
00000000: 9b91 083d 9013 a23c 9e9d edbc 389b b3bc
00000010: 6b1c 90bc c45b 3d3c 42ff b73c 70fe 00bb
00000020: 6beb 27bd 2b5a d8bc 9335 a3bc f0c3 e5bc
00000030: f6ba af3c 80b2 f33a 0b9b f3bc 8b12 cfbc
00000040: fb5f f9bc fe77 ecbc 2800 803c 084f b3bc
00000050: 7a23 12bd c035 453b 50bc 23bb f880 0dbd
00000060: 6ced 373c f019 693b e852 b23b aeef 953c
00000070: 064c acbc 8222 15bd 2aa3 dc3c 11cc 1a3d
00000080: 2782 1e3d ea2a b63c c5df 1c3d 3cb1 403c
00000090: b3e7 14bd 140f 4b3c dc81 02bd 6cc5 20bd
000000a0: 4213 843c cec7 b4bc 5396 f6bc b12c 213d
000000b0: 048f 593c f2d9 913c 8cc0 4bbc e048 7f3c
000000c0: 40ed 2bba 8071 1fbc 2041 02bc 8e50 fd3c
000000d0: 2b63 e9bc 5c78 52bc 223f f93c e071 feba
000000e0: 0a93 a73c 78ac 90bc 2a03 e53c b8a2 f2bc
000000f0: c806 b7bc 6420 16bd 1751 08bd d2eb d63c
00000100: ceb3 dc3c 62f5 b63c 58f4 a83c 5287 e73c
00000110: 229e cf3c 2adf c83c 7092 a7bc fac3 ff3c
00000120: dea8 e23c 4080 533c 68f3 f5bb e532 153d
00000130: 5077 35bb 8214 1fbd 683e 80bc 8082 8bba
00000140: e041 a23c 44a0 373c 2032 ec3b 4b37 113d
00000150: 5e28 df3c 98e2 c1bc dc91 77bc c821 82bb
00000160: 409e 1bbb ec1f 02bd cce8 36bc f545 013d
00000170: b275 25bd 28b5 c43b 3c41 0a3c d00f 5abc
00000180: 8037 68bc 0615 abbc 901a 1bbd dee6 19bd
00000190: 827b b53c 00d0 a3ba a0a5 edba 48eb dfbb
000001a0: 1f6c 21bd a0c1 debb 3b63 1dbd 5e30 a83c
000001b0: ac96 6fbc 46fd 67bc 6471 703c 13f7 e9bc
000001c0: a31e debc d66a bdbc 2cf5 19bc 5eaa d7bc
000001d0: 6807 2abd 20a3 983c 5e95 b93c a0dc 8cbc
000001e0: 5b3d 03bd 220d e73c 1b45 cfbc 4255 04bd
000001f0: 3aed 19bd c014 293c 24cc 1a3c 3f74 223d
00000200: b330 86bc 5640 d5bc 49bd 263d 4a9f ea3c
00000210: cf0e 17bd 1eda 1fbd 5024 7e3c a006 aabc
00000220: 48f3 ed3b 803f 33bb f65e 54bc 55b0 113d
00000230: d4da 5f3c b071 4d3c 1b19 00bd d0a2 6fbc
00000240: 7a8c 9f3c 5a9f bb3c f830 913b 3228 27bd
00000250: 3e9d b7bc 612c 283d 1195 0a3d d2bd b33c
00000260: fb48 c7bc 1e26 b8bc ccf1 763c 6ee3 0ebd
00000270: a86c 9fbb 22bd 823c ba8c 863c 32e5 a73c
00000280: 9056 233b 3613 e53c cce3 26bd a321 b0bc
00000290: 6075 52bc de92 c73c e23a 05bd d2b7 fb3c
000002a0: f6b9 c5bc c039 4ebc 6295 fc3c 2511 273d
000002b0: e0bf 4c3c bcda 11bc 0a7a f13c 5031 04bb
000002c0: 12b3 cd3c 623e 8a3c 402a 6eba e30d 213d
000002d0: ba8d a43c f145 203d c52c 213d d0f8 033c
000002e0: a0b5 9fbc 7685 65bc a03c d9bb 90c9 5ebc
000002f0: a074 8e3b e7e9 253d 72d5 e03c 00ef 3a3c
00000300: 626c b13c deb6 c0bc 6238 893c 697f 153d
00000310: ccca 5c3c c019 283a 41d2 093d ab57 0cbd
00000320: 0eb1 c03c f42b 04bc d050 1dbd ca5d bf3c
00000330: b484 08bc 745c 19bc e009 9cbc b069 61bc
00000340: 18e0 d1bb ea94 27bd a6fe a53c a848 b03b
00000350: 5484 7d3c 51d2 293d 7456 18bc ced9 ccbc
00000360: 3ea5 ddbc 8029 bcbb 5ce4 04bc b014 733c
00000370: b026 423b 1c75 633c b3f0 adbc 12f2 12bd
00000380: e0a6 cb3a 9465 103c 3846 a3bc 0c9f 73bc
00000390: 68c6 f0bb 029b 18bd 234b 1f3d 8eea f53c
000003a0: cb34 f9bc 8aa1 22bd cf99 143d 11b3 0d3d
000003b0: 4744 19bd 3cb6 103c b8d3 d8bc fe3f fbbc
000003c0: a071 edbc 0034 ab3a a19d 1d3d ae1d 9f3c
000003d0: e39a 1dbd 420b b83c a7e6 1a3d dee1 f03c
000003e0: 3bad 1d3d 0b79 c6bc fbb4 adbc 72ab bd3c
000003f0: 6c70 06bd 560f 41bc da03 f53c e0b6 513c
0.033341985 0.019784719 -0.029005822 -0.0219246 -0.017591676 0.011557523 0.022460584 -0.0019682907
-0.040995996 -0.026410183 -0.019923007 -0.028047532 0.021451455 0.0018592626 -0.029737016 -0.025277397
-0.030441275 -0.02886581 0.015625075 -0.021888271 -0.035678364 0.0030091852 -0.002498407 -0.034546822
0.011226039 0.0035568438 0.005442012 0.018302765 -0.021032345 -0.036409862 0.026933271 0.03779227
0.03869834 0.02223726 0.03829934 0.011761006 -0.036353778 0.012393732 -0.031862125 -0.039250776
0.016122464 -0.02206793 -0.030100977 0.03934926 0.0132787265 0.01780412 -0.0124360435 0.01558134
-0.00065584853 -0.00973165 -0.007950097 0.0309222 -0.02848967 -0.012846079 0.030425612 -0.00194126
0.020455856 -0.017660365 0.02795561 -0.029618606 -0.0223421 -0.036651984 -0.03328046 0.026235495
0.026941206 0.022333805 0.020624325 0.028262768 0.025343958 0.024520475 -0.020455569 0.031221379
0.027668413 0.012908995 -0.007505823 0.03642549 -0.0027689524 -0.038837917 -0.015654758 -0.001064375
0.019806802 0.011207644 0.007208124 0.035453122 0.027240928 -0.023667619 -0.015110459 -0.003971312
-0.0023745447 -0.031768724 -0.011163902 0.031560857 -0.040395446 0.006003041 0.008438405 -0.013309434
-0.0141733885 -0.020884048 -0.03786713 -0.037573688 0.02215362 -0.0012497902 -0.0018131025 -0.0068334676
-0.039409753 -0.0067979842 -0.03842471 0.020530876 -0.014623325 -0.014159506 0.014675472 -0.028560197
-0.027114218 -0.023122232 -0.009396832 -0.026326355 -0.04151097 0.018632472 0.022654232 -0.017195046
-0.032040935 0.028204504 -0.025301507 -0.03230787 -0.037579753 0.010319889 0.009448085 0.039661642
-0.016380643 -0.026031654 0.04070786 0.028640408 -0.036879357 -0.039026372 0.015511587 -0.020755112
0.0072616674 -0.0027351081 -0.012962094 0.035568554 0.013663013 0.012539312 -0.031273942 -0.01462622
0.019476164 0.022903133 0.0044308864 -0.040809818 -0.022413846 0.041057948 0.033833567 0.0219411
-0.024326792 -0.022479113 0.015072297 -0.034884863 -0.0048652478 0.015959326 0.016424526 0.020495031
0.0024923421 0.027963262 -0.040744588 -0.021500414 -0.012845367 0.024362024 -0.03252686 0.0307273
-0.024136525 -0.012587011 0.03083295 0.040787835 0.012496918 -0.008902248 0.029477138 -0.0020170994
0.025109801 0.01687545 -0.0009085275 0.039319884 0.020087112 0.0391292 0.039349336 0.008054927
-0.019495785 -0.01400887 -0.0066295415 -0.013597861 0.004347399 0.04050627 0.027445529 0.011409521
0.021658126 -0.023524698 0.016750518 0.03649846 0.013476085 0.00064125285 0.03364778 -0.034263294
0.023521926 -0.00806712 -0.038407147 0.023360152 -0.00833242 -0.009360421 -0.019047678 -0.013758108
-0.006404888 -0.0409135 0.020263027 0.005379755 0.015473444 0.04146034 -0.009297956 -0.025006201
-0.027056333 -0.005742252 -0.008111086 0.014836475 0.002962511 0.0138829015 -0.021232938 -0.035875387
0.0015537404 0.008813281 -0.019930944 -0.014869463 -0.0073478706 -0.037257202 0.038890015 0.030019071
-0.030420681 -0.039704837 0.036279496 0.0345946 -0.03741863 0.008832511 -0.026468143 -0.030670162
-0.028984845 0.0013061762 0.038480405 0.019423332 -0.03847779 0.022466306 0.037817623 0.029404577
0.038495284 -0.02422764 -0.021204462 0.02315304 -0.032822058 -0.0117834415 0.029909063 0.012799948

cnn.cnn.6.bias f4 [64]
00000000: 0ae0 0fbd 16c4 67bc 90ff fbbc 7c26 353c
00000010: c4ce 4d3c a070 d7bb deae 853c c064 4c3a
00000020: 4746 163d a8b1 913b 1a42 ee3c 5a47 e43c
00000030: 00f6 21ba 0ec1 b13c 5021 053c 24ce 25bc
00000040: 46c6 9c3c 422f b93c bed2 b5bc 70b3 b6bc
00000050: de5c f7bc 88a1 e8bc b041 c9bc 6ef2 f7bc
00000060: cabc bc3c e0a4 03bd d0eb 0abd 965b edbc
00000070: a859 dcbb 257c 213d 0076 2cba 1e76 0fbd
00000080: 8c80 07bc 5ced 073c ea57 f43c 402e 1e3a
00000090: b124 253d d887 fc3b 234b 003d c3a4 aebc
000000a0: 505b 20bc c09b 343b b3c9 273d a0f3 9cbc
000000b0: 1036 4a3c 9fa3 10bd 0b85 87bc 0629 6cbc
000000c0: e641 56bc 0038 ed39 7067 603c 8bab 1e3d
000000d0: aaa5 af3c 16be 71bc 50e2 7a3c 6651 efbc
000000e0: 56e6 32bc cabe e23c b1f4 0a3d c095 553a
000000f0: be02 e13c c672 99bc e23b e13c b8c2 9bbb
-0.03512577 -0.014145872 -0.03076151 0.011056539 0.012561504 -0.0065747052 0.016318735 0.00077969953
0.036688115 0.004446227 0.029084254 0.027866054 -0.00061783195 0.021698501 0.008125618 -0.010119949
0.019137513 0.022605542 -0.022195216 -0.02230236 -0.03019565 -0.028397337 -0.024567455 -0.030266967
0.02303924 -0.03213966 -0.033916295 -0.028974336 -0.006724555 0.039425034 -0.00065788627 -0.035024755
-0.008270394 0.008296337 0.029827077 0.00060341135 0.040318195 0.0077066235 0.031321656 -0.021318799
-0.009787396 0.0027558655 0.04096384 -0.019159138 0.012341991 -0.03531229 -0.016542932 -0.014414078
-0.013077235 0.00045245886 0.013696536 0.038737815 0.0214413 -0.014754793 0.015312746 -0.029213618
-0.010919174 0.027678866 0.033924762 0.00081476197 0.027467128 -0.018731486 0.027494375 -0.004753437

cnn.linear.0.weight f4 [64, 1152]
00000000: 478e 96bc e5eb 7abc b8b3 06bb b513 c73c
00000010: 5672 043c 16e1 59bc b2ea 24bc 59f5 82bc
00000020: 69be cb3c 7c94 d0bc e473 c13b 3007 02bc
00000030: 8333 883c f0a0 843a 144d 3dbc e813 623b
00000040: 6b46 c53c 864f 14bc c732 bf3c f49e 87bc
00000050: 61f7 e93c 962f 1e3c e81a 61bc 0224 15bc
00000060: af85 cf3c 58cf 76bb df55 ef3c a63f b9bc
00000070: d28f 653c 7958 9ebc b06c 99bc f4de ff3b
00000080: d29f 4c3c c680 2fbc 153c ad3c 7e02 66bc
00000090: 6c82 1dbc 5ef4 43bc 10cb 3ebc da0b cabc
000000a0: e882 7bbc da94 45bc 1280 e3bc 2bf5 b5bc
000000b0: 0549 833c fc80 dc3b b2f0 413c f8f2 243b
000000c0: 0345 8d3c 9059 e53a 7c30 f33b 3ae9 3bbc
000000d0: 48ae 83bb 2f7d 8e3c 82c9 b4bc c6bf 0e3c
000000e0: 98b6 69bb ec02 d7bc a0be aabc a71d 803c
000000f0: b84d eabb b59f d33c 9796 bbbc 8a88 07bc
00000100: be57 d2bc f051 b9bb 7e7b 9bbc 9c69 983b
00000110: 38ca 6cbc 3bd7 d13c 385f 56bc 264b 9bbc
00000120: d41d a0bb 01e8 be3c 2de0 cd3c 7023 dbbc
00000130: 5904 c0bc dcb5 ffbb c85e d1bb 745b 96bc
00000140: f40d a1bb f10e 963c d416 813b cafa 6b3c
00000150: 742b e43b d242 4abc b082 f43a beeb 243c
00000160: be48 663c 894f da3c a49b 36bc 1c91 d6bb
00000170: bb97 db3c 81c6 813c cb62 c8bc f60b ccbc
00000180: 3210 31bc b711 bc3c 1abc 56bc a2a0 9bbc
00000190: 7eb8 493c f28f 0cbc e9e2 823c b0cb 2fbb
000001a0: 25e1 a93c 4858 51bb 1438 33bc 5c79 ecbb
000001b0: 3ef7 283c cfe1 aabc f900 c23c c210 173c
000001c0: c42b a6bc ee11 9ebc 5ee4 d5bc 3e4e 073c
000001d0: a04d ad3a ec9f bc3b d577 d03c ade3 993c
000001e0: 60a6 57bb 122b ccbc c003 8cb9 1487 bebb
000001f0: e746 a13c 2891 bdbc 0866 723b baeb 03bc
00000200: 0a2d 45bc 14d8 51bc 4218 2b3c f04b caba
00000210: 1eae 0b3c 39e5 d1bc 5808 ffbb 41e4 b8bc
00000220: 934e b93c a81f 84bb cdf8 ba3c c142 b4bc
00000230: 26a1 013c 64d5 cbbb 23f8 d4bc 9ee3 763c
00000240: f49d e3bc 7293 72bc 2cd8 f73b 8849 87bc
00000250: 3afc cebc 1fd7 bfbc 885a 343b 4953 c03c
00000260: 7631 92bc f37a c33c 5ade b9bc 5bda 893c
00000270: a509 ac3c 3c89 e63b 9bdc 813c bb5b 803c
00000280: 3c3c afbb 4f21 abbc cc98 45bc 1853 373b
00000290: 15a9 a73c 8d7f bbbc e093 063a 21fc cebc
000002a0: 140f a43b e889 673b 20b3 153a fc24 9e3b
000002b0: 6d8f a53c 38c3 3cbc 1ca0 b5bc 49e4 b1bc
000002c0: d139 d9bc 123c 3bbc 0b07 d93c cba2 e23c
000002d0: e885 b4bc 30ed c6bb 6cdf 8bbc 683d 4a3b
000002e0: 9423 d53b afbc af3c a9e5 c33c fc69 b8bc
000002f0: d7b3 823c 30c8 f83a 805f 33b9 9211 153c
00000300: 101e f33a fb07 e53c b12b 973c 95b4 883c
00000310: 7496 0abc bca3 5bbc 7c14 853b 454c c93c
00000320: 316f 863c 8fc0 8d3c bbfd e63c b087 893a
00000330: a34c 8b3c 28df f0bb e1bd 8e3c c550 de3c
00000340: f531 973c dc2d 34bc 68bf 363b 53b9 ee3c
00000350: 1c6b 1dbc 0678 d3bc 0e8c 553c a021 4bba
00000360: 02fd 273c a740 ae3c 60cf 34bb fe23 6e3c
00000370: ceb5 483c 1e38 683c bff6 d63c f0ce c0bb
00000380: 8ef5 a3bc 607d 0cba 2359 6bbc 9b2a abbc
00000390: 435c d93c 8fb8 d33c 6446 d2bb f959 f0bc
000003a0: b5e0 f03c 4066 a23a 08e4 033b 00de f2b8
000003b0: cebd 3f3c 8414 80bb 50a1 46bc 3e47 c3bc
000003c0: 30e2 fcbb 39b6 b63c e224 283c 0006 40b8
000003d0: d0f4 e83a 9243 4b3c 3cde 47bc 2d1c e3bc
000003e0: 30f5 97bb 5e94 0e3c 50d8 a3bb 30d8 07bc
000003f0: d1fd 9e3c e46d 8a3b ba35 acbc 361a 733c
-0.01837839 -0.015315031 -0.0020553898 0.02430139 0.0080839 -0.013298294 -0.010065721 -0.015986132
0.024871068 -0.025461428 0.005903708 -0.007936284 0.016626125 0.0010118764 -0.011554021 0.0034496728
0.02408143 -0.009052163 0.023339642 -0.016555287 0.028560342 0.0096549 -0.013739325 -0.009102823
0.0253323 -0.0037660208 0.029215751 -0.022613358 0.01401134 -0.019329296 -0.018728584 0.0078085605
0.012489276 -0.010711854 0.021146813 -0.01403868 -0.0096136145 -0.011960117 -0.011645094 -0.024663854
-0.015351035 -0.012059415 -0.02777103 -0.022211632 0.01602603 0.0067292433 0.011837171 0.0025169235
0.017244821 0.0017498005 0.0074215513 -0.01146918 -0.0040185787 0.017393677 -0.022068743 0.008712715
-0.0035661813 -0.02624651 -0.02084285 0.01563914 -0.007150378 0.02583299 -0.022898955 -0.0082723
-0.025676604 -0.0056555197 -0.018979784 0.0046512615 -0.01445251 0.025615325 -0.013084225 -0.018956732
-0.0048863683 0.023303987 0.02513131 -0.026750296 -0.023439573 -0.0078036617 -0.0063894726 -0.018354155
-0.0049149934 0.018317671 0.003939489 0.0144030545 0.006963188 -0.012345033 0.001865467 0.010065971
0.014055429 0.026649253 -0.011145506 -0.00654806 0.02680575 0.015841724 -0.02446117 -0.024908047
-0.010807084 0.022957666 -0.01310637 -0.018997494 0.012312053 -0.008579241 0.01597734 -0.0026824288
0.02073724 -0.003194349 -0.010938663 -0.0072166156 0.010312853 -0.020859627 0.023682104 0.009220304
-0.020284541 -0.019295659 -0.02610987 0.0082584005 0.0013221987 0.005756369 0.025447765 0.018785322
-0.0032905564 -0.024922881 -0.00026705675 -0.0058144424 0.01968713 -0.023140505 0.0036987085 -0.008051807
-0.012034664 -0.012807865 0.010442795 -0.0015434008 0.0085253995 -0.025621997 -0.007782977 -0.022569777
0.022620475 -0.004032094 0.022823716 -0.022004487 0.007911956 -0.0062205065 -0.025997227 0.015068917
-0.027785279 -0.0148056615 0.0075636115 -0.016514555 -0.025266755 -0.023418007 0.002751978 0.023477213
-0.01784585 0.023862338 -0.022689033 0.016827753 0.021000693 0.0070354026 0.015852263 0.01566874
-0.0053477567 -0.020889906 -0.012060355 0.0027973112 0.020466367 -0.02288797 0.00051337294 -0.025266709
0.0050066803 0.0035330001 0.00057105906 0.004826186 0.020209992 -0.011521153 -0.022171073 -0.0217153
-0.026516827 -0.011427896 0.026492616 0.027665516 -0.022036508 -0.0060707554 -0.01707431 0.0030859355
0.0065044854 0.021452276 0.023913221 -0.022511475 0.015954895 0.0018980559 -0.00017106347 0.009098427
0.0018548388 0.027957907 0.01845345 0.01668767 -0.008458722 -0.013405737 0.00406128 0.024572501
0.016410442 0.017303733 0.02819716 0.0010492709 0.017004317 -0.007350821 0.017424526 0.027138123
0.018456439 -0.010997262 0.0027885083 0.029141104 -0.009608056 -0.025814068 0.01303388 -0.0007748846
0.010253193 0.021271063 -0.0027589425 0.014534948 0.012250377 0.014173536 0.026240705 -0.005884044
-0.02001455 -0.00053592585 -0.014364514 -0.02089434 0.026533252 0.02584484 -0.0064170826 -0.029339777
0.029404024 0.0012390092 0.002012493 -0.0001158081 0.011702968 -0.0039086957 -0.012123421 -0.023837682
-0.0077173933 0.022303687 0.0102627 -4.5781955e-05 0.0017773155 0.012406247 -0.012198981 -0.027723396
-0.004637383 0.008702366 -0.0050001517 -0.008291289 0.019408138 0.0042245258 -0.021021713 0.014837792

cnn.linear.0.bias f4 [64]
00000000: 40ff 813a 6645 3bbc c33f 893c e290 2cbc
00000010: ae1b 42bc 082e cbbb 756a b63c 56f9 edbc
00000020: a4ff e53b 8e7c 1abc 4c50 9b3b 7dd6 b1bc
00000030: 4c36 e4bc 3c15 d03b 7f58 91bc d182 d2bc
00000040: 0e6b 523c 1f74 bd3c a47c d73b 2a83 143c
00000050: 8095 95bc 06c8 373c d800 153b 3c26 b3bb
00000060: 2f42 d03c a672 1c3c 8ece 8bbc b4fd 98bb
00000070: dfee b63c c4c3 eb3b 88ef f7bb 239b d4bc
00000080: 3c7d 9ebb c730 d93c df20 e83c c246 243c
00000090: da93 cebc a6e5 87bc 2351 993c 8c0a 97bb
000000a0: e547 c83c 5617 90bc 7898 efbb d0d2 bbba
000000b0: c5ba 76bc 885c 71bb 603e 523a fa40 afbc
000000c0: 7d28 df3c 235e 9a3c e36b 993c 50f0 a4ba
000000d0: dc0e d3bb 66ba e6bc e04c 583a 0d96 a63c
000000e0: e0c2 5a3a 8054 0abc 837a 8d3c 7920 c73c
000000f0: 281a 20bb 2a64 4ebc a1e2 8e3c 3d88 b9bc
0.0009917989 -0.01143012 0.016754037 -0.01053259 -0.01184742 -0.0062005557 0.02226756 -0.029049557
0.007019 -0.00942911 0.0047397967 -0.021708721 -0.027857922 0.0063501876 -0.017742394 -0.025697144
0.012842907 0.02312666 0.0065761376 0.009064475 -0.018259764 0.011217123 0.0022736099 -0.0054672044
0.025422184 0.009548819 -0.017066266 -0.0046689156 0.0223307 0.007194968 -0.007566396 -0.025952881
-0.0048367064 0.026512517 0.028335987 0.010026636 -0.025216985 -0.016588997 0.018715447 -0.0046094116
0.024448344 -0.017589252 -0.007311877 -0.0014329795 -0.015059178 -0.0036828835 0.0008020159 -0.021393288
0.027240986 0.018843716 0.018728202 -0.0012583826 -0.0064409804 -0.028165054 0.00082512014 0.020335222
0.00083450787 -0.008442998 0.017270332 0.024307476 -0.0024429653 -0.012597123 0.01744205 -0.022647971

value_stream.0.weight f4 [128, 64]
00000000: f2ce 9d3d 6001 463c 3451 30bd e0c1 38bc
00000010: 5e77 bbbd a08c 5d3c a8a8 193d b01c c7bc
00000020: 6ee7 f8bd dca1 49bd a053 bdbb 706e d3bd
00000030: a495 4c3d 98bc ed3d 5464 93bd 00a3 8d3d
00000040: 3c4e 613d 4890 083d 50cb 45bc f82a dfbd
00000050: 6ce5 923d 7aec 843d f80a abbd 101f c3bd
00000060: 0c89 e83d 081c 71bd 0095 0aba 98d5 8fbc
00000070: 4034 fc3d ec3f 79bd 10e5 1f3c f666 e7bd
00000080: 64fc cb3d ba31 e83d d44b 4bbd 1e99 f5bd
00000090: c4cf 863d a0ac 2a3c 90a7 473c fae6 9bbd
000000a0: d0a0 41bd 00e2 c8bd 68be 84bc fca9 c83d
000000b0: 948b 093d d0b4 0e3d 486d cdbd 1ab2 c13d
000000c0: b019 7cbd d0d4 a43d 3c19 fa3d b026 91bd
000000d0: 9020 aebd 0c6d 863d 10e7 53bd 8043 433b
000000e0: a449 323d f061 84bd b8bb dd3d 8ab1 f7bd
000000f0: 9229 9cbd 5c6f 633d e47c dfbd a812 ce3d
00000100: 306b a0bd aeac f83d 0c20 ac3d a41f 54bd
00000110: 406e cbbc 547a e0bd f849 963c 80de 4fbc
00000120: 38ae f83c 08ad be3c c423 fe3d 582e b8bc
00000130: ac6e 07bd ec73 d33d 848c 093d b079 053c
00000140: 0090 79bc 00fa 1a3a d6ca b03d 4828 ad3d
00000150: 7484 323d 30f0 edbc c409 0d3d 303f a63d
00000160: 20af 343c ec12 7c3d 0804 973c cad0 d5bd
00000170: 5ef2 fb3d 36f7 b13d acb5 853d 3661 bebd
00000180: a4f7 43bd 1046 edbd 787c 32bd 72b2 b8bd
00000190: 8cb7 673d deba c4bd 4c9c 753d 0c25 2d3d
000001a0: f20f a5bd b2b6 983d 92bf cebd 409c 0abc
000001b0: 6857 5dbd 5a48 bebd f0ee 45bc 8011 7c3d
000001c0: 74ce ab3d 782b 9bbc f85c f7bc fcb5 e83d
000001d0: 204d 3b3c a418 523d a091 ef3c 0010 f23a
000001e0: 2852 943d 30de fc3c 8a94 e3bd 345a 613d
000001f0: 40b6 d73d 0cae 363d 54e3 e63d fccd 37bd
00000200: 4ea2 fe3d 3c37 46bd 440c fbbd f8e8 503d
00000210: a020 fabd da40 a03d bae6 a53d e0a7 ce3b
00000220: 6239 a53d 123b be3d 1a26 a3bd 582b a5bd
00000230: e2d0 d03d ccf1 233d d4b2 aebd 4884 d73d
00000240: 72b3 95bd 1251 a63d 30fb b83d c0e5 ccbd
00000250: 40a8 663d 3872 39bd 7011 753c a01e 95bd
00000260: d2c5 f03d 3c1c 77bd 3a34 cc3d 80f3 b6bd
00000270: f435 673d 60af d3bd ca11 dcbd 1820 cc3d
00000280: 2025 5dbd 8afc 8bbd dc7d 7abd 0053 613d
00000290: 5a85 e7bd 0c13 e73d d87d fa3c 20cc 21bc
000002a0: becb c53d 6081 82bc 380f 9ebc 809d 8f3b
000002b0: e86c a73d 308e ee3c 4ae4 853d 6a72 c73d
000002c0: 586c 863d 327c b9bd de02 c33d e4ba 6c3d
000002d0: 5009 f43d a07a bdbc 6813 3a3d f812 d1bc
000002e0: 96c4 9b3d 6a02 8abd e058 c4bb 9c0c 9a3d
000002f0: a629 943d 12d9 bd3d f0f5 9d3d 98f8 93bc
00000300: e8fb b73c b29c a93d e068 afbd 92dd c63d
00000310: 788a 913d 482c dbbc d89f 07bd 40a6 493d
00000320: d81c 55bd c817 00bd fadb b0bd 40e5 96bc
00000330: 4047 7cbb 68b1 d53d b866 3a3d 10e9 d1bc
00000340: a683 81bd 0099 0bbb 8897 5ebd 90d2 cc3d
00000350: 5e74 c83d 6ef9 973d 0044 05bc fc2e f6bd
00000360: 0c1c 653d 20d1 663c 8085 2fbc b0d6 27bc
00000370: e0e8 5cbc 8e83 c63d c000 d83c 0ef8 9dbd
00000380: 0c96 223d 5050 0bbd c0ec 6dbc 9cae aabd
00000390: 9a91 b23d 0800 db3d 3ccb 0cbd 3c3d 20bd
000003a0: e884 0a3d c0f5 473c b0f1 3dbd 6469 c5bd
000003b0: a8e5 7abd 8032 be3c 08e2 0a3d c0e9 843d
000003c0: 1260 96bd 6212 913d 58f6 d4bc b4b8 c53d
000003d0: 1e5f d53d 5010 2f3c 40d9 903c 2c39 28bd
000003e0: b86f ffbc ea18 ed3d 204b 84bc 8c94 d0bd
000003f0: 4079 0e3d ccfa e53d 8056 9a3a 9abb ed3d
0.07705487 0.012085289 -0.04304619 -0.011276692 -0.09153627 0.013522297 0.03751436 -0.024305671
-0.12153517 -0.049226627 -0.005777791 -0.10323799 0.049947396 0.11608237 -0.071968704 0.069158554
0.05500625 0.033340722 -0.012072399 -0.108968675 0.07172665 0.06490417 -0.083517015 -0.09527409
0.113542646 -0.058864623 -0.0005286485 -0.017557904 0.123146534 -0.060851976 0.009759203 -0.11298935
0.09960249 0.113376096 -0.049632862 -0.119920954 0.06582597 0.010417134 0.012185946 -0.07612415
-0.047272503 -0.09808731 -0.016204074 0.09798047 0.033580378 0.034840405 -0.10030609 0.09457798
-0.061547935 0.08048403 0.12211844 -0.07087457 -0.085023046 0.06563768 -0.05173403 0.0029794872
0.04352726 -0.064639926 0.1082682 -0.1209441 -0.076251164 0.055526122 -0.10912493 0.10062152
-0.078329444 0.12142311 0.0840455 -0.051787987 -0.024832845 -0.10960832 0.018345818 -0.0126873255
0.030356511 0.023275867 0.124091655 -0.022483036 -0.03306453 0.10324845 0.03358127 0.008146688
-0.015232086 0.00059118867 0.08632438 0.08454949 0.04358335 -0.029045194 0.03443314 0.08117521
0.011028081 0.061541483 0.01843454 -0.10440214 0.12302087 0.0868973 0.06528792 -0.09295885
-0.04784359 -0.11585629 -0.043575734 -0.09018411 0.05657153 -0.096059546 0.05996351 0.04227166
-0.08059682 0.07456721 -0.10095133 -0.008460104 -0.054038435 -0.09291144 -0.012080893 0.061540127
0.08388987 -0.018941626 -0.030195698 0.11362836 0.011431962 0.05129303 0.029244244 0.0018467903
0.072422326 0.030867666 -0.11112316 0.055017665 0.10532808 0.044599578 0.11273828 -0.044874176
0.12433301 -0.04839252 -0.12258199 0.051003426 -0.12213254 0.078248695 0.08100648 0.0063066334
0.080675855 0.092886105 -0.07966252 -0.08064908 0.10196091 0.040025517 -0.085302025 0.105232775
-0.07309617 0.08120932 0.09032285 -0.10004759 0.0563128 -0.045274943 0.014957771 -0.07281232
0.11756481 -0.06032966 0.09970899 -0.08933163 0.056447938 -0.103361845 -0.107455805 0.09967059
-0.053990483 -0.068352774 -0.061155185 0.055010796 -0.11304732 0.1128293 0.030577585 -0.009875327
0.09658001 -0.015930831 -0.019294366 0.004382789 0.08175069 0.029120535 0.06537683 0.097386196
0.06563634 -0.090568915 0.09522031 0.05779542 0.11915839 -0.023129761 0.045428663 -0.02552174
0.07605855 -0.06738742 -0.00599204 0.07521936 0.07234506 0.092699185 0.077129245 -0.018062875
0.022458985 0.082818404 -0.08564925 0.0971023 0.07106489 -0.026754513 -0.033111423 0.049230814
-0.05202946 -0.03127268 -0.08635707 -0.018419862 -0.0038494617 0.10434228 0.045508116 -0.025623828
-0.06323938 -0.0021300912 -0.05434373 0.10001099 0.0978782 0.07420622 -0.008133888 -0.1202068
0.05593495 0.014087945 -0.010712981 -0.010244057 -0.013483256 0.09693061 0.026367545 -0.07713328
0.039693877 -0.03401214 -0.014521778 -0.08334085 0.087191775 0.10693365 -0.034373507 -0.039120898
0.033818156 0.012204587 -0.04637307 -0.09639242 -0.061254174 0.02321744 0.033906966 0.06489897
-0.07342543 0.07083584 -0.025996372 0.0965437 0.10418533 0.010685042 0.017681718 -0.04107015
-0.031181201 0.115770176 -0.016149104 -0.10184583 0.0347836 0.11229476 0.0011775047 0.11608048

value_stream.0.bias f4 [128]
00000000: a848 15bd d45f 593d f862 943d 18e1 a9bc
00000010: 8a19 c3bd b038 f63d 308c 2d3d 9c3a 4f3d
00000020: 42b5 fc3d 7843 54bd f447 183d 9cac f63d
00000030: 4c14 ec3d 52d4 f53d a6b7 d73d 2ce6 c5bd
00000040: acac 2abd 00e3 e83b 60ff 2a3c e692 d7bd
00000050: b88a 2dbd b449 2f3d aaa4 8e3d 5893 6b3d
00000060: 009e df3d 087c c0bd d0f2 febc c621 c3bd
00000070: f852 ccbd 6024 cfbb e8f8 18bd 1852 bfbc
00000080: 10dc 25bd 989d f93d 88fd 6bbd 0cd9 983d
00000090: 109c f8bc ea85 923d c8fd d0bd 9c37 d3bd
000000a0: b06f d83d 68ba f9bd 44cc 7ebd 3062 7cbd
000000b0: f0c7 8e3d c85e 2cbd 9c86 eebd 741d 753d
000000c0: 188f 793d 8068 fe3b e60f e5bd 467f 9abd
000000d0: 2ce8 d33d 881d c8bc 48b5 d8bc 543c aa3d
000000e0: 70a3 713c b029 7ebd b09c babc d039 4b3c
000000f0: 9673 ac3d 18aa 84bd 289d adbd 4eb3 ae3d
00000100: ba00 df3d 2863 b23c d633 87bd fcb9 41bd
00000110: 2c07 ea3d 2e33 82bd 54a6 dabd aa13 a43d
00000120: 60e8 92bb a0c3 bf3b cc9e 84bd 3ed0 f6bd
00000130: d8a8 1ebd b825 8a3d 9080 0e3d 8a52 a93d
00000140: e2eb cdbd ecb1 053d da4f a5bd 6ee9 d4bd
00000150: 30c5 5dbc 94dd 5d3d 704c 38bd 181a 3cbd
00000160: 2455 0e3d 5091 39bc a0c9 58bd c058 b1bb
00000170: ac94 42bd 3ecd d03d e02a 9ebd 9cac 72bd
00000180: 623c e6bd eeac fabd 2029 b33d 02d7 ad3d
00000190: 08d2 c93c c8e7 e8bd da51 ae3d f40e c43d
000001a0: e86b a1bc 8c4b 62bd 7849 d83d 8e68 8dbd
000001b0: 2c23 0b3d 4281 ab3d 6675 cbbd 48db bfbc
000001c0: aec6 c33d 188c 49bd e035 e5bb 007a 4abb
000001d0: b022 a53d 30bf 96bd 6064 083d 4aa2 8ebd
000001e0: 3a61 e93d 6c07 ec3d 8025 1b3c 2e87 fd3d
000001f0: 3820 a5bc 322e 8dbd 0882 66bd 002d bfba
-0.036446244 0.053069904 0.07245439 -0.020737216 -0.095263556 0.12022531 0.04237002 0.050593004
0.1233926 -0.051822156 0.037177995 0.120446414 0.11527309 0.120033875 0.10533075 -0.096630424
-0.04166858 0.0071071386 0.010436863 -0.105260655 -0.04236862 0.0427949 0.06965001 0.057513565
0.10918808 -0.09398657 -0.031121641 -0.09527926 -0.099767625 -0.006321475 -0.03734675 -0.023354575
-0.04049307 0.12188262 -0.057614833 0.074632734 -0.030347854 0.07154448 -0.10204655 -0.10313341
0.10568178 -0.12193757 -0.06220652 -0.061617076 0.06971729 -0.042082578 -0.116467685 0.05984254
0.06092748 0.007763922 -0.11184673 -0.07543807 0.10347018 -0.024428144 -0.02645363 0.08312288
0.014748439 -0.062051475 -0.022779793 0.01240392 0.08420484 -0.06477755 -0.08477241 0.085302934
0.108888105 0.021775797 -0.06601684 -0.04729651 0.11427149 -0.06357418 -0.10676256 0.08011563
-0.0044832677 0.0058521777 -0.064756006 -0.12051438 -0.03873524 0.067454755 0.034790576 0.08267696
-0.10054757 0.032640383 -0.08071871 -0.10396086 -0.013535783 0.05416639 -0.04499477 -0.045923322
0.034749165 -0.011326149 -0.05292666 -0.005412191 -0.047505066 0.10195397 -0.077230215 -0.059246644
-0.11241986 -0.12240015 0.08748078 0.08488275 0.024636284 -0.11372334 0.08511706 0.095731646
-0.019704774 -0.05524783 0.10560888 -0.06904708 0.03396909 0.08374263 -0.09934501 -0.023419991
0.095593795 -0.04920587 -0.006994948 -0.0030895472 0.08063257 -0.07360685 0.03329885 -0.06964548
0.113954976 0.11524853 0.00946939 0.12379299 -0.020156965 -0.06893577 -0.05627635 -0.0014585555
