test_for_cleanRL/training_logs_jumping_ball/duelingCNN_fps10_lr0.0001_2025-05-19_20-20-30/dueling_cnn_final.pt (torch, 597077 bytes, 23 tensors)

cnn.cnn.0.weight f4 [32, 1, 3, 3]
0.25451928 0.27764547 -0.07755186 0.30803296 -0.07422646 0.06863708 -0.16327909 0.19530024
0.29185894 -0.24438979 0.28690925 0.0619947 0.24782085 0.043634985 0.16062143 -0.045857124
0.25837365 0.049818963 -0.16004895 0.091081515 -0.15028231 -0.040917933 -0.14045435 0.21931198
-0.2631234 -0.15323374 -0.09735416 -0.20265092 0.029721653 -0.32668856 0.29996884 -0.27781856
0.26177353 0.052093487 -0.10933408 0.20704263 0.05489068 0.2718664 0.03852069 -0.10171037
0.0897475 -0.088780686 0.14252545 0.29438248 0.19541073 -0.14572418 0.19073999 0.059642076
0.16927835 -0.20316836 -0.3299695 -0.12878685 -0.2556743 0.27183115 0.09515322 0.13841641
0.10749389 -0.006080131 0.2629558 -0.23385993 0.021953056 -0.22651538 0.10440747 -0.11378349
0.10329866 -0.07353007 0.27730227 -0.20160471 -0.202233 -0.19820659 0.29660198 0.10841947
0.31815216 -0.27521047 -0.3304883 -0.2608432 -0.22171153 0.13535841 0.11591868 0.27353817
-0.17530239 -0.2267166 0.17551866 -0.13457619 0.20267268 -0.07888042 0.19132392 -0.25743064
-0.16947773 0.100761935 0.07469048 -0.082443155 0.19562925 0.2291861 -0.23977426 -0.17784542
0.30241778 -0.11518763 -0.12274352 -0.32253155 -0.19089007 0.0832679 -0.043997735 -0.241962
0.0078189075 -0.22769384 -0.2827989 -0.18355422 -0.29470435 -0.20979698 0.3367932 0.060198408
0.10014152 -0.30671966 -0.21838872 -0.112749934 0.058723006 -0.29330713 -0.14362435 -0.1995562
0.0009237528 -0.124034405 -0.023098588 -0.22587657 -0.22879839 -0.19446728 -0.11456088 -0.26377574
0.27747524 -0.06680595 0.28584486 0.10266007 -0.28411216 0.23184851 -0.09093117 -0.12925127
-0.27669019 -0.3313869 0.09877231 -0.07658377 0.13317649 -0.2735545 0.24600035 -0.24468458
-0.05565134 0.07135949 0.17352971 0.27039003 0.30514225 -0.26259783 0.084039204 -0.14254081
-0.034709748 -0.25420734 0.29968742 -0.2471113 0.17547959 0.116444625 0.105976224 -0.18427053
0.30059856 0.0711358 0.038919285 -0.29719725 0.13806435 -0.05401191 -0.15698761 0.2835709
0.069307506 -0.18305165 -0.17048632 -0.019432398 0.18578169 -0.087126166 -0.19408275 -0.115195096
-0.25189307 0.11737124 0.2559147 -0.3145886 0.07422236 0.17268512 0.055371437 -0.11926048
0.17582129 0.17523463 0.12466318 -0.056076404 -0.08817348 0.035850413 -0.059347354 -0.09933664
0.21529128 0.2868176 -0.032286756 -0.07256701 0.005652559 -0.018634832 0.07737169 0.08962838
-0.30554974 -0.12606354 0.27690867 0.12634385 -0.020930694 -0.20552997 -0.20736782 -0.29907608
-0.10929094 0.11272595 0.2144955 0.1532134 -0.293023 -0.2001784 -0.05536302 0.32261553
0.04350948 -0.090477146 0.14271335 -0.12821928 -0.21575189 0.24810402 -0.15156727 -0.06682226
-0.33160144 0.22143541 0.24834076 0.12233416 -0.23490661 -0.33076888 -0.27199534 0.24982871
0.16037606 0.28042588 0.17646885 0.08410517 -0.003877547 -0.25021484 -0.2829196 -0.3102727
0.13899662 -0.16252336 -0.06568318 -0.19429374 -0.065745786 -0.23858377 -0.21661167 0.109837495
-0.09705217 0.20573062 -0.10857112 -0.2444764 -0.05882869 -0.16235651 -0.10457817 -0.3160972
00000000: 5a50 823e 8c27 8e3e 82d3 9ebd 7fb6 9d3e
00000010: 0b04 98bd 9991 8c3d a232 27be c9fc 473e
00000020: 896e 953e 5141 7abe c5e5 923e 28ee 7d3d
00000030: c0c4 7d3e 99ba 323d f279 243e aed4 3bbd
00000040: 8d49 843e f80e 4c3d dfe3 23be f288 ba3d
00000050: 9be3 19be 9099 27bd 44d3 0fbe 5293 603e
00000060: 1cb8 86be 4ee9 1cbe 9e61 c7bd b983 4fbe
00000070: d37a f33c b943 a7be 8495 993e 3c3e 8ebe
00000080: 2e07 863e fb5f 553d 8cea dfbd fc02 543e
00000090: 0dd5 603d 1332 8b3e dfc7 1d3d 874d d0bd
000000a0: 8acd b73d a6d2 b5bd 31f2 113e 4db9 963e
000000b0: c019 483e b838 15be 5851 433e 404b 743d
000000c0: 4e57 2d3e 5e0b 50be c3f1 a8be b3e0 03be
000000d0: bee7 82be 742d 8b3e b1df c23d 08bd 0d3e
000000e0: c225 dc3d d63b c7bb 25a2 863e fa78 6fbe
000000f0: e5d6 b33c a6f3 67be 95d3 d53d 5207 e9bd
00000100: 3f8e d33d ef96 96bd 90fa 8d3e 7771 4ebe
00000110: 2b16 4fbe abf6 4abe 37dc 973e 070b de3d
00000120: d7e4 a23e 63e8 8cbe c335 a9be 3d8d 85be
00000130: 5908 63be 659b 0a3e c666 ed3d 320d 8c3e
00000140: 7882 33be 6528 68be 2abb 333e 57ce 09be
00000150: 6d89 4f3e 0f8c a1bd 6bea 433e f3cd 83be
00000160: 928b 2dbe 465c ce3d 53f7 983d f5d7 a8bd
00000170: 0953 483e c3af 6a3e 6287 75be 1c1d 36be
00000180: 81d6 9a3e 7ee7 ebbd f460 fbbd db22 a5be
00000190: b078 43be 5c88 aa3d f836 34bd e3c4 77be
000001a0: e01a 003c 9328 69be 04cb 90be a3f5 3bbe
000001b0: 7de3 96be 05d5 56be 2970 ac3e 9b92 763d
000001c0: ff16 cd3d 5c0a 9dbe 4ba1 5fbe 70e9 e6bd
000001d0: 8987 703d 5a2c 96be 4312 13be 7658 4cbe
000001e0: 0028 723a c005 febd 4039 bdbc 304c 67be
000001f0: 204a 6abe 6e22 47be e59e eabd 9d0d 87be
00000200: 3c11 8e3e 8fd1 88bd 425a 923e 713f d23d
00000210: 2677 91be b269 6d3e 1f3a babd 725a 04be
00000220: 56aa 8dbe 8bab a9be 2349 ca3d f4d7 9cbd
00000230: 6b5f 083e 560f 8cbe 84e7 7b3e 988e 7abe
00000240: a9f2 63bd ed24 923d c6b1 313e 9070 8a3e
00000250: 9b3b 9c3e 3973 86be bf1c ac3d 38f6 11be
00000260: cf2b 0ebd 7727 82be a170 993e bf0a 7dbe
00000270: ecb0 333e 857a ee3d 100a d93d 6ab1 3cbe
00000280: 0ee8 993e a5af 913d d469 1f3d 3d2a 98be
00000290: be60 0d3e 983b 5dbd 5cc1 20be 3430 913e
000002a0: 18f1 8d3d e471 3bbe f793 2ebe b130 9fbc
000002b0: 8e3d 3e3e 346f b2bd a1bd 46be 68eb ebbd
000002c0: 21f8 80be 5560 f03d 4007 833e c211 a1be
000002d0: e501 983d 5ed4 303e 29cd 623d d73e f4bd
000002e0: 7f0a 343e b570 333e 694f ff3d 5fb0 65bd
000002f0: 4c94 b4bd e2d7 123d 3616 73bd 0271 cbbd
00000300: 5175 5c3e c2d9 923e 1e3f 04bd 039e 94bd
00000310: 1a39 b93b 13a8 98bc 0c75 9e3d 168f b73d
00000320: 0471 9cbe cd16 01be f9c6 8d3e 4860 013e
00000330: d976 abbc 7376 52be 3b58 54be 8020 99be
00000340: eed3 dfbd dddc e63d b5a4 5b3e f9e3 1c3e
00000350: 1c07 96be 91fb 4cbe 56c4 62bd dd2d a53e
00000360: ff36 323d 154c b9bd 7323 123e ea4b 03be
00000370: 10ee 5cbe fb0e 7e3e 7334 1bbe 1cda 88bd
00000380: aac7 a9be f7bf 623e 0a4d 7e3e 558a fa3d
00000390: 5c8b 70be 8a5a a9be f942 8bbe 19d3 7f3e
000003a0: 9f39 243e fb93 8f3e 40b4 343e 553f ac3d
000003b0: 721e 7ebb 291c 80be d6da 90be 10dc 9ebe
000003c0: 2155 0e3e 866c 26be e784 86bd f0f4 46be
000003d0: baa5 86bd 4e4f 74be 73cf 5dbe 7bf2 e03d
000003e0: 4ac3 c6bd 0cab 523e 895a debd 0558 7abe
000003f0: 5af6 70bd c940 26be 142d d6bd 7ed7 a1be

cnn.cnn.0.bias f4 [32]
0.27939466 -0.052792594 -0.032517985 -0.13491984 -0.29858112 -0.3260633 0.12800075 -0.18272308
-0.21816294 -0.025489097 -0.1099074 -0.10784027 0.013456768 -0.07070413 -0.116471395 -0.15619984
-0.2703654 0.27975926 -0.13620812 0.08475703 -0.11493772 0.031364772 0.31092122 0.15196298
-0.28405827 0.1275874 0.31906953 0.08311022 0.2228587 0.33087677 -0.05137509 0.07024567
00000000: d10c 8f3e 0c3d 58bd 9431 05bd 6d28 0abe
00000010: a0df 98be c5f1 a6be a112 033e c21b 3bbe
00000020: 1b66 5fbe 83ce d0bc 2217 e1bd 5cdb dcbd
00000030: c779 5c3c 54cd 90bd 8e88 eebd daf2 1fbe
00000040: 556d 8abe 9b3c 8f3e 247a 0bbe 1895 ad3d
00000050: 7864 ebbd 5978 003d 1131 9f3e 2f9c 1b3e
00000060: 1670 91be 45a6 023e 155d a33e b135 aa3d
00000070: 1235 643e ae68 a93e b06e 52bd f6dc 8f3d

cnn.cnn.2.weight f4 [32]
0.9969063 0.99729675 1.0016905 1.0003505 1.0002483 0.9983317 0.99647355 0.9993011
0.99657685 0.9996161 1.0007826 1.0 0.9973022 1.0 0.9968599 1.0050083
0.99930006 1.0009941 1.0050385 1.000032 0.99922866 0.9973271 0.99662405 0.99826765
1.0054696 1.000183 0.9997308 0.99983716 0.99748456 0.9985956 0.99790716 1.0034685
00000000: 4035 7f3f d74e 7f3f 6537 803f 7c0b 803f
00000010: 2308 803f ab92 7f3f e418 7f3f 32d2 7f3f
00000020: a91f 7f3f d7e6 7f3f a519 803f 0000 803f
00000030: 324f 7f3f 0000 803f 3632 7f3f 1da4 803f
00000040: 21d2 7f3f 9320 803f 1aa5 803f 0c01 803f
00000050: 73cd 7f3f d450 7f3f c122 7f3f 788e 7f3f
00000060: 3ab3 803f ff05 803f 5cee 7f3f 54f5 7f3f
00000070: 265b 7f3f f6a3 7f3f d876 7f3f a871 803f

cnn.cnn.2.bias f4 [32]
-0.0010505911 -0.00021945106 -0.0008303964 -0.0023349053 -0.0028550536 -0.0026431142 -0.0012728516 -0.0017604291
0.0019233113 0.0005060445 0.0028288108 -0.0035374388 -0.0021646237 5.9213147e-05 -0.0043106675 0.00015895409
-0.0018288653 -0.0017751122 0.00084652245 -0.0026182213 0.0029921515 -0.005166127 4.9057893e-05 -0.0024006641
-0.0045211874 -0.00012966825 -0.0003056703 0.0019536682 0.0007516811 0.0018414307 -0.001002873 -0.0013704583
00000000: fdb3 89ba 721c 66b9 f6ae 59ba 3605 19bb
00000010: da1b 3bbb 1938 2dbb d0d5 a6ba 33be e6ba
00000020: 9e17 fc3a 12a8 043a 9263 393b 60d4 67bb
00000030: 5cdc 0dbb a25b 7838 8040 8dbb eaac 2639
00000040: 89b6 efba e2aa e8ba 29e9 5d3a 7796 2bbb
00000050: f917 443b 9d48 a9bb 83c3 4d38 7654 1dbb
00000060: 7826 94bb 8ef7 07b9 6042 a0b9 1d09 003b
00000070: 770c 453a 295c f13a d572 83ba f3a0 b3ba

cnn.cnn.2.running_mean f4 [32]
1.034636 0.55312043 0.0006223619 0.018741941 0.38428003 2.5145582e-07 0.3077355 0.00040780526
0.00014220258 0.010982264 0.005874441 0.0 0.00396542 0.0 0.026258176 3.1683794e-05
0.0947801 0.57629794 0.0018441894 0.021809764 0.27953178 0.2355993 0.12811586 0.06466587
0.00041254383 0.3922936 0.07661045 0.018004905 0.14233923 0.25586104 0.3343606 0.01495205
00000000: f46e 843f 4d99 0d3f 0026 233a b388 993c
00000010: 5ac0 c43e d3ff 8634 828f 9d3e b2ce d539
00000020: 371c 1539 f4ee 333c 627e c03b 0000 0000
00000030: 5bf0 813b 0000 0000 631b d73c 37e4 0438
00000040: 121c c23d 4388 133f bab8 f13a 64aa b23c
00000050: ca1e 8f3e f140 713e ce30 033e 8a6f 843d
00000060: b24a d839 b5da c83e f1e5 9c3d 067f 933c
00000070: 60c1 113e 3800 833e 5031 ab3e 71f9 743c

cnn.cnn.2.running_var f4 [32]
0.1957674 0.10154184 6.465289e-05 0.0050167576 0.0727086 1.8262676e-07 0.018884502 2.432113e-05
1.37744355e-05 0.0016399594 0.0016439949 1.6900111e-07 0.0002708389 1.6900111e-07 0.0066499054 3.6013366e-06
0.0056248424 0.03733121 0.00040670723 0.0018347865 0.030931138 0.015971089 0.022808114 0.009716317
3.978715e-05 0.05553352 0.01835473 0.0011778102 0.012472095 0.013429706 0.037650406 0.0008216109
00000000: 4077 483e 2bf5 cf3d 4296 8738 9d63 a43b
00000010: 3fe8 943d 1018 4434 acb3 9a3c 3b05 cc37
00000020: c018 6737 e8f3 d63a 517b d73a ac76 3534
00000030: 62ff 8d39 ac76 3534 73e7 d93b 7eae 7136
00000040: 9950 b83b 9ce8 183d 523b d539 387d f03a
00000050: 4c63 fd3c cdd5 823c 15d8 ba3c 3031 1f3c
00000060: 21e1 2638 1e77 633d a95c 963c c160 9a3a
00000070: c257 4c3c 4508 5c3c 5037 1a3d 6061 573a

cnn.cnn.3.weight f4 [64, 32, 3, 3]
-0.039832186 -0.011600643 0.044944756 0.031604607 -0.03575136 -0.046010975 -0.040698104 -0.05845438
-0.045494817 -0.013954719 0.040661924 0.011039673 -0.043558754 -0.045503568 0.031276245 -0.044241987
-0.007565412 0.027917443 -0.030170737 -0.006181337 -0.005660062 -0.01589539 -0.027969358 -0.05283792
-0.05184343 -0.031129634 0.06318321 -0.028104048 -0.039621998 0.016628915 0.01768153 0.033430364
0.043839294 0.032379884 -0.057445038 0.007916086 0.03669907 -0.004536369 -0.033624712 0.05440564
-0.02266539 -0.03445257 -0.053195834 0.0023008026 0.02521129 0.013864262 0.011188775 -0.04515216
-0.053096928 0.00054227107 0.053655688 0.03483145 -0.034803867 -0.008144412 -0.041448288 -0.028078556
0.011978021 0.033201493 0.04914774 -0.053146314 0.037781868 -0.042942088 0.021827003 0.053769417
-0.0014086395 0.055632662 -0.051328465 -0.02772727 0.03474939 -0.0114277145 -0.009750463 -0.021825014
0.03932317 0.026547777 0.018961206 -0.029954515 -0.04692134 0.0015017363 0.015713606 -0.029321957
-0.015712626 0.039940078 0.0043840227 0.0043087807 -0.011340633 -0.05218783 -0.05437919 -0.027978165
-0.031048773 0.024114838 -0.01382334 -0.02587445 0.057461753 0.023446456 0.03888033 -0.022595327
-0.027989415 0.023077661 -0.039353613 -0.03784257 -0.0034476246 -0.022154195 -0.043493476 0.034308907
0.046742428 0.010239637 -0.010903036 -0.05522448 -0.021705491 0.017762257 0.025980702 -0.0066286684
-0.025091775 0.031578735 -0.04209195 0.03555523 -0.0229003 -7.770017e-05 -0.011428114 0.0073605864
-0.018807512 0.043082867 -0.0012954111 0.044996973 0.05689228 -0.02847151 -0.04435827 0.048739385
0.047305595 -0.043983713 -0.0040489845 -0.055517226 -0.04706866 0.011239942 0.01589991 0.012911549
-0.016307866 0.05409302 0.0062653148 -0.034873035 -0.0053929905 0.014528236 0.020291265 -0.042009167
0.02330447 -0.029563313 -0.048789836 -0.031007834 0.057663117 0.0520078 0.051725328 0.034515385
0.043173682 -0.0071505825 -0.031588558 0.030799739 -0.030111365 -0.03740481 -0.016336206 0.011458948
0.02971036 -0.021998635 -0.0358409 0.007843109 -0.036213085 -0.038808543 0.031244602 -0.0035797763
0.054437175 0.058187306 0.01909477 0.01886282 0.012919888 -0.00033754116 -0.0072336043 -0.0014416259
0.021045534 0.05134133 -0.014605986 -0.021538354 -0.013608903 -0.027485095 0.010962055 0.044807818
0.047340177 0.028037755 -0.044308726 -0.03185591 -0.014116146 -0.009763057 0.0046989378 -0.05290874
0.019741677 -0.043736465 -0.03561703 -0.04936082 0.050663557 -0.055521514 0.043673344 -0.0031060523
-0.008118127 0.037485562 -0.0045106825 0.03720479 0.040713035 -0.05107205 0.024076233 0.0103974445
0.011328436 0.00804487 0.016950978 -0.029890776 -0.0071795327 0.059209287 0.03876982 -0.0020986781
-0.057546515 0.0031732146 -0.043173816 0.046091374 -0.032442294 -0.0078063584 -0.012354069 0.011589402
0.058343567 0.006982401 0.035394285 0.04690235 0.046067473 -0.021723526 -0.0153083205 0.027806243
-0.015501284 0.027632305 -0.013509274 -0.040956285 0.022613266 0.0072291796 0.024397084 0.056622617
0.03960541 0.056296337 0.0034770006 -0.05171006 -0.04240872 -0.03802066 -0.053591408 -0.030606521
-0.055896904 -0.054308627 -0.035594955 -0.059421934 -0.036294516 0.023755146 0.048075598 -0.018865535
00000000: 1327 23bd a010 3ebc fe17 383d d573 013d
00000010: 0570 12bd 0176 3cbd 0eb3 26bd dc6d 6fbd
00000020: c658 3abd 55a2 64bc 1e8d 263d bfdf 343c
00000030: aa6a 32bd f361 3abd 851b 003d 1637 35bd
00000040: 47e7 f7bb 1fb3 e43c 9f28 f7bc d08c cabb
00000050: 0b78 b9bb 0d37 82bc ff1f e5bc 936c 58bd
00000060: c759 54bd 9303 ffbc 3366 813d 763a e6bc
00000070: ad4a 22bd 5d39 883c dbd8 903c 47ee 083d
00000080: d590 333d c5a0 043d 7d4b 6bbd 79b2 013c
00000090: c451 163d d2a5 94bb 11ba 09bd 73d8 5e3d
000000a0: c5ac b9bc 231e 0dbd e0e3 59bd 10c9 163b
000000b0: e887 ce3c ee26 633c 2051 373c 79f1 38bd
000000c0: 2a7c 59bd 3227 0e3a 11c6 5b3d 6cab 0e3d
000000d0: 808e 0ebd 2470 05bc aec5 29bd 0005 e6bc
000000e0: 763f 443c 4afe 073d 244f 493d f3af 59bd
000000f0: 29c1 1a3d 0be4 2fbd 8bce b23c 523d 5c3d
00000100: 19a2 b8ba 13df 633d cc3d 52bd 4d24 e3bc
00000110: 6055 0e3d 4f3b 3bbc 68c0 1fbc 5fca b2bc
00000120: 5511 213d b97a d93c 8854 9b3c 2c63 f5bc
00000130: 9730 40bd e9d5 c43a d2b9 803c 9a34 f0bc
00000140: c4b7 80bc 3598 233d d9a7 8f3b ac30 8d3b
00000150: 10ce 39bc e8c2 55bd b7bc 5ebd 7732 e5bc
00000160: ff59 febc 7b8c c53c 4a7b 62bc a8f6 d3bc
00000170: 045d 6b3d c812 c03c fb40 1f3d d619 b9bc
00000180: 0f4a e5bc 5d0d bd3c 4131 21bd d000 1bbd
00000190: 8bf1 61bb b77c b5bc 3726 32bd 7f87 0c3d
000001a0: fd74 3f3d 27c4 273c a6a2 32bc 1033 62bd
000001b0: b7cf b1bc 2782 913c 7bd5 d43c 4d35 d9bb
000001c0: 448d cdbc b458 013d 9c68 2cbd 5ca2 113d
000001d0: 6999 bbbc f6f2 a2b8 fc3c 3bbc 1331 f13b
000001e0: 3612 9abc a977 303d c9ca a9ba bf4e 383d
000001f0: e107 693d 163d e9bc 04b1 35bd f3a2 473d
00000200: 83c3 413d 4428 34bd 58ad 84bb 0866 63bd
00000210: 11cb 40bd bc27 383c 8740 823c f68a 533c
00000220: 1398 85bc a490 5d3d 454d cd3b 07d7 0ebd
00000230: afb7 b0bb d707 6e3c de39 a63c ce11 2cbd
00000240: 04e9 be3c c32e f2bc dad7 47bd 2404 febc
00000250: 2930 6c3d 2206 553d f0dd 533d 0160 0d3d
00000260: e3d6 303d 6f4f eabb 0163 01bd bc4f fc3c
00000270: 1cac f6bc c935 19bd 82d3 85bc 50be 3b3c
00000280: 2463 f33c 7b36 b4bc e8cd 12bd 6280 003c
00000290: 2c54 14bd b5f5 1ebd aef4 ff3c ae9a 6abb
000002a0: 84f9 5e3d d055 6e3d a36c 9c3c 3386 9a3c
000002b0: f0ad 533c 02f8 b0b9 df07 edbb f0f4 bcba
000002c0: af67 ac3c 494b 523d f24d 6fbc 3471 b0bc
000002d0: e0f7 5ebc 6c28 e1bc 319a 333c 6788 373d
000002e0: c6e7 413d 6faf e53c 117d 35bd 587b 02bd
000002f0: 6847 67bc 3bf5 1fbc 8cf9 993b d6b6 58bd
00000300: 4cb9 a13c 0225 33bd 2ae3 11bd 922e 4abd
00000310: 9784 4f3d 876a 63bd d2e2 323d e98e 4bbb
00000320: e401 05bc 768a 193d 59ce 93bb 0d64 183d
00000330: b6c2 263d ed30 51bd 853b c53c 0b5a 2a3c
00000340: e89a 393c a1ce 033c c7dc 8a3c 80dd f4bc
00000350: 4942 ebbb 7085 723d 1acd 1e3d fa89 09bb
00000360: e5b5 6bbd b5f5 4f3b 07d7 30bd 4fca 3c3d
00000370: 36e2 04bd 7bcc ffbb b968 4abc 7ae1 3d3c
00000380: aaf9 6e3d a0cc e43b 99f9 103d ae1c 403d
00000390: 3fb1 3c3d 89f5 b1bc c0cf 7abc ebc9 e33c
000003a0: 19f9 7dbc 255d e23c 0156 5dbc c7c1 27bd
000003b0: 753f b93c c1e2 ec3b 65dc c73c 1eed 673d
000003c0: 4839 223d fd96 663d 64de 633b eecd 53bd
000003d0: c4b4 2dbd 8dbb 1bbd aa82 5bbd 87ba fabc
000003e0: 27f4 64bd b972 5ebd 04cc 11bd 6a64 73bd
000003f0: 8fa9 14bd 279a c23c ebea 443d e58b 9abc

cnn.cnn.3.bias f4 [64]
-0.05768585 -0.0071872394 0.03480835 -0.03516209 -0.02011116 0.0013798397 -0.026046975 0.0014736927
-0.055589274 0.012682328 0.056756414 0.005357727 0.055576876 -0.054102063 -0.030350206 -0.016382368
0.050855573 -0.052444782 -0.010844502 -0.052489642 0.010210018 -0.056572963 -0.047473565 -0.036261525
-0.02560484 0.0396683 0.0073250136 -0.05704114 0.054695565 -0.002289804 0.01698035 -0.031009596
-0.02846444 -0.045633435 -0.042820264 -0.034871247 0.03141603 -0.020773783 -0.050106518 0.016348535
-0.016919058 -0.04091319 0.04517251 -0.056643322 -0.058733955 0.029667914 0.03382578 -0.022602016
0.039540946 -0.039273284 -0.026206344 -0.010280463 -0.01891497 0.03837893 -0.058085937 0.047865275
0.032075424 -0.033028964 -0.03626355 0.011297414 -0.0030623213 -0.052614167 0.04822213 0.044434775
00000000: ff47 6cbd ef82 ebbb 3393 0e3d 2006 10bd
00000010: 29c0 a4bc bddb b43a 7760 d5bc ec28 c13a
00000020: 94b1 63bd 8ac9 4f3c 6a79 683d df8f af3b
00000030: 94a4 633d 209a 5dbd ffa0 f8bc 5134 86bc
00000040: ef4d 503d 57d0 56bd 23ad 31bc 61ff 56bd
00000050: eb47 273c 0db9 67bd a473 42bd f786 14bd
00000060: 3ec1 d1bc 3a7b 223d ab06 f03b f8a3 69bd
00000070: 7508 603d 8910 16bb 601a 8b3c d607 febc
00000080: 422e e9bc 20ea 3abd 4d64 2fbd 27d5 0ebd
00000090: 18ae 003d c82d aabc 7e3c 4dbd 5ded 853c
000000a0: d699 8abc 9794 27bd cf06 393d d402 68bd
000000b0: 0493 70bd 200a f33c e78c 0a3d dd27 b9bc
000000c0: b0f5 213d 06dd 20bd b0ae d6bc 636f 28bc
000000d0: 91f3 9abc 3a33 1d3d 85eb 6dbd 610e 443d
000000e0: 8561 033d 6149 07bd 1789 14bd ca18 393c
000000f0: 3ab1 48bb f481 57bd 9184 453d 3d01 363d

cnn.cnn.5.weight f4 [64]
1.0009183 1.0024892 1.0031275 1.003252 1.0003318 1.005415 1.0028285 1.0042796
1.0027807 1.0039135 1.0031317 1.002714 1.0043262 1.0000948 1.0048165 1.0057672
1.004344 1.0021107 1.005045 1.001362 1.0013708 1.0038177 1.003111 1.0013248
1.005253 1.0005306 1.0036476 1.0062006 1.0017959 1.0034202 1.0045824 0.9995241
1.0022318 1.0042497 1.0022937 1.0069724 1.0046986 1.0016164 1.0061383 0.9993257
0.99888897 1.0010196 1.0013157 1.0044106 1.0027097 1.0057809 1.005621 1.0040247
1.0040457 1.0002761 1.0007421 1.0012728 1.0016783 0.9981232 1.0054412 0.99951476
1.002732 1.0037103 1.0027692 1.0027941 1.0039837 1.0008087 1.0009325 1.0013815
00000000: 171e 803f 9151 803f 7b66 803f 906a 803f
00000010: df0a 803f 70b1 803f af5c 803f 3c8c 803f
00000020: 1e5b 803f 3d80 803f 9f66 803f ef58 803f
00000030: c38d 803f 1b03 803f d49d 803f fbbc 803f
00000040: 588e 803f 2a45 803f 51a5 803f a12c 803f
00000050: eb2c 803f 197d 803f f165 803f 692b 803f
00000060: 21ac 803f 6311 803f 8677 803f 2ecb 803f
00000070: d93a 803f 1370 803f 2896 803f d0e0 7f3f
00000080: 2249 803f 418b 803f 294b 803f 79e4 803f
00000090: f799 803f f734 803f 24c9 803f cfd3 7f3f
000000a0: 30b7 7f3f 6921 803f 1d2b 803f 8790 803f
000000b0: cb58 803f 6ebd 803f 30b8 803f e283 803f
000000c0: 9284 803f 0c09 803f 5118 803f b529 803f
000000d0: ff36 803f 0185 7f3f 4cb2 803f 33e0 7f3f
000000e0: 8659 803f 9479 803f be5a 803f 8f5b 803f
000000f0: 8a82 803f 801a 803f 8e1e 803f 452d 803f

cnn.cnn.5.bias f4 [64]
0.00094544695 0.0033693642 0.00068778265 0.0013214018 5.6529272e-05 0.0013769239 -0.00059960585 -0.0029107684
0.0012521154 -0.0002414647 0.0024129578 0.0008123707 -0.00082311814 -0.0022949667 0.000983877 0.00078551145
-0.00096647494 -0.0022379793 -0.0015208 0.0017093226 0.00023229964 -0.0012611836 -0.00029537524 -0.0014238458
0.0026184057 0.0009529712 0.00045505245 0.0027303752 -0.00083831465 2.1064752e-05 0.0014501695 0.0009310944
-0.00072988955 -0.0009899316 0.0012995373 0.0013052843 0.0002538858 0.0015923777 -0.0016001011 0.00083973474
0.0008270475 0.0008736251 0.0009332461 0.0014265742 -0.0001071389 0.0009713636 -0.0009103714 -0.0021342637
0.002456693 -0.0013088904 0.0025498704 -0.0008155732 0.0014044456 2.3836237e-06 0.0003522576 0.0012493927
0.00013514845 -0.0034968622 -0.0014427123 0.001090289 -0.00014594304 0.00064710574 -0.00058498466 -0.00014089207
00000000: dfd7 773a 8dd0 5c3b 504c 343a e332 ad3a
00000010: d819 6d38 e679 b43a de2e 1dba 97c2 3ebb
00000020: 051e a43a b031 7db9 b722 1e3b 46f5 543a
00000030: 86c6 57ba 2767 16bb 6ff5 803a c8ea 4d3a
00000040: 095b 7dba 10ab 12bb 9555 c7ba 590b e03a
00000050: 7695 7339 4d4e a5ba 98dc 9ab9 56a0 baba
00000060: 8f99 2b3b d1d0 793a 1b94 ee39 18f0 323b
00000070: 58c2 5bba 36b4 b037 9d13 be3a b014 743a
00000080: 0f56 3fba 98c0 81ba 3c55 aa3a 1316 ab3a
00000090: fa1b 8539 54b7 d03a 7cba d1ba a521 5c3a
000000a0: 38ce 583a fd03 653a 16a5 743a e3fb ba3a
000000b0: c2af e0b8 1ca3 7e3a fea5 6eba 01df 0bbb
000000c0: 7800 213b 138f abba ba1b 273b 31cc 55ba
000000d0: 6015 b83a 58f6 1f36 37af b839 aac2 a33a
000000e0: a3b6 0d39 9d2b 65bb 6419 bdba 07e8 8e3a
000000f0: 4908 19b9 88a2 293a a859 19ba 6dbc 13b9

cnn.cnn.5.running_mean f4 [64]
0.09310489 0.29654774 0.15931448 0.09784701 0.099893294 0.12544352 0.09388107 0.084749565
0.28673136 0.16702498 0.09832826 0.23333552 0.15634814 0.07803635 0.13342378 0.13002032
0.28073835 0.116120316 0.23856214 0.15797776 0.23744401 0.19629851 0.094798215 0.21589097
0.12091619 0.26401192 0.11941175 0.048842832 0.19060464 0.20121986 0.21149029 0.1863285
0.23450086 0.06589094 0.44199216 0.04677529 0.21328719 0.10646653 0.068884596 0.07989704
0.09433985 0.06415421 0.15783124 0.17435333 0.061217222 0.14348026 0.13651185 0.07908101
0.18350537 0.32909566 0.17241037 0.22225711 0.19102606 0.17798296 0.14612882 0.10379093
0.1662647 0.05883254 0.07530683 0.24174389 0.22390178 0.19356613 0.32292795 0.13710533
00000000: c7ad be3d 1bd5 973e 5623 233e 0364 c83d
00000010: db94 cc3d 4474 003e b844 c03d 2e91 ad3d
00000020: 74ce 923e 9908 2b3e 5460 c93d 82ef 6e3e
00000030: ba19 203e 86d1 9f3d 3ea0 083e 0c24 053e
00000040: f0bc 8f3e 7dd0 ed3d a249 743e ecc4 213e
00000050: 8624 733e 7a02 493e 9125 c23d 8612 5d3e
00000060: e8a2 f73d 922c 873e 268e f43d 6c0f 483d
00000070: dd2d 433e 940c 4e3e e990 583e e6cc 3e3e
00000080: fe20 703e d4f1 863d cc4c e23e 7297 3f3d
00000090: f567 5a3e 200b da3d 5e13 8d3d 0fa1 a33d
000000a0: 4035 c13d 4863 833d 839e 213e ae89 323e
000000b0: e9be 7a3d 7dec 123e c3c9 0b3e 39f5 a13d
000000c0: d5e8 3b3e 3a7f a83e 588c 303e 5e97 633e
000000d0: 569c 433e 2a41 363e cba2 153e 5790 d43d
000000e0: 4b41 2a3e 64fa 703d 783a 9a3d b68b 773e
000000f0: 8246 653e 3336 463e d056 a53e 5765 0c3e

cnn.cnn.5.running_var f4 [64]
0.07428876 0.27491212 0.09485972 0.053667784 0.013354101 0.07407441 0.046493184 0.045299374
0.3275382 0.034815732 0.035324067 0.055820715 0.1450742 0.051668342 0.034715902 0.047935493
0.20786563 0.047820747 0.05046308 0.15950719 0.11413101 0.13643515 0.06370522 0.114224665
0.026672406 0.2145152 0.08383846 0.03627125 0.08899456 0.116622515 0.14767069 0.118923806
0.121511914 0.028046189 0.1127534 0.03307195 0.031630337 0.068942174 0.0600996 0.038791746
0.013326865 0.040905427 0.091617666 0.085026816 0.052667502 0.08475288 0.045102976 0.06648097
0.1272626 0.25004014 0.11059625 0.16992053 0.03780429 0.053211827 0.037641894 0.054189548
0.053829007 0.0326761 0.043604806 0.21320619 0.15519851 0.14682588 0.07939452 0.026318533
00000000: b524 983d 48c1 8c3e d045 c23d c0d2 5b3d
00000010: 29cb 5a3c 53b4 973d a36f 3e3d d68b 393d
00000020: 16b3 a73e f19a 0e3d f8af 103d 43a4 643d
00000030: 558e 143e 2fa2 533d 4332 0e3d 0258 443d
00000040: bada 543e b0df 433d 60b2 4e3d da55 233e
00000050: 85bd e93d a8b5 0b3e e277 823d 9fee e93d
00000060: 1780 da3c dfa9 5b3e 80b3 ab3d 2a91 143d
00000070: c842 b63d c9d7 ee3d fc36 173e 538e f33d
00000080: 3ddb f83d 1fc1 e53c 41eb e63d 7476 073d
00000090: d08e 013d 8e31 8d3d 002b 763d 18e4 1e3d
000000a0: ec58 5a3c 738c 273d 0ba2 bb3d 8a22 ae3d
000000b0: e1b9 573d eb92 ad3d e6bd 383d 2d27 883d
000000c0: 2151 023e 4305 803e 4980 e23d a6ff 2d3e
000000d0: acd8 1a3d a5f4 593d 632e 1a3d dcf5 5d3d
000000e0: ce7b 5c3d 60d7 053d f49a 323d b952 5a3e
000000f0: 5cec 1e3e 8659 163e 9899 a23d f799 d73c

cnn.cnn.6.weight f4 [64, 64, 3, 3]
0.034780808 0.020649279 -0.027401434 -0.021778923 -0.018504623 0.011123253 0.021839853 -0.001945499
-0.04205878 -0.028388433 -0.021979751 -0.03043323 0.021574425 0.0026205878 -0.028588172 -0.026409388
-0.03132622 -0.030036172 0.017242875 -0.019779876 -0.033946626 0.001557144 -0.0042523528 -0.034954745
0.010173414 0.002666561 0.004981295 0.019788167 -0.020000428 -0.0346612 0.027963392 0.038959213
0.04019887 0.020939909 0.03805568 0.011053162 -0.037204023 0.010633806 -0.032933008 -0.04097631
0.013355967 -0.022496685 -0.029718539 0.040240187 0.014488353 0.01777645 -0.011458819 0.017923184
0.0009203334 -0.008466319 -0.0075296196 0.0309113 -0.029209815 -0.01294904 0.0310241 -0.0019895858
0.022406554 -0.01855254 0.027666831 -0.02903748 -0.02319236 -0.036096603 -0.033644818 0.026843581
0.027451787 0.023292718 0.023447758 0.031115072 0.027939457 0.023483422 -0.020824855 0.029979186
0.028202198 0.01497522 -0.0055578053 0.036283497 -0.0024932607 -0.038559556 -0.016330447 -0.0013494109
0.019095644 0.0127690695 0.0075174314 0.03690326 0.027626263 -0.022857765 -0.014072607 -0.0051746713
-0.003160462 -0.03166162 -0.008013317 0.0342413 -0.0382562 0.0066567017 0.009876114 -0.012133649
-0.013146889 -0.020044297 -0.0371749 -0.038114425 0.021634808 -0.0019501636 -0.00018497341 -0.006288682
-0.03847543 -0.0056039793 -0.037066113 0.02152103 -0.015225707 -0.014733276 0.012778311 -0.029060582
-0.026979413 -0.023522219 -0.010346612 -0.027113257 -0.04262488 0.018956592 0.021776756 -0.017124163
-0.03176339 0.029831782 -0.023837144 -0.033255752 -0.038284864 0.0091120135 0.0075247483 0.037616555
-0.019294512 -0.029177647 0.03916997 0.027059948 -0.037601765 -0.038639985 0.013273455 -0.01981248
0.009523231 -0.0008779476 -0.008992481 0.03980188 0.018473722 0.012361048 -0.030710284 -0.015627926
0.018658474 0.020987825 0.002554439 -0.040979706 -0.022436759 0.04031424 0.03317621 0.021038182
-0.025650552 -0.023339769 0.014715601 -0.032013282 -0.0015854269 0.019664403 0.020578142 0.018391972
0.0011368099 0.027721465 -0.039528374 -0.020890376 -0.011869943 0.024053967 -0.03254187 0.03130055
-0.02198011 -0.011556515 0.03184994 0.03869384 0.0104108285 -0.011184435 0.028538236 -0.0017717899
0.025824381 0.015484453 -0.0025035709 0.037813623 0.020100826 0.039197903 0.039384052 0.008391295
-0.019126046 -0.013280739 -0.007913895 -0.014501228 0.0033673458 0.04031936 0.027324917 0.012377248
0.02173386 -0.022631299 0.016839089 0.03554629 0.012563154 -0.0001055689 0.030961486 -0.036330547
0.021715794 -0.008211318 -0.03674568 0.025158552 -0.009775025 -0.010067194 -0.01954501 -0.012420698
-0.0050359885 -0.03918212 0.021141825 0.0066819973 0.017712131 0.040585574 -0.009923881 -0.026224686
-0.025602438 -0.0024830198 -0.006753607 0.017353123 0.0067152916 0.015970549 -0.021637252 -0.034934655
0.0017009972 0.007441469 -0.021774769 -0.015765322 -0.0062353383 -0.036557406 0.040001664 0.028927492
-0.031339258 -0.04083855 0.03825624 0.036477804 -0.036349934 0.010313361 -0.025000313 -0.027848627
-0.030111577 -6.602261e-05 0.0369223 0.016967744 -0.038958035 0.02086547 0.038333777 0.031633712
0.04043328 -0.024252538 -0.021304848 0.021005644 -0.03298114 -0.013554754 0.030901134 0.0103644105
00000000: 5276 0e3d ad28 a93c f978 e0bc b669 b2bc
00000010: 0297 97bc 4e3e 363c 7ee9 b23c 1d00 ffba
00000020: d445 2cbd dc8e e8bc e10e b4bc 1c4f f9bc
00000030: d9bc b03c 2bbe 2b3b be31 eabc 8058 d8bc
00000040: ec4f 00bd 6b0e f6bc ee40 8d3c 6809 a2bc
00000050: 9e0b 0bbd 1519 cc3a 5257 8bbb b52c 0fbd
00000060: 64ae 263c 78c1 2e3b 223a a33b cb1a a23c
00000070: f0d7 a3bc e7f8 0dbd 7c13 e53c b293 1f3d
00000080: 92a7 243d 2c8a ab3c 46e0 1b3d 5218 353c
00000090: 3f63 18bd 6a39 2e3c c3e4 06bd c6d6 27bd
000000a0: fcd2 5a3c f84a b8bc 4b74 f3bc e5d2 243d
000000b0: 8f60 6d3c eb9f 913c c5bd 3bbc a4d3 923c
000000c0: 8742 713a 51b6 0abc 07bb f6bb b239 fd3c
000000d0: 6c49 efbc 3628 54bc 4126 fe3c b663 02bb
000000e0: f38d b73c 7ffb 97bc 8da5 e23c 02e0 edbc
000000f0: e7fd bdbc 08da 13bd 26cf 09bd 12e7 db3c
00000100: 92e2 e03c 5fd0 be3c 8315 c03c 09e5 fe3c
00000110: 4ae1 e43c 4e60 c03c e398 aabc e996 f53c
00000120: 4c08 e73c a05a 753c 401e b6bb 019e 143d
00000130: f965 23bb a0f0 1dbd 6ec7 85bc b7de b0ba
00000140: 786e 9c3c 5c35 513c c954 f63b df27 173d
00000150: 7950 e23c 3540 bbbc cb90 66bc 4a90 a9bb
00000160: c11f 4fbb 9daf 01bd 4a4a 03bc 9b40 0c3d
00000170: 88b2 1cbd 7620 da3b 6dcf 213c 36cc 46bc
00000180: 0d66 57bc f033 a4bc b544 18bd df1d 1cbd
00000190: 7b3b b13c a29c ffba 6cf5 41b9 4a11 cebb
000001a0: 6a98 1dbd 96a1 b7bb a3d2 17bd df4c b03c
000001b0: 3e75 79bc d763 71bc 1f5c 513c 7510 eebc
000001c0: ee03 ddbc abb1 c0bc d684 29bc 9f1c debc
000001d0: 6d97 2ebd db4a 9b3c 2b65 b23c f947 8cbc
000001e0: 541a 02bd c861 f43c 1d46 c3bc 2f37 08bd
000001f0: 97d0 1cbd 8e4a 153c 2a92 f63b d113 1a3d
00000200: 860f 9ebc f605 efbc b170 203d d3ac dd3c
00000210: 4f04 1abd f644 1ebd e878 593c c84d a2bc
00000220: 5307 1c3c 1126 66ba 3355 13bc 4c07 233d
00000230: 3456 973c fe85 4a3c 2294 fbbc 2306 80bc
00000240: a8d9 983c a9ee ab3c 6068 273b 56da 27bd
00000250: 4bcd b7bc 8b20 253d c7e3 073d 4458 ac3c
00000260: 1b21 d2bc 0b33 bfbc b419 713c 5c20 03bd
00000270: 19ce cfba 3e17 a13c 7e93 a83c c3aa 963c
00000280: 0301 953a 2018 e33c 81e8 21bd 4b22 abbc
00000290: 267a 42bc d30c c53c a04a 05bd 0135 003d
000002a0: a20f b4bc 8957 3dbc 1575 023d 6f7d 1e3d
000002b0: 2e92 2a3c ec3e 37bc 05c9 e93c 673b e8ba
000002c0: a78d d33c 81b2 7d3c f312 24bb 75e2 1a3d
000002d0: 7daa a43c fb8d 203d 2c51 213d a47b 093c
000002e0: 3aae 9cbc 7597 59bc 48a9 01bc 8f96 6dbc
000002f0: b0ae 5c3b ea25 253d 81d8 df3c f1c9 4a3c
00000300: 350b b23c 4665 b9bc 21f2 893c fd98 113d
00000310: b0d5 4d3c df64 ddb8 f1a2 fd3c 57cf 14bd
00000320: 52e5 b13c c488 06bc a382 16bd 4f19 ce3c
00000330: 6d27 20bc dff0 24bc db1c a0bc 2f80 4bbc
00000340: ef04 a5bb 6e7d 20bd 9f31 ad3c a8f4 da3b
00000350: 0819 913c 0f3d 263d c697 22bc 27d5 d6bc
00000360: 34bc d1bc 29ba 22bb 5d4d ddbb 2328 8e3c
00000370: f30b dc3b abd4 823c 9b40 b1bc a417 0fbd
00000380: fff3 de3a 91d7 f33b 0061 b2bc 4726 81bc
00000390: cf51 ccbb 38bd 15bd c9d8 233d 59f9 ec3c
000003a0: 985d 00bd 5346 27bd 93b2 1c3d c069 153d
000003b0: abe3 14bd 5ff9 283c 75cd ccbc ce22 e4bc
000003c0: 8eac f6bc 9e75 8ab8 d63b 173d f0ff 8a3c
000003d0: 7692 1fbd 10ee aa3c e103 1d3d 5a92 013d
000003e0: 5e9d 253d 42ad c6bc 8187 aebc 0714 ac3c
000003f0: 3b17 07bd c214 5ebc 6024 fd3c 7dcf 293c

cnn.cnn.6.bias f4 [64]
-0.03497365 -0.015799573 -0.028274335 0.01223477 0.01155118 -0.007870971 0.018168917 0.0022942643
0.038483083 0.007490322 0.031789027 0.027199393 -0.0007530314 0.022661662 0.011011616 -0.010822146
0.02139765 0.023414966 -0.023163388 -0.022448815 -0.028920207 -0.027806506 -0.02405695 -0.027692666
0.022927783 -0.028975917 -0.032033414 -0.02612022 -0.00753163 0.03958058 0.0006855509 -0.03286871
-0.008904669 0.006871273 0.03269774 0.0025096028 0.04397787 0.007814938 0.032335896 -0.020070467
-0.007977388 0.003055323 0.041981086 -0.020930167 0.0122667635 -0.03494765 -0.01584101 -0.0128512
-0.0117453905 0.0013706903 0.013297985 0.03891629 0.021702604 -0.012122839 0.016122635 -0.029720819
-0.006396468 0.027553657 0.036258593 -0.00023646031 0.030132104 -0.01884224 0.026021373 -0.004153736
00000000: 8840 0fbd 1b6e 81bc 949f e7bc 5874 483c
00000010: 2941 3d3c 3ff5 00bc fbd6 943c 5e5b 163b
00000020: 70a0 1d3d 6071 f53b 3635 023d 43d1 de3c
00000030: 1567 45ba f3a4 b93c 116a 343c 5f4f 31bc
00000040: 204a af3c bed0 bf3c 25c1 bdbc 94e6 b7bc
00000050: 12ea ecbc 78ca e3bc 1513 c5bc bbdb e2bc
00000060: 0cd3 bb3c e75e edbc 7835 03bd 12fa d5bc
00000070: e4cb f6bb 3f1f 223d 8bb6 333a 57a1 06bd
00000080: e4e4 11bc 6a28 e13b 11ee 053d 2678 243b
00000090: 2422 343d 3a0a 003c a572 043d d26a a4bc
000000a0: 97b3 02bc d03b 483b 5cf4 2b3d be75 abbc
000000b0: 89fa 483c 4425 0fbd 01c5 81bc d78d 52bc
000000c0: bd6f 40bc bca8 b33a cbdf 593c b066 1f3d
000000d0: a9c9 b13c df9e 46bc 9e13 843c 1379 f3bc
000000e0: 7699 d1bb 35b8 e13c e483 143d 55f2 77b9
000000f0: 9ad7 f63c 0b5b 9abc c62a d53c 101c 88bb

cnn.linear.0.weight f4 [64, 1152]
-0.01837839 -0.016359124 -0.0033979856 0.023256656 0.0073598744 -0.014293063 -0.011431057 -0.017355012
0.023500565 -0.026832405 0.004535607 -0.0093052685 0.015261352 -0.00035139482 -0.012887198 0.0021265754
0.023269884 -0.010403736 0.021968195 -0.017929122 0.027189601 0.008285414 -0.015111242 -0.010474135
0.023966212 -0.0051391693 0.027843313 -0.023984617 0.012638594 -0.02069898 -0.020097338 0.0064433063
0.011130354 -0.012078194 0.019790858 -0.015391818 -0.0096136145 -0.011960117 -0.012695109 -0.025705783
-0.015351035 -0.012059415 -0.029140813 -0.023583325 0.014656107 0.0053582857 0.010467262 0.0011456518
0.015880808 0.00039186195 0.006062455 -0.012823024 -0.00538369 0.01603699 -0.023422552 0.007443793
-0.0048626023 -0.027293842 -0.021877369 0.014286139 -0.008517354 0.024463398 -0.024154153 -0.009609733
-0.027044833 -0.0070193633 -0.020349298 0.0032825777 -0.015712565 0.02425831 -0.014453868 -0.020326288
-0.006256514 0.021932898 0.023760265 -0.028114773 -0.024810394 -0.009165393 -0.0077609243 -0.019723712
-0.0062869443 0.016945133 0.002568149 0.013035716 0.005612325 -0.013711379 0.00053079874 0.008701319
0.012690271 0.025284637 -0.012509382 -0.007919474 0.025433121 0.014474964 -0.025829583 -0.026275465
-0.012173628 0.021587508 -0.014474988 -0.020365754 0.010944312 -0.009944308 0.01460614 -0.004045532
0.019370133 -0.0045600953 -0.0123089105 -0.008521555 0.009044355 -0.022174938 0.022327257 0.007874745
-0.02160537 -0.02065109 -0.027474316 0.0068894424 -4.646589e-05 0.0043908325 0.02407817 0.017417267
-0.0046597766 -0.02627926 -0.0016355646 -0.007185522 0.018319968 -0.024510903 0.0027063554 -0.00908897
-0.0129420115 -0.014133026 0.009407733 -0.0029006444 0.007352206 -0.026977388 -0.009150885 -0.023936821
0.02125705 -0.005395611 0.021467678 -0.02336914 0.006561535 -0.007583789 -0.027334256 0.013713379
-0.029155016 -0.016174952 0.0061923973 -0.017864665 -0.026631346 -0.024787348 0.0013807766 0.022127187
-0.019213382 0.022562869 -0.023960715 0.015539121 0.019632237 0.0056792237 0.0144838635 0.014302359
-0.0066810693 -0.022197599 -0.013427085 0.0014295814 0.019107696 -0.024253625 -0.00085342367 -0.026634222
0.0036458506 0.002172377 -0.0007896205 0.0034565288 0.01884335 -0.012889654 -0.023516783 -0.023084775
-0.02788641 -0.0127936695 0.025125932 0.026296714 -0.02340829 -0.0074412515 -0.018446883 0.0017185591
0.00513296 0.020080632 0.02254131 -0.023882378 0.014584078 0.00052804523 -0.001540693 0.0077312407
0.00048135343 0.026618047 0.017243393 0.01532197 -0.009831479 -0.014774271 0.0026915693 0.023202097
0.01503865 0.015934888 0.026827762 -0.00032192728 0.01563292 -0.008721939 0.016053053 0.025766768
0.017085124 -0.012368755 0.0014264141 0.027771441 -0.0105859665 -0.02717958 0.011670045 -0.0021281817
0.008883629 0.019904492 -0.0041255876 0.013166782 0.010881614 0.0128037175 0.024869226 -0.0072544077
-0.021316962 -0.0019050143 -0.015726436 -0.022264061 0.025163809 0.024476713 -0.0077717667 -0.03070624
0.028037751 -0.00012382284 0.0006569063 -0.0014406056 0.010330212 -0.0052636573 -0.0134881735 -0.025205778
-0.00908936 0.020932276 0.0088998405 -0.0014145602 0.00040987507 0.011044558 -0.013567688 -0.029095072
-0.005952303 0.0073327664 -0.006368243 -0.009660147 0.018052507 0.0028979967 -0.022374507 0.013790639
00000000: 478e 96bc 9203 86bc bdb0 5ebb be84 be3c
00000010: 1a2b f13b 742d 6abc 5449 3bbc 192c 8ebc
00000020: 4284 c03c a2cf dbbc 6e9f 943b 2075 18bc
00000030: c00a 7a3c 6a3b b8b9 d324 53bc 045e 0b3b
00000040: 7ca0 be3c 6e74 2abc a5f6 b33c 18e0 92bc
00000050: babc de3c 8cbf 073c 2595 77bc b59b 2bbc
00000060: ca54 c43c 7a66 a8bb a917 e43c 637b c4bc
00000070: 1b12 4f3c e890 a9bc 2ca3 a4bc 5f22 d33b
00000080: 175c 363c 9ee3 45bc 7020 a23c f72d 7cbc
00000090: 6c82 1dbc 5ef4 43bc 25ff 4fbc ef94 d2bc
000000a0: e882 7bbc da94 45bc b7b8 eebc d131 c1bc
000000b0: 2b20 703c 8f94 af3b e17e 2b3c b229 963a
000000c0: 7818 823c d272 cd39 8fa7 c63b a917 52bc
000000d0: aa69 b0bb 0160 833c a7e0 bfbc 10eb f33b
000000e0: 7756 9fbb 5697 dfbc 2b38 b3bc 6910 6a3c
000000f0: 5f8c 0bbc 7767 c83c eede c5bc 2472 1dbc
00000100: 208d ddbc b002 e6bb 92b3 a6bc 8420 573b
00000110: a3b7 80bc 5db9 c63c ebcf 6cbc 5183 a6bc
00000120: 7203 cdbb 9fac b33c e3a4 c23c f450 e6bc
00000130: 2b3f cbbc 722a 16bc 5a4f febb 9f93 a1bc
00000140: b602 cebb 85d0 8a3c 644e 283b c193 553c
00000150: 98e7 b73b b1a5 60bc 4d25 0b3a fa8f 0e3c
00000160: dbea 4f3c ba21 cf3c 27f4 4cbc aec0 01bc
00000170: 1f59 d03c 6628 6d3c 9098 d3bc a53f d7bc
00000180: e673 47bc 49d8 b03c 8028 6dbc 15d6 a6bc
00000190: c64f 333c 73ed 22bc 974e 6f3c 6290 84bb
000001a0: 1dae 9e3c da6c 95bb 50ab 49bc fe9d 0bbc
000001b0: c62e 143c 37a8 b5bc a7e7 b63c 1305 013c
000001c0: bffd b0bc 7a2c a9bc d111 e1bc d5c0 e13b
000001d0: 5fe4 42b8 f9e0 8f3b 953f c53c a8ae 8e3c
000001e0: 0ab1 98bb 9a47 d7bc 7160 d6ba 8774 ebbb
000001f0: c213 963c 17cb c8bc 1c5d 313b e7e9 14bc
00000200: bb0a 54bc 358e 67bc e422 1a3c bd18 3ebb
00000210: c6ea f03b afff dcbc 98ed 15bc 2717 c4bc
00000220: 4423 ae3c aacd b0bb fcdc af3c a470 bfbc
00000230: 2502 d73b 6f81 f8bb 17ec dfbc 15ae 603c
00000240: 80d6 eebc 5581 84bc 98e9 ca3b eb58 92bc
00000250: fb29 dabc d60e cbbc 2dfb b43a 1344 b53c
00000260: 6265 9dbc c4d5 b83c 4349 c4bc cc97 7e3c
00000270: c9d3 a03c c818 ba3b ba4d 6d3c 7154 6a3c
00000280: dfec dabb bdd7 b5bc 47fd 5bbc cb60 bb3a
00000290: be87 9c3c 8aaf c6bc 4bb8 5fba 0330 dabc
000002a0: 39ef 6e3b 705e 0e3b 89fe 4eba ee86 623b
000002b0: 5e5d 9a3c 212f 53bc 45a6 c0bc 481c bdbc
000002c0: 0a72 e4bc 8a9c 51bc e6d4 cd3c 356c d73c
000002d0: bec2 bfbc bed5 f3bb eb1d 97bc 4641 e13a
000002e0: 6432 a83b 2380 a43c 8ea8 b83c faa4 c3bc
000002f0: 0ff2 6e3c 846c 0a3a 14f1 c9ba 5956 fd3b
00000300: 2a5e fc39 170e da3c 0442 8d3c 0009 7b3c
00000310: 3614 21bc c90f 72bc 0a65 303b 5312 be3c
00000320: ab64 763c e289 823c e5c5 db3c 59c8 a8b9
00000330: 9c10 803c 77e6 0ebc b181 833c d414 d33c
00000340: 1af6 8b3c 52a6 4abc 84f6 ba3a ef80 e33c
00000350: c370 2dbc b6a7 debc b733 3f3c f778 0bbb
00000360: a48c 113c bf0e a33c f02f 87bb 7db9 573c
00000370: cc48 323c afc6 513c 8cba cb3c 62b6 edbb
00000380: e9a0 aebc acb1 f9ba bad4 80bc 1f63 b6bc
00000390: 5524 ce3c 6383 c83c 4eaa febb a78b fbbc
000003a0: 6daf e53c 71d6 01b9 3c34 2c3a b4d2 bcba
000003b0: 0d40 293c c27a acbb 80fd 5cbc 597c cebc
000003c0: 8aeb 14bc 2a7a ab3c a3d0 113c c468 b9ba
000003d0: 80e4 d639 3cf4 343c 024b 5ebc ca58 eebc
000003e0: 890b c3bb b447 f03b b2ac d0bb 9845 1ebc
000003f0: dae2 933c 51ec 3d3b be4a b7bc 22f2 613c

cnn.linear.0.bias f4 [64]
-0.00038079123 -0.012491965 0.018631255 -0.011385697 -0.010518994 -0.006378465 0.021417838 -0.029551659
0.0069325548 -0.0076014875 0.0065477383 -0.022991978 -0.028549913 0.00589092 -0.018878995 -0.027682463
0.015786009 0.02463211 0.0058096847 0.008080916 -0.017582187 0.010617282 0.0018281761 -0.0054854057
0.026213499 0.009548819 -0.01641854 -0.0015551404 0.021296194 0.0062262015 -0.005164181 -0.026952341
-0.0048367064 0.026815804 0.027978433 0.010985963 -0.025216985 -0.017328449 0.017461013 -0.0036192297
0.025798911 -0.017589252 -0.0059841084 -0.0021861326 -0.01499423 -0.0046319584 0.0008020159 -0.022755248
0.02684695 0.01792728 0.017689543 -0.0023209653 -0.0061476664 -0.028165054 -0.00038877106 0.020416718
0.0022763791 -0.007124526 0.014877833 0.023796672 -0.0034996741 -0.012640355 0.018526994 -0.020226277
00000000: efa4 c7b9 19ab 4cbc 93a0 983c 138b 3abc
00000010: dc57 2cbc 7102 d1bb 7674 af3c 5216 f2bc
00000020: 7c2a e33b e615 f9bb 698e d63b ac59 bcbc
00000030: 82e1 e9bc 9e08 c13b 1fa8 9abc 55c6 e2bc
00000040: a951 813c 47c9 c93c 2b5f be3b d165 043c
00000050: 8508 90bc 1cf4 2d3c 699f ef3a ebbe b3bb
00000060: b1bd d63c a672 1c3c 2d80 86bc dad5 cbba
00000070: 5b75 ae3c 2a05 cc3b 4a38 a9bb 28cb dcbc
00000080: 3c7d 9ebb d1ac db3c 0733 e53c 78fe 333c
00000090: da93 cebc 64f4 8dbc 660a 8f3c 9930 6dbb
000000a0: 3d58 d33c 5617 90bc 5716 c4bb 3845 0fbb
000000b0: 5caa 75bc afc7 97bb 603e 523a 3769 babc
000000c0: 23ee db3c 3bdc 923c a9e9 903c 561b 18bb
000000d0: 5d72 c9bb 66ba e6bc f8d3 cbb9 f640 a73c
000000e0: 4e2f 153b db74 e9bb 28c2 733c 3df1 c23c
000000f0: ca5a 65bb 7e19 4fbc ecc5 973c 94b1 a5bc

value_stream.0.weight f4 [128, 64]
0.07705487 0.012685004 -0.042840827 -0.010678321 -0.09054734 0.012175012 0.036915928 -0.02156608
-0.119377784 -0.046404116 -0.003133287 -0.102638274 0.049947396 0.116205625 -0.07137068 0.07205645
0.05471884 0.035993528 -0.012072399 -0.10956735 0.073381074 0.06430928 -0.083517015 -0.09314006
0.11638428 -0.058864623 -0.0017706512 -0.016244907 0.123146534 -0.061450664 0.00942159 -0.11358695
0.09960249 0.116135396 -0.046929434 -0.11785279 0.06582597 0.009824284 0.012185946 -0.07564342
-0.048473306 -0.09808731 -0.015591954 0.10007272 0.0362886 0.034840405 -0.10030609 0.09517735
-0.06128929 0.0798853 0.122717865 -0.071472645 -0.082370155 0.06563768 -0.051134482 0.0025206935
0.046237275 -0.06418066 0.10886796 -0.1209441 -0.07328322 0.057128813 -0.10761448 0.10292083
-0.079288445 0.12044852 0.080716886 -0.052681796 -0.026362544 -0.11242266 0.017617896 -0.01028266
0.029628558 0.028266646 0.12436774 -0.023496421 -0.03353732 0.1022861 0.032663945 0.012831555
-0.019578414 0.003165261 0.085622065 0.08368033 0.044493288 -0.029636716 0.03409021 0.08028221
0.015816528 0.061541483 0.016151205 -0.10767561 0.12194009 0.08604597 0.060294863 -0.094178475
-0.04784359 -0.11457003 -0.04102928 -0.09073591 0.05657153 -0.09677808 0.058972236 0.042092633
-0.08362742 0.07456721 -0.101749 -0.008854725 -0.048692476 -0.09373857 -0.012080893 0.060520504
0.08048792 -0.019801227 -0.031113515 0.11270739 0.014510478 0.05129303 0.02776021 0.00051004806
0.07796211 0.029762348 -0.1108046 0.054825384 0.110669404 0.046951395 0.112338275 -0.044471834
0.12313481 -0.04937467 -0.12596579 0.0501061 -0.12374338 0.075457394 0.08027725 0.008712667
0.0798932 0.09786735 -0.079511404 -0.08167453 0.1014181 0.039033383 -0.08622196 0.10993596
-0.077554904 0.08372483 0.08961728 -0.100919425 0.057190564 -0.045873556 0.0146309575 -0.07374054
0.122379884 -0.06032966 0.097398445 -0.09272457 0.055356424 -0.104216166 -0.112511516 0.09843833
-0.053990483 -0.0670805 -0.058578264 0.054387487 -0.11304732 0.11210896 0.029580474 -0.0101343
0.093525276 -0.015930831 -0.02012741 0.003968788 0.08709924 0.028290156 0.06537683 0.09635231
0.062189855 -0.091434844 0.09429937 0.056869876 0.12226571 -0.023129761 0.043918185 -0.026855726
0.08157356 -0.06854647 -0.005647703 0.074807085 0.07765598 0.09507536 0.076714806 -0.017747201
0.02151793 0.081881925 -0.0874605 0.09626647 0.070033975 -0.029505577 -0.033795737 0.051861484
-0.052581318 -0.026202776 -0.0845236 -0.019392906 -0.0043930584 0.10358522 0.044636954 -0.021076012
-0.06451661 0.0014108854 -0.05504939 0.099185534 0.09950677 0.07360764 -0.0070682424 -0.12041989
0.061158992 0.014087945 -0.012325214 -0.011745189 -0.012538616 0.09613415 0.022102684 -0.07824293
0.039693877 -0.032385267 -0.012252224 -0.082093425 0.087191775 0.106254116 -0.035156395 -0.037147358
0.03196369 0.012204587 -0.045816533 -0.096743375 -0.05617172 0.02321744 0.033906966 0.06386227
-0.07520512 0.06998805 -0.026838522 0.095724456 0.10750148 0.010685042 0.016349081 -0.042166002
-0.025943117 0.116451845 -0.015654873 -0.10184583 0.0406259 0.115142666 0.002249045 0.1178157
00000000: f2ce 9d3d c3d4 4f3c dd79 2fbd 20f4 2ebc
00000010: e270 b9bd b479 473c 2835 173d 59ab b0bc
00000020: 577c f4bd 3e12 3ebd d557 4dbb 0434 d2bd
00000030: a495 4c3d 37fd ed3d cb2a 92bd 5592 933d
00000040: dd20 603d f36d 133d 50cb 45bc d964 e0bd
00000050: d148 963d 95b4 833d f80a abbd 37c0 bebd
00000060: e25a ee3d 081c 71bd 3215 e8ba 0a14 85bc
00000070: 4034 fc3d b1b3 7bbd 035d 1a3c 46a0 e8bd
00000080: 64fc cb3d 65d8 ed3d 1439 40bd ce5c f1bd
00000090: c4cf 863d 09f6 203c 90a7 473c f0ea 9abd
000000a0: f28b 46bd 00e2 c8bd 6575 7fbc edf2 cc3d
000000b0: 5ba3 143d d0b4 0e3d 486d cdbd 58ec c23d
000000c0: 7b0a 7bbd e79a a33d 8153 fb3d 4060 92bd
000000d0: afb1 a8bd 0c6d 863d 6472 51bd 3832 253b
000000e0: 4c63 3d3d 2671 83bd 2af6 de3d 8ab1 f7bd
000000f0: 8315 96bd e7ff 693d fb64 dcbd 28c8 d23d
00000100: fb61 a2bd b7ad f63d e54e a53d dec8 57bd
00000110: 43f6 d7bc da3d e6bd 6853 903c 9a78 28bc
00000120: 97b7 f23c 748f e73c 83b4 fe3d 917b c0bc
00000130: 6e5e 09bd 607b d13d a1ca 053d 713b 523c
00000140: e962 a0bc 4470 4f3b 9f5a af3d 9860 ab3d
00000150: 983e 363d b3c8 f2bc 2da2 0b3d 006b a43d
00000160: aa91 813c ec12 7c3d 884f 843c 0885 dcbd
00000170: babb f93d df38 b03d bff7 763d a5e0 c0bd
00000180: a4f7 43bd b1a3 eabd 510e 28bd c0d3 b9bd
00000190: 8cb7 673d 9633 c6bd df8c 713d 5369 2c3d
000001a0: da44 abbd b2b6 983d c861 d0bd 6913 11bc
000001b0: c371 47bd 02fa bfbd f0ee 45bc 59e4 773d
000001c0: dad6 a43d 2f36 a2bc c5e1 febc 22d3 e63d
000001d0: 5bbd 6d3c a418 523d 6169 e33c bfb4 053a
000001e0: 99aa 9f3d 2bd0 f33c 86ed e2bd 9590 603d
000001f0: a4a6 e23d 1b50 403d 9c11 e63d 1928 36bd
00000200: 1a2e fc3d 183d 4abd 2dfd 00be 0e3c 4d3d
00000210: 2b6d fdbd 6889 9a3d 6668 a43d 93bf 0e3c
00000220: 0c9f a33d ad6e c83d e0d6 a2bd fa44 a7bd
00000230: 4bb4 cf3d 78e1 1f3d 2495 b0bd 1b26 e13d
00000240: 1bd5 9ebd ec77 ab3d 4489 b73d d8ae cebd
00000250: a740 6a3d e9e5 3bbd afb6 6f3c 4805 97bd
00000260: 4ea2 fa3d 3c1c 77bd d678 c73d 61e6 bdbd
00000270: 6bbd 623d 496f d5bd 706c e6bd 099a c93d
00000280: 2025 5dbd 8061 89bd c3ef 6fbd 6ac5 5e3d
00000290: 5a85 e7bd 6299 e53d c052 f23c 560a 26bc
000002a0: 2e8a bf3d 6081 82bc 3de2 a4bc 9b0c 823b
000002b0: 1661 b23d c2c0 e73c 4ae4 853d 5c54 c53d
000002c0: caba 7e3d 3142 bbbd 0720 c13d 63f0 683d
000002d0: 7266 fa3d a07a bdbc 8ee3 333d 8a00 dcbc
000002e0: 0a10 a73d 1762 8cbd 5e10 b9bb 7534 993d
000002f0: 190a 9f3d dfb6 c23d a71c 9d3d 9462 91bc
00000300: 5f46 b03c b6b1 a73d 7e1e b3bd 5b27 c53d
00000310: f96d 8f3d aeb5 f1bc 666d 0abd b56c 543d
00000320: 825f 57bd 34a7 d6bc b61a adbd dfdd 9ebc
00000330: a5f3 8fbb 7d24 d43d 3dd5 363d 9aa7 acbc
00000340: 4921 84bd 75ed b83a 787b 61bd c921 cb3d
00000350: 35ca cb3d 9abf 963d b79c e7bb b49e f6bd
00000360: da81 7a3d 20d1 663c b2ef 49bc e56e 40bc
00000370: c46e 4dbc fbe1 c43d b010 b53c d43d a0bd
00000380: 0c96 223d 6aa6 04bd 8dbd 48bc 9920 a8bd
00000390: 9a91 b23d c29b d93d 2700 10bd d427 18bd
000003a0: 5cec 023d c0f5 473c 1eaa 3bbd 6421 c6bd
000003b0: 5114 66bd 8032 be3c 08e2 0a3d 39ca 823d
000003c0: 2405 9abd e555 8f3d 76dc dbbc 2f0b c43d
000003d0: bc29 dc3d 5010 2f3c 82ee 853c 42b6 2cbd
000003e0: a986 d4bc 4e7e ee3d a63e 80bc 8c94 d0bd
000003f0: 5867 263d ebcf eb3d b764 133b 5c49 f13d

value_stream.0.bias f4 [128]
-0.034114834 0.052810576 0.072158106 -0.020107675 -0.09218 0.120518304 0.042073183 0.04917598
0.12392449 -0.051822156 0.03526356 0.12013435 0.11497681 0.11955891 0.10498582 -0.096630424
-0.04237961 0.006173994 0.010371516 -0.105260655 -0.04236862 0.043090336 0.07228486 0.057819188
0.109483786 -0.09398657 -0.029652111 -0.09527926 -0.10297016 -0.0069682114 -0.038488634 -0.023354575
-0.03952998 0.12059544 -0.059079673 0.074939065 -0.030347854 0.07154473 -0.10388719 -0.10313341
0.105977334 -0.12193757 -0.06462182 -0.063615784 0.070012935 -0.040914893 -0.11326346 0.058427785
0.0618164 0.0061055194 -0.11184673 -0.07543807 0.103171185 -0.024428144 -0.024965342 0.082811125
0.01403633 -0.06303189 -0.021897815 0.011491981 0.083883464 -0.06339803 -0.08378833 0.085569195
0.1089776 0.02368549 -0.06601684 -0.047520522 0.11395856 -0.060676914 -0.10666558 0.08164825
-0.0046209795 0.005301153 -0.061226163 -0.12051438 -0.03876087 0.067147456 0.036939617 0.083407335
-0.10054757 0.0311004 -0.07772372 -0.099001214 -0.009309008 0.054817744 -0.045979872 -0.047379516
0.03640592 -0.011365794 -0.055353343 -0.0031460705 -0.047505066 0.102243684 -0.07604476 -0.0559358
-0.11241986 -0.12184932 0.08820233 0.0855154 0.023346134 -0.11372334 0.08474176 0.09461378
-0.019994216 -0.055546865 0.10590914 -0.06668334 0.03680723 0.08298432 -0.09934501 -0.023483124
0.095878065 -0.052605245 -0.006994948 -0.002831232 0.08094373 -0.07360685 0.0345661 -0.06964548
0.113037266 0.116039485 0.006984592 0.12485853 -0.020156965 -0.069205776 -0.055510372 -0.0039028348
00000000: ffbb 0bbd e74f 583d a1c7 933d dab8 a4bc
00000010: dec8 bcbd 4dd2 f63d ee54 2c3d c16c 493d
00000020: 1fcc fd3d 7843 54bd 8670 103d 0009 f63d
00000030: f678 eb3d 4ddb f43d ce02 d73d 2ce6 c5bd
00000040: 3e96 2dbd 374f ca3b 4bed 293c e692 d7bd
00000050: b88a 2dbd 7e7f 303d 160a 943d d0d3 6c3d
00000060: 0939 e03d 087c c0bd fce8 f2bc c621 c3bd
00000070: 05e2 d2bd 9855 e4bb 42a6 1dbd 1852 bfbc
00000080: 30ea 21bd befa f63d 87fd 71bd a779 993d
00000090: 109c f8bc 0b86 923d cfc2 d4bd 9c37 d3bd
000000a0: a50a d93d 68ba f9bd 7258 84bd fe48 82bd
000000b0: f162 8f3d 6096 27bd acf6 e7bd f951 6f3d
000000c0: 3233 7d3d cf10 c83b e60f e5bd 467f 9abd
000000d0: 6a4b d33d 881d c8bc 1e84 ccbc e198 a93d
000000e0: a3f8 653c dd16 81bd 0c63 b3bc dd48 3c3c
000000f0: 18cb ab3d d4d6 81bd 3799 abbd e73e af3d
00000100: a62f df3d 1308 c23c d633 87bd e1a4 42bd
00000110: 1b63 e93d 5b88 78bd 7c73 dabd 3337 a73d
00000120: 966b 97bb 4bb5 ad3b 49c8 7abd 3ed0 f6bd
00000130: b8c3 1ebd 9b84 893d ff4d 173d 77d1 aa3d
00000140: e2eb cdbd 44c6 fe3c 9d2d 9fbd 26c1 cabd
00000150: cf84 18bc 9288 603d 6455 3cbd 0611 42bd
00000160: 601e 153d 9837 3abc 30ba 62bd 4e2e 4ebb
00000170: ac94 42bd 2365 d13d 5bbd 9bbd f01c 65bd
00000180: 623c e6bd 238c f9bd 6ca3 b43d b322 af3d
00000190: 6440 bf3c c8e7 e8bd 168d ad3d dfc4 c13d
000001a0: e9ca a3bc 1c85 63bd e4e6 d83d 4691 88bd
000001b0: 2ec3 163d aff3 a93d 6675 cbbd ae5f c0bc
000001c0: b85b c43d 9978 57bd e035 e5bb 318c 39bb
000001d0: d4c5 a53d 30bf 96bd 2f95 0d3d 4aa2 8ebd
000001e0: 1580 e73d 1ca6 ed3d 01df e43b d4b5 ff3d
000001f0: 3820 a5bc c2bb 8dbd d85e 63bd b4c6 7fbb
