test_for_cleanRL/training_logs_jumping_ball/duelingCNN_fps10_lr0.0001_2025-05-19_20-45-28/dueling_cnn_ep50.pt (torch, 597045 bytes, 23 tensors)

cnn.cnn.0.weight f4 [32, 1, 3, 3]
0.25002563 0.2683597 -0.08086209 0.31592372 -0.071767755 0.07615247 -0.1679815 0.19727783
0.29157123 -0.24811424 0.29035407 0.056150332 0.24465275 0.053634636 0.15458636 -0.04979188
0.25318575 0.04674385 -0.16216691 0.100448005 -0.15817213 -0.039955616 -0.14703555 0.21048294
-0.2631234 -0.15367012 -0.100496665 -0.20269088 0.03315847 -0.33372864 0.30270934 -0.270558
0.2664675 0.04964133 -0.10671715 0.2042508 0.05023863 0.2662303 0.033288263 -0.106364876
0.08979813 -0.09127979 0.14323916 0.29900718 0.19593914 -0.14802729 0.18586586 0.05451285
0.16300447 -0.20316836 -0.33296034 -0.13359489 -0.2556743 0.26733136 0.09684032 0.1323757
0.10326354 -0.0017848411 0.26302904 -0.23420267 0.020667516 -0.22911769 0.100346655 -0.11483808
0.10853557 -0.074284025 0.27693537 -0.20055813 -0.20750691 -0.19673786 0.2999358 0.10951776
0.32259887 -0.27070445 -0.3373118 -0.268793 -0.23616703 0.12526132 0.111425035 0.26902556
-0.17871867 -0.22527781 0.17792691 -0.14034896 0.2020174 -0.08262934 0.18337119 -0.26836336
-0.17389503 0.09656198 0.07242076 -0.08810875 0.19957009 0.23036808 -0.23760962 -0.17371331
0.3011861 -0.11831034 -0.1266292 -0.32253155 -0.19089007 0.0832679 -0.043997735 -0.241962
0.0078189075 -0.22769384 -0.2827989 -0.18355422 -0.30088374 -0.22883852 0.32911193 0.058601104
0.10659523 -0.30591327 -0.22291496 -0.10894155 0.06848916 -0.29330713 -0.14362435 -0.1995562
0.0009237528 -0.124034405 -0.023098588 -0.22587657 -0.22879839 -0.19446728 -0.115911424 -0.2645803
0.2777257 -0.066356935 0.28698945 0.10030985 -0.28080618 0.23108253 -0.09677106 -0.13210398
-0.27669019 -0.3313869 0.100442104 -0.0799929 0.13487603 -0.2735545 0.24250591 -0.24838094
-0.05582246 0.067919455 0.17421952 0.2653435 0.30143788 -0.2655348 0.08223278 -0.14362752
-0.03777431 -0.25462583 0.30204034 -0.2437188 0.17206779 0.11281279 0.106502 -0.18786496
0.30354452 0.07091549 0.04580684 -0.29109123 0.14132957 -0.046909377 -0.15645346 0.29117107
0.07182501 -0.1837178 -0.16428018 -0.025830872 0.1981326 -0.09117164 -0.2001107 -0.11004193
-0.25445372 0.10854101 0.25483623 -0.3240081 0.08807051 0.17665221 0.05453508 -0.11509261
0.17421533 0.17109756 0.12513876 -0.05452851 -0.09241375 0.036825605 -0.059409365 -0.098784514
0.2149793 0.28631178 -0.037624203 -0.0724387 0.006371215 -0.019289076 0.07591887 0.094183765
-0.30524892 -0.125511 0.28465825 0.13119741 -0.020235615 -0.19497475 -0.1991082 -0.29340842
-0.110841826 0.114177965 0.21561146 0.15638293 -0.29314324 -0.19991605 -0.053452764 0.3230373
0.04608473 -0.08864576 0.13277021 -0.12929006 -0.21575189 0.2385813 -0.15156727 -0.06682226
-0.33160144 0.21575849 0.24688794 0.122883506 -0.23727919 -0.33804402 -0.27290633 0.24696873
0.15304366 0.28009278 0.17137688 0.09013367 -0.017600989 -0.2559916 -0.28895026 -0.31578827
0.1359948 -0.16597597 -0.07749267 -0.1894522 -0.07502563 -0.24129708 -0.20562223 0.11274085
-0.09036728 0.21661992 -0.118841596 -0.23734671 -0.06434415 -0.16579519 -0.106940635 -0.32741356
00000000: 5c03 803e 7166 893e 069b a5bd c1c0 a13e
00000010: f9fa 92bd d4f5 9b3d 5803 2cbe 3303 4a3e
00000020: d348 953e a911 7ebe 4aa9 943e e4fd 653d
00000030: 4086 7a3e feaf 5b3d e34b 1e3e 92f2 4bbd
00000040: 90a1 813e 7b76 3f3d 150f 26be afb7 cd3d
00000050: e0f7 21be 80a8 23bd 7d90 16be d788 573e
00000060: 1cb8 86be b35b 1dbe 32d1 cdbd 338e 4fbe
00000070: 2dd1 073d 7bde aabe b8fc 9a3e 9486 8abe
00000080: 6e6e 883e b554 4b3d 858e dabd 1f27 513e
00000090: 06c7 4d3d 564f 883e 4659 083d d4d5 d9bd
000000a0: 15e8 b73d e6f0 babd 49ad 123e 7817 993e
000000b0: 45a4 483e 7794 17be 9f53 3e3e de48 5f3d
000000c0: a5ea 263e 5e0b 50be c779 aabe 19cd 08be
000000d0: bee7 82be a8df 883e 3854 c63d 7f8d 073e
000000e0: d67b d33d 54f1 e9ba beab 863e d3d2 6fbe
000000f0: ec4e a93c d49d 6abe 8c82 cd3d 3a30 ebbd
00000100: e647 de3d 3922 98bd 79ca 8d3e 1c5f 4dbe
00000110: b17c 54be a675 49be 2f91 993e d94a e03d
00000120: ae2b a53e c699 8abe 22b4 acbe 3c9f 89be
00000130: c5d5 71be 8144 003e cf32 e43d b8bd 893e
00000140: 0702 37be 3aaf 66be 7932 363e a3b7 0fbe
00000150: a6dd 4e3e 9239 a9bd a8c5 3b3e ec66 89be
00000160: 8a11 32be 4ac2 c53d 5651 943d 5c72 b4bd
00000170: 1a5c 4c3e 9ce5 6b3e f04f 73be e7e1 31be
00000180: 1135 9a3e b14c f2bd 16ab 01be db22 a5be
00000190: b078 43be 5c88 aa3d f836 34bd e3c4 77be
000001a0: e01a 003c 9328 69be 04cb 90be a3f5 3bbe
000001b0: 6f0d 9abe a554 6abe 5c81 a83e b607 703d
000001c0: 9a4e da3d aaa0 9cbe d243 64be bf1c dfbd
000001d0: 0b44 8c3d 5a2c 96be 4312 13be 7658 4cbe
000001e0: 0028 723a c005 febd 4039 bdbc 304c 67be
000001f0: 204a 6abe 6e22 47be f862 edbd 1277 87be
00000200: 1032 8e3e 25e6 87bd 48f0 923e 406f cd3d
00000210: d4c5 8fbe e6a0 6c3e e82f c6bd 4446 07be
00000220: 56aa 8dbe 8bab a9be 97b4 cd3d 51d3 a3bd
00000230: f11c 0a3e 560f 8cbe 7853 783e 9357 7ebe
00000240: 18a6 64bd 5b19 8b3d 9a66 323e 1adb 873e
00000250: 1156 9a3e 2df4 87be a969 a83d 1813 13be
00000260: 3cb9 1abd 515e 82be 08a5 9a3e 6c91 79be
00000270: 8a32 303e 640a e73d b81d da3d ac5f 40be
00000280: 306a 9b3e 243c 913d f49f 3b3d e909 95be
00000290: b3b8 103e 0c24 40bd 5635 20be 6014 953e
000002a0: fe18 933d 8520 3cbe 1039 28be 449b d3bc
000002b0: 46e3 4a3e 32b8 babd d2e9 4cbe aa5d e1bd
000002c0: c247 82be c04a de3d e579 823e 64e4 a5be
000002d0: 505e b43d 51e4 343e 2d60 5f3d adb5 ebbd
000002e0: 8165 323e 3334 2f3e 6024 003e 4959 5fbd
000002f0: 6c43 bdbd 72d6 163d 3c57 73bd 894f cabd
00000300: 8923 5c3e 7597 923e d61b 1abd be5a 94bd
00000310: a0c5 d03b 2004 9ebc 5a7b 9b3d 6be3 c03d
00000320: 9649 9cbe f585 00be babe 913e 9d58 063e
00000330: 29c5 a5bc 76a7 47be 05e3 4bbe a139 96be
00000340: 0a01 e3bd 23d6 e93d 40c9 5c3e d922 203e
00000350: df16 96be cbb6 4cbe 49f1 5abd 2565 a53e
00000360: 58c3 3c3d e98b b5bd eaf4 073e 9d64 04be
00000370: 10ee 5cbe a84e 743e 7334 1bbe 1cda 88bd
00000380: aac7 a9be cbef 5c3e 31d0 7c3e 59aa fb3d
00000390: 51f9 72be 1b14 adbe 61ba 8bbe 5fe5 7c3e
000003a0: 7ab7 1c3e 5268 8f3e 6c7d 2f3e 0098 b83d
000003b0: f32f 90bc 5511 83be 4af1 93be 00af a1be
000003c0: 3942 0b3e 9bf5 29be 7ab4 9ebd c2ff 41be
000003d0: 0aa7 99bd 9516 77be a28e 52be ade4 e63d
000003e0: 7b12 b9bd 9dd1 5d3e 3963 f3bd 040b 73be
000003f0: dec6 83bd 37c6 29be b103 dbbd c0a2 a7be

cnn.cnn.0.bias f4 [32]
0.27999943 -0.045857403 -0.033128656 -0.1328074 -0.29948068 -0.3306553 0.13050382 -0.17520358
-0.21610036 -0.022385377 -0.110393696 -0.10784027 0.008637994 -0.07070413 -0.11693678 -0.15453434
-0.275964 0.28000343 -0.1307681 0.0745559 -0.1164535 0.036133703 0.30771527 0.15665883
-0.29358122 0.13195609 0.30699012 0.075285494 0.2190043 0.3268421 -0.048256423 0.066946544
00000000: 165c 8f3e f9d4 3bbd eab1 07bd aafe 07be
00000010: 8855 99be a74b a9be cba2 053e 9168 33be
00000020: 6a49 5dbe 8a61 b7bc 1716 e2bd 5cdb dcbd
00000030: 5f86 0d3c 54cd 90bd 8d7c efbd 403e 1ebe
00000040: 274b 8dbe 9c5c 8f3e 13e8 05be c4b0 983d
00000050: 2c7f eebd ef00 143d db8c 9d3e 2c6b 203e
00000060: 4750 96be 7f1f 073e cf2d 9d3e 482f 9a3d
00000070: aa42 603e d957 a73e 87a8 45bd 451b 893d

cnn.cnn.2.weight f4 [32]
0.9944735 0.99672806 1.0104113 0.99774176 0.9978206 0.9947207 0.99308944 0.99709344
1.0006454 1.0136473 0.99533945 1.0 1.0062599 1.0 0.995216 1.01092
0.99611604 0.9953285 0.9981917 1.0081854 0.99424064 0.9908824 0.9972945 0.9994552
0.99819714 0.99709684 1.0010821 1.0024234 0.99521947 1.000416 0.9935347 1.002816
00000000: d195 7e3f 9229 7f3f 2855 813f 016c 7f3f
00000010: 2c71 7f3f 04a6 7e3f 1c3b 7e3f 8441 7f3f
00000020: 2615 803f 32bf 813f 91ce 7e3f 0000 803f
00000030: 20cd 803f 0000 803f 7ac6 7e3f d465 813f
00000040: 7601 7f3f d9cd 7e3f 7e89 7f3f 380c 813f
00000050: 8e86 7e3f 78aa 7d3f b14e 7f3f 4cdc 7f3f
00000060: d989 7f3f bd41 7f3f 7523 803f 694f 803f
00000070: b4c6 7e3f a20d 803f 4a58 7e3f 465c 803f

cnn.cnn.2.bias f4 [32]
-0.0040732548 -0.0068548676 -0.00820127 -0.0036762112 -0.0036747667 -0.003541313 -0.003367858 0.0061006746
-0.0005854709 0.0017732278 -0.003101652 0.0029842805 0.003222019 0.0047506336 -0.0064690732 -0.0069004255
-0.0023887749 0.0056151124 -0.0010130096 0.00071197323 0.0036851019 -0.00034152137 0.0027797325 0.0032779314
-0.004678821 0.004756205 -0.0031398733 0.0011277338 0.006338212 0.0054729274 -0.0016324907 -0.006066943
00000000: f078 85bb cc9e e0bb 9f5e 06bc 97ec 70bb
00000010: 5bd4 70bb 6015 68bb 48b7 5cbb 2be8 c73b
00000020: 497a 19ba a76b e83a 1645 4bbb eb93 433b
00000030: 8228 533b 34ab 9b3b 85fa d3bb f71c e2bb
00000040: fe8c 1cbb fafe b73b f6c6 84ba b7a3 3a3a
00000050: c081 713b 390e b3b9 2c2c 363b 90d2 563b
00000060: cc50 99bb f0d9 9b3b 55c6 4dbb 78d0 933a
00000070: c7b0 cf3b 3e56 b33b 4cf9 d5ba 35cd c6bb

cnn.cnn.2.running_mean f4 [32]
1.0362493 0.54633564 0.00042648794 0.019679936 0.37358338 2.9195954e-07 0.30210167 0.0004953393
0.00013723725 0.009323458 0.005864109 0.0 0.0029355811 0.0 0.02500901 1.8444545e-05
0.08024669 0.57306725 0.002084236 0.018657599 0.2866456 0.23836803 0.14799066 0.07567244
0.0002644438 0.37723064 0.07269554 0.01624167 0.100815594 0.26586822 0.34862077 0.01443087
00000000: d1a3 843f a7dc 0b3f 3e9a df39 d137 a13c
00000010: 5246 bf3e 9dbe 9c34 12ad 9a3e a8d9 013a
00000020: 58e7 0f39 6bc1 183c b627 c03b 0000 0000
00000030: e162 403b 0000 0000 b2df cc3c 5cb9 9a37
00000040: 6058 a43d 89b4 123f ad97 083b d2d7 983c
00000050: 36c3 923e c016 743e dd8a 173e 27fa 9a3d
00000060: 0ca5 8a39 6024 c13e 66e1 943d 400d 853c
00000070: 6878 ce3d e11f 883e 6c7e b23e 756f 6c3c

cnn.cnn.2.running_var f4 [32]
0.19462019 0.098541185 4.8233996e-05 0.005499739 0.068724446 2.0058547e-08 0.017809248 2.9379926e-05
1.4019361e-05 0.0013542324 0.0017051434 1.17172715e-24 0.00024543123 1.17172715e-24 0.0062053734 1.3390527e-06
0.0043940507 0.036766157 0.0004634958 0.001356311 0.032676477 0.015567525 0.019641614 0.009302622
1.943593e-05 0.050160017 0.016830817 0.0009680099 0.014270523 0.012441983 0.040315617 0.00076518033
00000000: 844a 473e f6cf c93d dc4e 4a38 2837 b43b
00000010: 67bf 8c3d 364d ac32 b3e4 913c e974 f637
00000020: b234 6b37 8080 b13a 1e7f df3a e550 b517
00000030: 39ad 8039 e550 b517 7256 cb3b 80b9 b335
00000040: f8fb 8f3b 1c98 163d 5a01 f339 3fc6 b13a
00000050: c5d7 053d ef0e 7f3c 73e7 a03c 066a 183c
00000060: 580a a337 9774 4d3d c8e0 893c 0bc2 7d3a
00000070: e9ce 693c 76d9 4b3c fd21 253d 6296 483a

cnn.cnn.3.weight f4 [64, 32, 3, 3]
-0.041586425 -0.0107109845 0.043587238 0.029707214 -0.03793765 -0.04712024 -0.039547313 -0.058042914
-0.042680528 -0.014731009 0.041211314 0.01055474 -0.046178292 -0.04818425 0.029053703 -0.040302005
-0.0051632063 0.0309522 -0.041482475 0.0052696313 -0.017532825 0.002566774 -0.019205708 -0.04975003
-0.048793208 -0.028021565 0.057380743 -0.024769835 -0.039439604 0.012703874 0.018954305 0.03789072
0.052240714 0.03404814 -0.049283233 0.00946351 0.0348564 -0.0058713853 -0.03483319 0.05497851
-0.02186443 -0.03228443 -0.050648965 0.0046443935 0.02700024 0.016536416 0.016596328 -0.039744623
-0.051019344 -0.0036517833 0.05247797 0.0365857 -0.030172747 -0.0035132915 -0.040502798 -0.025047814
0.014665195 0.028437078 0.047265783 -0.057039525 0.03893521 -0.04018518 0.025035085 0.04274983
-0.0064510144 0.04578461 -0.04039067 -0.019485483 0.04032966 0.0017388345 -0.013604753 -0.019201105
0.041218337 0.023094634 0.013159155 -0.04032853 -0.05467301 0.01686166 0.012470638 -0.030965503
-0.007052475 0.03545585 0.018140791 0.00047472297 -0.011663943 -0.054294944 -0.05789792 -0.020009756
-0.033841006 0.023346262 -0.01833239 -0.028606901 0.056106444 0.01700062 0.031533998 -0.021580739
-0.03297515 0.024767237 -0.03764675 -0.042149566 -0.005904367 -0.024610931 -0.046954174 0.032692313
0.045125835 0.006778926 -0.012519653 -0.05684107 -0.026294773 0.011385469 0.026246719 -0.004861722
-0.009014958 0.031304907 -0.038227826 0.03349271 -0.03561595 -0.004543253 -0.018068764 0.0007199338
-0.022387048 0.03722507 -0.007153187 0.041417412 0.051034484 -0.0343293 -0.04280917 0.046957202
0.043803073 -0.041700225 -0.006134039 -0.05586303 -0.042328894 0.017881634 0.01602718 0.0163485
-0.014252343 0.059486 0.023928102 -0.028257571 -0.0011498254 0.017131256 0.023610348 -0.037312984
0.023114815 -0.02920483 -0.04335887 -0.034634553 0.057081062 0.049628086 0.050151207 0.041364435
0.045475475 -0.0081571 -0.029214405 0.029675823 -0.029649705 -0.04275898 -0.018013984 0.022470882
0.03091082 -0.018585382 -0.043049544 0.007951326 -0.034220956 -0.03175482 0.034104686 -0.008283815
0.056030996 0.06463293 0.015539721 0.01869813 0.015667845 -0.0019396686 -0.0012938421 -0.00069711293
0.02242497 0.067651145 -0.016660297 -0.019569675 -0.012917912 -0.027143387 0.012620905 0.040486164
0.04522757 0.02529647 -0.044625208 -0.028684609 -0.011465647 -0.008755785 0.0055184932 -0.04989626
0.016908266 -0.046331424 -0.037262425 -0.048334602 0.053542618 -0.052727714 0.048111215 -0.00069767796
-0.0011885795 0.03456413 -0.008992719 0.035852898 0.044757895 -0.052627858 0.025923202 0.010176666
0.012115074 0.0047140303 0.020229222 -0.021828217 -0.013126601 0.0645299 0.037392113 -0.003840091
-0.066935554 0.0019446354 -0.044862833 0.049903184 -0.031651445 -0.009337414 -0.012827997 0.019278826
0.05201377 0.0011353063 0.03417604 0.04171346 0.044602346 -0.021916555 -0.013653037 0.029559175
-0.014358253 0.029446984 -0.012913048 -0.04041269 0.02199639 0.010025874 0.025984999 0.05874943
0.035729073 0.052042548 0.0041490197 -0.049470074 -0.04201864 -0.036653556 -0.052606184 -0.029455455
-0.05714121 -0.057268515 -0.03913235 -0.061043117 -0.03890161 0.017028386 0.0443103 -0.015735906
00000000: 8756 2abd 207d 2fbc 8888 323d 8b5c f33c
00000010: 8264 1bbd 2701 41bd 5dfc 21bd 68be 6dbd
00000020: c7d1 2ebd 545a 71bc 32cd 283d caed 2c3c
00000030: 7325 3dbd d95c 45bd 0802 ee3c b713 25bd
00000040: 1d30 a9bb 788f fd3c 87e9 29bd dfac ac3b
00000050: 00a1 8fbc 5237 283b 4a55 9dbc b0c6 4bbd
00000060: 63db 47bd 7b8d e5bc 1208 6b3d 1cea cabc
00000070: 6c8b 21bd e923 503c 0f46 9b3c 4d33 1b3d
00000080: 5cfa 553d 1076 0b3d 37dd 49bd d60c 1b3c
00000090: 96c5 0e3d c064 c0bb 3fad 0ebd 2531 613d
000000a0: 081d b3bc ae3c 04bd 4a75 4fbd ff2f 983b
000000b0: 9b2f dd3c 6177 873c 06f5 873c 42cb 22bd
000000c0: a9f9 50bd c252 6fbb 24f3 563d e3da 153d
000000d0: d62c f7bc 403f 66bb 43e6 25bd 1331 cdbc
000000e0: 4946 703c e0f4 e83c c499 413d 47a2 69bd
000000f0: 877a 1f3d 3799 24bd 6116 cd3c 721a 2f3d
00000100: 0863 d3bb a588 3b3d b070 25bd 05a0 9fbc
00000110: b730 253d 9be9 e33a 78e6 5ebc a34b 9dbc
00000120: 8fd4 283d f530 bd3c 7f99 573c 872f 25bd
00000130: cef0 5fbd 7721 8a3c a651 4c3c 5eab fdbc
00000140: 7318 e7bb 273a 113d ff9b 943c 3de4 f839
00000150: 1f1a 3fbc 6064 5ebd 5f26 6dbd 80eb a3bc
00000160: de9c 0abd a940 bf3c cf2d 96bc 0559 eabc
00000170: dfcf 653d e244 8b3c cb29 013d 17ca b0bc
00000180: f310 07bd a9e4 ca3c 7b33 1abd 06a5 2cbd
00000190: 6c79 c1bb dd9c c9bc 0553 40bd 60e8 053d
000001a0: ded5 383d c121 de3b 3b1f 4dbc 2fd2 68bd
000001b0: 2368 d7bc 1e8a 3a3c 5c03 d73c 144f 9fbb
000001c0: 79b3 13bc 9339 003d c894 1cbd a72f 093d
000001d0: 08e2 11bd 92df 94bb f204 94bc f1b9 3c3a
000001e0: 0b65 b7bc 5179 183d 4865 eabb 4ea5 293d
000001f0: 8909 513d e19c 0cbd ab58 2fbd 3256 403d
00000200: da6a 333d dbcd 2abd 0c00 c9bb a2d0 64bd
00000210: 1061 2dbd 817c 923c 6f4b 833c 4aed 853c
00000220: a982 69bc 98a7 733d de04 c43c 6c7c e7bc
00000230: bdb5 96ba d956 8c3c 7d6a c13c 80d5 18bd
00000240: 485b bd3c f83e efbc 1299 31bd f6dc 0dbd
00000250: d5cd 693d d246 4b3d 5a6b 4d3d c16d 293d
00000260: 7e44 3a3d 5ba5 05bc 0c53 efbc b61a f33c
00000270: f0e3 f2bc 0a24 2fbd 1092 93bc db14 b83c
00000280: b038 fd3c 5f40 98bc b854 30bd 4746 023c
00000290: 462b 0cbd 5811 02bd 5bb1 0b3d d7b8 07bc
000002a0: c280 653d 455e 843d 509a 7e3c d22c 993c
000002b0: da59 803c 7a3c feba 2396 a9ba 75be 36ba
000002c0: 92b4 b73c af8c 8a3d 2d7b 88bc 9550 a0bc
000002d0: a6a5 53bc cf5b debc eac7 4e3c d2d4 253d
000002e0: 8b40 393d 8b3a cf3c ecc8 36bd fcfb eabc
000002f0: 69da 3bbc 6d74 0fbc 7ad4 b43b 0560 4cbd
00000300: 3483 8a3c 05c6 3dbd 7ca0 18bd 81fa 45bd
00000310: 814f 5b3d 04f9 57bd 4410 453d 60e4 36ba
00000320: 1cca 9bba 1e93 0d3d 3356 13bc 7dda 123d
00000330: 0e54 373d 4f90 57bd e55c d43c 08bc 263c
00000340: 4e7e 463c 2778 9a3b c1b7 a53c 17d1 b2bc
00000350: f510 57bc 4128 843d 7928 193d 09aa 7bbb
00000360: 8215 89bd 23e3 fe3a 17c2 37bd 4867 4c3d
00000370: f2a4 01bd f4fb 18bc 852c 52bc a1ee 9d3c
00000380: 640c 553d 8fce 943a 2dfc 0b3d bcdb 2a3d
00000390: f3b0 363d 598a b3bc fdb0 5fbc 1526 f23c
000003a0: e13e 6bbc cd3a f13c 4091 53bc c787 25bd
000003b0: c631 b43c 9043 243c 7ede d43c 3ea3 703d
000003c0: a658 123d 912a 553d 80f4 873b 22a1 4abd
000003d0: bd1b 2cbd 0a22 16bd 9579 57bd 914c f1bc
000003e0: e70c 6abd 6492 6abd 3e49 20bd 5908 7abd
000003f0: 4b57 1fbd 1d7f 8b3c b87e 353d 96e8 80bc

cnn.cnn.3.bias f4 [64]
-0.06300699 -0.0123490635 0.032350764 -0.049171448 -0.022454664 -0.0012881737 -0.026721459 0.0014250055
-0.06016944 0.0103227785 0.04723507 0.0018847412 0.05796716 -0.058446325 -0.033247184 -0.015127018
0.04288447 -0.057169124 -0.007945029 -0.06254903 -0.0018543756 -0.061574254 -0.055032738 -0.04111186
-0.028593827 0.031412326 0.006097469 -0.059686847 0.05299938 -0.011173593 0.01480932 -0.034062497
-0.03328523 -0.050586108 -0.044885553 -0.03308838 0.031037446 -0.024470214 -0.052067444 0.016248435
-0.019262247 -0.041525137 0.03986569 -0.057596702 -0.054903742 0.026070131 0.03333228 -0.029046394
0.039417297 -0.037921228 -0.03366037 -0.013657363 -0.023060067 0.030225754 -0.060957976 0.044745028
0.031125681 -0.031087164 -0.03387691 0.008855573 -0.0070433966 -0.050690588 0.04070776 0.04329382
00000000: cf09 81bd ba53 4abc 3c82 043d 0068 49bd
00000010: d8f2 b7bc f0d7 a8ba f6e6 dabc 40c7 ba3a
00000020: 3b74 76bd df20 293c 9079 413d 6c09 f73a
00000030: f96e 6d3d 6a65 6fbd 332e 08bd 50d7 77bc
00000040: a0a7 2f3d 2c2a 6abd de2b 02bc b519 80bd
00000050: 850e f3ba 4935 7cbd 026a 61bd e964 28bd
00000060: 9a3d eabc 36aa 003d 47cd c73b 327a 74bd
00000070: e115 593d 7211 37bc caa2 723c 1e85 0bbd
00000080: 1856 08bd 6133 4fbd ead9 37bd ae87 07bd
00000090: 3e42 fe3c c275 c8bc ac44 55bd 701b 853c
000000a0: dccb 9dbc 4316 2abd 354a 233d 85ea 6bbd
000000b0: bfe2 60bd 0791 d53c 6e87 083d b4f2 edbc
000000c0: 0874 213d 4a53 1bbd 75df 09bd 22c3 5fbc
000000d0: 77e8 bcbc 009c f73c 12af 79bd 9046 373d
000000e0: 49fb fe3c 82aa febc 84c2 0abd f716 113c
000000f0: 4bcc e6bb efa0 4fbd 2ebd 263d dc54 313d

cnn.cnn.5.weight f4 [64]
1.0061125 1.0042325 1.007033 1.0134387 1.0072203 1.0048574 1.007229 1.010626
1.006544 1.0149202 1.0109849 1.008068 1.0048128 1.0097492 1.0109819 1.0158881
1.0084357 1.0115712 1.0102895 1.0077341 1.0110966 1.0027156 1.0039974 1.0124484
1.0149493 1.0092887 1.0098828 1.0100274 1.0091106 1.0072631 1.0013727 1.0029598
1.0092968 1.0157876 1.0011736 1.0054772 1.0173601 1.0126251 1.0102789 1.0049753
1.0071533 1.0057169 1.0085936 1.010797 1.0014342 1.0083746 1.0105352 1.0050069
1.0065485 0.99948424 1.0082289 1.0058322 0.99973303 1.0146933 1.0099419 1.0080464
1.0089685 1.010922 1.007572 1.0077827 1.007852 1.0058408 1.0067116 1.0106035
00000000: 4bc8 803f b18a 803f 75e6 803f 5cb8 813f
00000010: 98ec 803f 2b9f 803f e1ec 803f 315c 813f
00000020: 6fd6 803f e8e8 813f f467 813f 5f08 813f
00000030: b59d 803f 763f 813f db67 813f 9f08 823f
00000040: 6c14 813f 2a7b 813f 2b51 813f 6efd 803f
00000050: 9d6b 813f fc58 803f fd82 803f e997 813f
00000060: dce9 813f 5f30 813f d743 813f 9448 813f
00000070: 892a 813f ffed 803f fb2c 803f fd60 803f
00000080: a330 813f 5405 823f 7526 803f 7ab3 803f
00000090: db38 823f b39d 813f d250 813f 08a3 803f
000000a0: 66ea 803f 55bb 803f 9819 813f cc61 813f
000000b0: ff2e 803f 6b12 813f 3859 813f 11a4 803f
000000c0: 95d6 803f 33de 7f3f a50d 813f 1cbf 803f
000000d0: 81ee 7f3f 78e1 813f c745 813f aa07 813f
000000e0: e125 813f e465 813f 1ff8 803f 06ff 803f
000000f0: 4b01 813f 64bf 803f eddb 803f 755b 813f

cnn.cnn.5.bias f4 [64]
0.0010591602 0.00077689136 0.0018189342 0.00089715625 0.00088644825 0.00016734273 -0.002161979 0.00081166823
0.0030428634 -0.0015737283 0.0006874471 0.00087490946 -0.0023803269 -0.0038018797 0.0016415173 0.0018055754
-0.00024594853 -0.003050732 -0.0022779293 0.0027277432 0.0005758682 -0.0022719437 -0.0027173427 -0.0022960494
-0.0007946134 0.0028448554 -0.001440089 0.002555866 -0.0009738378 -6.482633e-05 0.0040531955 0.00020249371
-0.00077437656 -0.0019622892 -0.00058180443 -0.0001717482 -0.0013038234 0.0010535335 -0.0010111971 0.0015724652
-0.0014616735 0.00568121 -0.0008376529 0.0026149224 0.0007613994 0.0016966973 -0.001933335 -0.0047188103
0.000503494 -0.0017793842 0.002056907 -0.00020618988 0.00013540195 0.00029023393 0.0007843076 0.0018105702
0.0003146789 -0.004846032 -0.0009891696 0.0020301223 0.0005896086 0.002509687 0.0011910946 0.00015316093
00000000: 85d3 8a3a 4ca8 4b3a 4e69 ee3a 232f 6b3a
00000010: 8960 683a b978 2f39 fdaf 0dbb 22c6 543a
00000020: c76a 473b 8f45 ceba cb35 343a 2e5a 653a
00000030: 42ff 1bbb f528 79bb 2e28 d73a 0fa9 ec3a
00000040: a7f2 80b9 caee 47bb 5049 15bb f0c3 323b
00000050: dcf5 163a e4e4 14bb 7215 32bb 5179 16bb
00000060: 9a4d 50ba c170 3a3b 5ec1 bcba 5180 273b
00000070: 2649 7fba 5ff3 87b8 abd0 843b 7e54 5439
00000080: 88ff 4aba c099 00bb 3c84 18ba 4e17 34b9
00000090: 0ee5 aaba b816 8a3a 258a 84ba 2d1b ce3a
000000a0: a095 bfba 7229 ba3b ef95 5bba 1e5f 2b3b
000000b0: a698 473a b763 de3a f567 fdba 40a0 9abb
000000c0: e9fc 033a 3a3a e9ba 2ccd 063b ad34 58b9
000000d0: affa 0d39 8a2a 9839 fe99 4d3a a850 ed3a
000000e0: 7dfb a439 76cb 9ebb 06a7 81ba cd0b 053b
000000f0: f78f 1a3a 9079 243b 811e 9c3a d399 2039

cnn.cnn.5.running_mean f4 [64]
0.07345956 0.20889513 0.17895949 0.057593174 0.045595318 0.1261462 0.0867922 0.042559773
0.07758549 0.2174509 0.11542206 0.16134521 0.20094258 0.06767049 0.13626039 0.16802247
0.15250587 0.07967648 0.19844984 0.0971436 0.17690861 0.09561665 0.03703596 0.19323573
0.084648214 0.21020441 0.15296575 0.03440605 0.13878654 0.11672734 0.21726589 0.18848321
0.14504924 0.054111306 0.5019853 0.05447849 0.19287801 0.04792945 0.034294963 0.099067174
0.025623677 0.13305508 0.121990316 0.10477484 0.072133705 0.124813914 0.12521973 0.054489482
0.140679 0.26935565 0.07148078 0.11620623 0.08256865 0.11020696 0.13127011 0.06930897
0.1585597 0.07891656 0.059309468 0.16583346 0.11382541 0.21428011 0.14481394 0.14717375
00000000: f771 963d 9be8 553e 2841 373e d2e6 6b3d
00000010: 28c2 3a3d 782c 013e 1cc0 b13d 2853 2e3d
00000020: 24e5 9e3d 73ab 5e3e 6762 ec3d ae37 253e
00000030: e4c3 4d3e d396 8a3d d887 0b3e 150e 2c3e
00000040: 802a 1c3e 6c2d a33d 6f36 4b3e 39f3 c63d
00000050: 8827 353e aad2 c33d 05b3 173d 96df 453e
00000060: 0b5c ad3d d33f 573e 0ea3 1c3e 5ced 0c3d
00000070: 0f1e 0e3e be0e ef3d f37a 5e3e be01 413e
00000080: ca87 143e d1a3 5d3d 1c82 003f d624 5f3d
00000090: d081 453e ac51 443d e078 0c3d bbe3 ca3d
000000a0: bfe8 d13c 973f 083e 0fd6 f93d 3194 d63d
000000b0: d6ba 933d 709e ff3d 9a39 003e 5d30 5f3d
000000c0: 280e 103e fce8 893e 8464 923d 88fd ed3d
000000d0: c119 a93d 30b4 e13d ac6b 063e dcf1 8d3d
000000e0: 795d 223e 019f a13d 7cee 723d 3fd0 293e
000000f0: 4c1d e93d 3f6c 5b3e 1b4a 143e b7b4 163e

cnn.cnn.5.running_var f4 [64]
0.050549783 0.14381401 0.13874966 0.028763706 0.018630639 0.06329488 0.040951725 0.020125596
0.069759525 0.02850884 0.01988979 0.0348989 0.16480428 0.04312777 0.029821487 0.041465234
0.118936434 0.04185197 0.06146711 0.0773441 0.073433414 0.0715268 0.030534957 0.039695296
0.013905898 0.06582352 0.082619645 0.021037688 0.061330248 0.05869051 0.14298692 0.11382712
0.071934834 0.017669054 0.14809054 0.036452945 0.03300294 0.03673153 0.023830308 0.04607363
0.010833033 0.07573281 0.029235778 0.04943931 0.06520501 0.07006696 0.029054292 0.052140035
0.0798787 0.15075147 0.041789815 0.03879351 0.04087263 0.013926541 0.021592591 0.02137169
0.046504583 0.025229095 0.04269279 0.10444444 0.079693 0.15265149 0.06745101 0.023534218
00000000: 4a0d 4f3d fb43 133e 6414 0e3e dda1 eb3c
00000010: 489f 983c bfa0 813d ffbc 273d 6fde a43c
00000020: 15de 8e3d 5f8b e93c eaef a23c 26f2 0e3d
00000030: 74c2 283e bfa6 303d 314c f43c 73d7 293d
00000040: f294 f33d f96c 2b3d f0c4 7b3d 9566 9e3d
00000050: 4264 963d a57c 923d 7224 fa3c 8997 223d
00000060: 90d5 633c 7bce 863d 7d34 a93d 3b57 ac3c
00000070: 6d35 7b3d 7665 703d 2a6b 123e 311e e93d
00000080: 9252 933d b1be 903c 0ca5 173e af4f 153d
00000090: 172e 073d cd73 163d c737 c33c b4b7 3c3d
000000a0: 097d 313c ce19 9b3d df7f ef3c e080 4a3d
000000b0: 348a 853d 447f 8f3d 4403 ee3c ca90 553d
000000c0: 7297 a33d 985e 1a3e cc2b 2b3d f2e5 1e3d
000000d0: 0f6a 273d 262c 643c f2e2 b03c af13 af3c
000000e0: 977b 3e3d 3fad ce3c a3de 2e3d f7e6 d53d
000000f0: 1536 a33d ac50 1c3e c123 8a3d d5ca c03c

cnn.cnn.6.weight f4 [64, 64, 3, 3]
0.036679063 0.026449157 -0.025054218 -0.019041415 -0.015486779 0.012583583 0.024871187 -0.0007891051
-0.03603688 -0.024319446 -0.02264721 -0.029126719 0.02002109 0.0024667492 -0.028679375 -0.026666544
-0.032631245 -0.029175311 0.018491847 -0.021800077 -0.030692963 0.008344054 -0.003839616 -0.034241
0.012945758 0.003911738 0.007066814 0.02540639 -0.015891064 -0.03294091 0.035524115 0.045646705
0.049942583 0.023851192 0.035592195 0.015644806 -0.034495596 0.009048894 -0.03511231 -0.043113757
0.010860996 -0.02502366 -0.028706448 0.040284496 0.011330141 0.017548904 -0.010022592 0.0159671
0.0025001813 -0.0023165352 -0.0039477358 0.03945338 -0.026853384 -0.016197879 0.0319644 0.0012221064
0.025358774 -0.013823405 0.034270518 -0.023012208 -0.020221224 -0.034977652 -0.027646502 0.027898898
0.030836655 0.025832586 0.023961555 0.037269764 0.033584554 0.029200751 -0.02041957 0.031992193
0.027774258 0.014665071 -0.00468346 0.03824196 -0.001208794 -0.037572745 -0.013909313 -0.0006755281
0.021871984 0.016934229 0.015108484 0.043727905 0.02905093 -0.020178292 -0.009872618 -0.010752793
-0.0024134265 -0.034904987 -0.011265323 0.033372797 -0.03596614 0.0060697244 0.0070530977 -0.011343917
-0.018319285 -0.023583975 -0.037129693 -0.042155147 0.022154085 0.00084276893 -0.003583771 -0.0074461675
-0.040604524 -0.0050871004 -0.038915563 0.023126118 -0.012140706 -0.011906719 0.016428515 -0.029819522
-0.026087329 -0.021025656 -0.010574283 -0.026499057 -0.04171204 0.017408667 0.017838854 -0.024125438
-0.030159475 0.029539762 -0.02560241 -0.028168334 -0.031651415 0.008530565 0.007704228 0.035688672
-0.016631987 -0.034781393 0.035605785 0.026657864 -0.044013787 -0.043128487 0.014207446 -0.019731097
0.00937805 -0.006155259 -0.0034248678 0.04186802 0.020467043 0.02008777 -0.03239777 -0.011569178
0.021888854 0.024806792 0.00840576 -0.040700085 -0.020129917 0.042489726 0.033606716 0.024402909
-0.023623584 -0.013656296 0.021007545 -0.026039014 0.005733448 0.024789376 0.029186357 0.024626411
0.0033191422 0.03106142 -0.046459332 -0.02561221 -0.014839223 0.024510559 -0.04520353 0.026614092
-0.019622747 -0.018209776 0.03566604 0.04473865 0.015204911 -0.008441665 0.029574493 0.0020821046
0.028104886 0.01580836 -0.0033690166 0.03892626 0.02265144 0.040515434 0.03909666 0.0168318
-0.012843807 -0.006272948 -0.005248899 -0.015222378 0.003990451 0.041530155 0.025361747 0.013141586
0.025200615 -0.02201566 0.018588262 0.03608866 0.013438342 0.0015302128 0.033691917 -0.032608617
0.030260148 -0.006293581 -0.036423888 0.024273101 -0.0047928095 -0.014071599 -0.016243229 -0.009470677
-0.004099696 -0.036848012 0.021708751 0.0108809145 0.021410247 0.03914186 -0.013581118 -0.02511351
-0.022136332 -0.0018670501 0.0022907066 0.02357449 0.01862625 0.019789208 -0.020075075 -0.03702733
-0.0017487601 0.0063565806 -0.024305636 -0.016925903 -0.006179568 -0.037136152 0.038548876 0.026302727
-0.035212904 -0.041304246 0.041201606 0.041036285 -0.031109992 0.01322683 -0.018895822 -0.025024863
-0.03189654 0.0022904058 0.03787085 0.024278754 -0.030971613 0.031677455 0.037906073 0.035721853
0.042720586 -0.024730671 -0.01963268 0.026827553 -0.0316418 -0.009571442 0.028608954 0.010485072
00000000: c93c 163d e7ab d83c 813e cdbc befc 9bbc
00000010: 42bc 7dbc 5f2b 4e3c a9be cb3c f2db 4eba
00000020: 689b 13bd 9339 c7bc a486 b9bc 289b eebc
00000030: 4503 a43c 2fa9 213b 02f1 eabc cc73 dabc
00000040: 57a8 05bd 1001 efbc 377c 973c 1396 b2bc
00000050: cf6f fbbc 80b5 083c 11a2 7bbb 4a40 0cbd
00000060: 721a 543c 092e 803b bc90 e73b 1021 d03c
00000070: fa2d 82bc 0ced 06bd bc81 113d 0af8 3a3d
00000080: 9890 4c3d 9363 c33c 1fc9 113d 8929 803c
00000090: 414b 0dbd d041 143c edd1 0fbd 0d98 30bd
000000a0: 52f2 313c 6bfe ccbc c929 ebbc 5b01 253d
000000b0: 0ea2 393c b8c2 8f3c cc35 24bc 70cd 823c
000000c0: 15da 233b 03d1 17bb 025c 81bb de99 213d
000000d0: a1fb dbbc 6ab1 84bc 1aed 023d 162f a03a
000000e0: 34bd cf3c 907b 62bc 3e5f 0c3d 1984 bcbc
000000f0: fba6 a5bc ba44 0fbd eb7a e2bc 3b8c e43c
00000100: 279d fc3c dc9e d33c 064b c43c 2ea8 183d
00000110: f58f 093d 6a36 ef3c f146 a7bc 3f0a 033d
00000120: d786 e33c c445 703c b677 99bb 9aa3 1c3d
00000130: 6570 9eba e1e5 19bd e3e3 63bc ec15 31ba
00000140: e02c b33c a7b9 8a3c 9389 773c 081c 333d
00000150: 37fc ed3c f24c a5bc c3c0 21bc 7c2c 30bc
00000160: 942a 1ebb 88f8 0ebd 3092 38bc eab1 083d
00000170: 3b51 13bd 8ae4 c63b ac1d e73b d6db 39bc
00000180: 5312 96bc 2e33 c1bc 4e15 18bd e0aa 2cbd
00000190: 7c7c b53c 44ed 5c3a b3dd 6abb fbfe f3bb
000001a0: ee50 26bd b1b1 a6bb ed65 1fbd fc72 bd3c
000001b0: d0e9 46bc 6614 43bc 1895 863c 1248 f4bc
000001c0: 18b5 d5bc ff3d acbc c23f 2dbc 8d14 d9bc
000001d0: 3eda 2abd 9f9c 8e3c ca22 923c b6a2 c5bc
000001e0: 0111 f7bc 5ffd f13c 25bc d1bc 47c1 e6bc
000001f0: eaa4 01bd c8c3 0b3c c073 fc3b 492e 123d
00000200: ce3f 88bc ef76 0ebd 5fd7 113d 9861 da3c
00000210: cd47 34bd 7fa7 30bd 59c6 683c 1ca3 a1bc
00000220: 65a6 193c 0eb2 c9bb bf73 60bb cd7d 2b3d
00000230: 80aa a73c 1b8f a43c 86b3 04bd a68c 3dbc
00000240: 4150 b33c 9d37 cb3c 50b8 093c 22b5 26bd
00000250: 7fe7 a4bc b509 2e3d 32a7 093d 9ce8 c73c
00000260: 3f86 c1bc a8be 5fbc 0418 ac3c c54f d5bc
00000270: a6df bb3b 1713 cb3c 3a18 ef3c 54bd c93c
00000280: f785 593b 8574 fe3c 244c 3ebd b3d0 d1bc
00000290: 3620 73bc 5eca c83c 5627 39bd cc05 da3c
000002a0: e2bf a0bc ab2c 95bc 8e16 123d e03f 373d
000002b0: 051e 793c e94e 0abc 3546 f23c eb73 083b
000002c0: 383c e63c 8980 813c b8ca 5cbb 2471 1f3d
000002d0: 838f b93c 83f3 253d d223 203d d8e2 893c
000002e0: d56e 52bc 4d8d cdbb f5fe abbb 4867 79bc
000002f0: 54c2 823b 861b 2a3d 70c3 cf3c cf4f 573c
00000300: 8571 ce3c 2f5a b4bc 6946 983c b4d1 133d
00000310: 7e2c 5c3c 6c91 c83a 8900 0a3d 9d90 05bd
00000320: 21e4 f73c 623a cebb 3731 15bd 62d8 c63c
00000330: 000d 9dbb 908c 66bc 8510 85bc e62a 1bbc
00000340: be56 86bb f1ed 16bd 8dd6 b13c dd45 323c
00000350: 8b64 af3c 3753 203d 5683 5ebc d9ba cdbc
00000360: 4157 b5bc ceb7 f4ba ae1f 163b 4a1f c13c
00000370: 1496 983c fa1c a23c 7c74 a4bc f8a9 17bd
00000380: a736 e5ba dd4a d03b 9d1c c7bc 31a8 8abc
00000390: f97d cabb 141c 18bd 6de5 1d3d d178 d73c
000003a0: 683b 10bd a42e 29bd 04c3 283d aa15 283d
000003b0: 62da febc 59b5 583c 69cb 9abc f100 cdbc
000003c0: f2a5 02bd a21a 163b 771e 1b3d 3de4 c63c
000003d0: 2eb8 fdbc 38c0 013d 6643 1b3d 1451 123d
000003e0: c8fb 2e3d fa97 cabc b7d4 a0bc 75c5 db3c
000003f0: d59a 01bd 8ad1 1cbc 535d ea3c 94c9 2b3c

cnn.cnn.6.bias f4 [64]
-0.032218874 -0.014016903 -0.027347103 0.010106329 0.010827555 -0.007945268 0.019631475 0.0038826875
0.039089102 0.007641214 0.029441547 0.028151378 -0.00057288376 0.020519113 0.010627156 -0.012164468
0.020390462 0.02386301 -0.023287518 -0.024306575 -0.028464861 -0.025572935 -0.023878764 -0.028359529
0.028568655 -0.030410534 -0.030648807 -0.027890684 -0.0070396927 0.039929636 0.0015054229 -0.0368774
-0.009345978 0.006628048 0.03213069 0.0035526282 0.046025537 0.005773619 0.034792412 -0.026643055
-0.005492636 0.004748492 0.04006949 -0.015367602 0.012235818 -0.03546491 -0.01688654 -0.013678639
-0.010250831 0.0013192166 0.01293434 0.037626795 0.02149054 -0.00958045 0.016242908 -0.029842706
-0.010686521 0.026703028 0.03578956 0.0001305989 0.02930338 -0.01944519 0.030152926 -0.006160885
00000000: f0f7 03bd 27a7 65bc 0807 e0bc 0495 253c
00000010: 0f66 313c df2c 02bc 30d2 a03c b074 7e3b
00000020: e51b 203d 2663 fa3b 662f f13c b89d e63c
00000030: 942d 16ba b317 a83c 861d 2e3c 7a4d 47bc
00000040: e609 a73c 5c7c c33c 77c5 bebc 951e c7bc
00000050: 242f e9bc 557e d1bc 669d c3bc 3e52 e8bc
00000060: d008 ea3c 831f f9bc 3513 fbbc 017b e4bc
00000070: 39ad e6bb 428d 233d 9c51 c53a c20c 17bd
00000080: df1f 19bc 1930 d93b 789b 033d 36d3 683b
00000090: 4685 3c3d a030 bd3b 7d82 0e3d 8942 dabc
000000a0: 92fb b3bb 3d99 9b3b e81f 243d 65c8 7bbc
000000b0: be78 483c a743 11bd a455 8abc 5f1c 60bc
000000c0: 1af3 27bc 90e9 ac3a 8eea 533c 8e1e 1a3d
000000d0: ee0c b03c 52f7 1cbc d90f 853c b178 f4bc
000000e0: 8516 2fbc 4fc0 da3c 1398 123d 60f1 0839
000000f0: a40d f03c 854b 9fbc 4503 f73c 40e1 c9bb

cnn.linear.0.weight f4 [64, 1152]
-0.018793851 -0.015786195 -0.0025188911 0.023836542 0.0076578315 -0.013729623 -0.010737822 -0.016274808
0.022813125 -0.023765475 0.006188737 -0.009286854 0.017887818 -0.00025713688 -0.012850089 0.004545314
0.024852702 -0.009992057 0.021947823 -0.017755374 0.02755026 0.008624684 -0.014793618 -0.010228592
0.024205351 -0.004270741 0.028854031 -0.02373206 0.0129129635 -0.020353528 -0.019157074 0.0065347906
0.01130196 -0.01279283 0.019310383 -0.015467249 -0.010200089 -0.012439784 -0.012074064 -0.025062643
-0.015739542 -0.012451691 -0.028640933 -0.020771548 0.01626239 0.006225185 0.011058833 0.0022251508
0.015226613 0.0017858873 0.008971919 -0.012410654 -0.005714499 0.016207485 -0.022544462 0.008617283
-0.003860524 -0.026971366 -0.021078376 0.014388848 -0.008130074 0.024957292 -0.023156818 -0.00644209
-0.025277764 -0.007217903 -0.022107493 0.0031329452 -0.015661547 0.026219044 -0.013007424 -0.020020345
-0.006539131 0.021596191 0.02352086 -0.028396951 -0.02506983 -0.009259413 -0.008876619 -0.020721462
-0.005584628 0.017577577 0.0027010937 0.011836545 0.0047542728 -0.013974756 0.002483907 0.0090751415
0.013508978 0.023837285 -0.011722523 -0.0072419182 0.02593394 0.01499876 -0.025094634 -0.026746841
-0.011996696 0.020404406 -0.014833272 -0.018288888 0.011259456 -0.009588059 0.014464251 -0.004090895
0.021485617 -0.0015897634 -0.012843168 -0.008897223 0.00939022 -0.021886999 0.02261921 0.00825427
-0.021239903 -0.020788975 -0.027468342 0.0071474975 0.00017674135 0.005440589 0.025577538 0.017876878
-0.0050117243 -0.025098387 -0.0014912249 -0.00619926 0.01932198 -0.023733445 0.003311847 -0.008415174
-0.012485896 -0.013262643 0.009991757 -0.002754011 0.0083481725 -0.026486022 -0.008560986 -0.023155056
0.021871455 -0.004953299 0.022950709 -0.022378996 0.0067645516 -0.006252042 -0.027528757 0.013703696
-0.029604638 -0.015744928 0.0064596403 -0.017421635 -0.026206164 -0.024403356 0.0017408924 0.023190392
-0.01880253 0.023386346 -0.02390615 0.016197596 0.01942346 0.0054294798 0.015222039 0.015846068
-0.0068565616 -0.022826323 -0.014201026 0.00078086014 0.018279992 -0.024841217 -0.0014903222 -0.02691535
0.0030340226 0.0021726356 -0.0008288143 0.0052956115 0.018671587 -0.013426863 -0.023858702 -0.02292018
-0.02691934 -0.012250815 0.025241226 0.02659734 -0.023139846 -0.0069741374 -0.018079795 0.002164145
0.005592005 0.020545166 0.023248222 -0.023722747 0.01562565 0.0025343462 -0.0016736252 0.006936728
0.00031593887 0.026417367 0.01798274 0.01719625 -0.009710852 -0.015373867 0.0018924411 0.023239318
0.015000759 0.01581231 0.026843358 -0.00044129338 0.015822481 -0.00893138 0.016461397 0.026241021
0.017329963 -0.011643379 0.0012936096 0.027592778 -0.009875109 -0.025476562 0.011339002 -0.002726473
0.008099322 0.01872061 -0.004741966 0.012641169 0.010445217 0.011942878 0.025268724 -0.006453319
-0.020054573 0.000618218 -0.015481307 -0.021447131 0.025575532 0.024327718 -0.0069316877 -0.029117212
0.027823465 -0.00028517863 0.0018655391 -0.0008289277 0.009926788 -0.0054502715 -0.013609665 -0.025152102
-0.008490487 0.02229329 0.011210419 0.0016812203 0.00085413334 0.010849554 -0.013610528 -0.02806359
-0.004320081 0.007947471 -0.0062788064 -0.009570885 0.01726037 0.002526734 -0.022763945 0.013076093
00000000: 90f5 99bc 0d52 81bc fb13 25bb da44 c33c
00000010: 8cee fa3b 36f2 60bc b1ed 2fbc bf52 85bc
00000020: 97e2 ba3c d0af c2bc e4ca ca3b e427 18bc
00000030: 7989 923c 54d0 86b9 2e89 52bc dbf0 943b
00000040: e597 cb3c bab5 23bc eccb b33c b873 91bc
00000050: 15b1 e13c 8c4e 0d3c ee60 72bc d395 27bc
00000060: 4d4a c63c 92f1 8bbb 4a5f ec3c bd69 c2bc
00000070: e590 533c 71bc a6bc 4cef 9cbc cc21 d63b
00000080: db2b 393c 0599 51bc cf30 9e3c 586a 7dbc
00000090: 461e 27bc 3cd0 4bbc 4cd2 45bc 2c50 cdbc
000000a0: 36f0 80bc 2d02 4cbc 64a0 eabc 1829 aabc
000000b0: b438 853c a3fc cb3b 1c30 353c d6d3 113b
000000c0: 0b79 793c 6f14 ea3a f5fe 123c 0e56 4bbc
000000d0: b140 bbbb 8fc5 843c 2aaf b8bc 812f 0d3c
000000e0: d800 7dbb 0ef3 dcbc 8fac acbc 34bf 6b3c
000000f0: 0034 05bc 3c73 cc3c 5eb3 bdbc 2b18 d3bb
00000100: 5013 cfbc 2984 ecbb c61a b5bc 1952 4d3b
00000110: a54c 80bc 52c9 d63c 171d 55bc b501 a4bc
00000120: 3546 d6bb 7fea b03c d2ae c03c b9a0 e8bc
00000130: 3e5f cdbc cbb4 17bc 3d6f 11bc 0ec0 a9bc
00000140: 41ff b6bb dafe 8f3c d504 313b 11ee 413c
00000150: bbc9 9b3b 60f6 64bc 0bc9 223b e7af 143c
00000160: c354 5d3c 6946 c33c d30f 40bc 9d4d edbb
00000170: 6a73 d43c 5cbd 753c 4393 cdbc 311c dbbc
00000180: ca8d 44bc 2427 a73c 4107 73bc 94d2 95bc
00000190: 9579 383c 3c17 1dbc 77fb 6c3c ea0c 86bb
000001a0: 9b02 b03c 9c5f d0ba 276c 52bc a8c5 11bc
000001b0: 70d9 193c 5d4c b3bc ec4b b93c eb3c 073c
000001c0: 4eff adbc a44d aabc 4a05 e1bc 8e35 ea3b
000001d0: a553 3939 f846 b23b fc87 d13c 8872 923c
000001e0: 6439 a4bb 229b cdbc 3475 c3ba 2923 cbbb
000001f0: 2149 9e3c a46c c2bc 930b 593b ccdf 09bc
00000200: a591 4cbc 8e4b 59bc 77b4 233c a37c 34bb
00000210: c6c6 083c 37f9 d8bc 6143 0cbc acaf bdbc
00000220: c42b b33c 494f a2bb 2003 bc3c 2854 b7bc
00000230: 2ca9 dd3b eedd ccbb fd83 e1bc 7885 603c
00000240: 6d85 f2bc 82fb 80bc 64ab d33b d1b7 8ebc
00000250: 4fae d6bc 8ce9 c7bc a82e e43a c7f9 bd3c
00000260: c307 9abc b994 bf3c d5d6 c3bc d2b0 843c
00000270: f31d 9f3c c7e9 b13b dc65 793c 9dcf 813c
00000280: 02ad e0bb 45fe babc 6cab 68bc a3b2 4c3a
00000290: ecbf 953c cf7f cbbc ea56 c3ba 957d dcbc
000002a0: 74d6 463b c762 0e3b c944 59ba cf86 ad3b
000002b0: 28f5 983c 58fc 5bbc 5373 c3bc 1ac3 bbbc
000002c0: f385 dcbc a4b7 48bc b0c6 ce3c aae2 d93c
000002d0: c68f bdbc 4e87 e4bb 141c 94bc 54d4 0d3b
000002e0: 233d b73b 564e a83c 0e73 be3c 3556 c2bc
000002f0: 5d01 803c 4617 263b 8b5d dbba 7e4d e33b
00000300: 99a4 a539 3c69 d83c 8a50 933c 26df 8c3c
00000310: 441a 1fbc ace2 7bbc c90b f83a 6260 be3c
00000320: bec5 753c d188 813c 9ae6 db3c 655d e7b9
00000330: 269e 813c ec54 12bc 0dda 863c 69f7 d63c
00000340: 91f7 8d3c dfc3 3ebc 568e a93a 400a e23c
00000350: 36cb 21bc 39b4 d0bc 39c7 393c a0ae 32bb
00000360: 05b3 043c f75b 993c 7e62 9bbb e81c 4f3c
00000370: 6a22 2b3c 10ac 433c 5b00 cf3c 5d76 d3bb
00000380: 7d49 a4bc e80f 223a 4fa5 7dbc e5b1 afbc
00000390: c783 d13c ec4a c73c 3623 e3bb 3887 eebc
000003a0: 09ee e33c 0784 95b9 1b85 f43a 654c 59ba
000003b0: f7a3 223c 3198 b2bb 13fb 5ebc c80b cebc
000003c0: af1b 0bbc 6ba0 b63c e8ab 373c 645c dc3a
000003d0: ebe7 5f3a 54c2 313c b1fe 5ebc 9de5 e5bc
000003e0: 778f 8dbb 1c36 023c 72be cdbb 34cf 1cbc
000003f0: 9f65 8d3c 9097 253b 747b babc 1c3d 563c

cnn.linear.0.bias f4 [64]
-0.00061013823 -0.012013667 0.01633908 -0.01188015 -0.010716696 -0.0059536537 0.021355541 -0.027255846
0.0073883906 -0.009481461 0.0066494914 -0.021560675 -0.027008934 0.0070146024 -0.019512245 -0.028039208
0.0153437825 0.024667261 0.004966704 0.008096191 -0.01778376 0.01061658 0.0015170833 -0.004774979
0.022782963 0.0119403275 -0.014667316 -0.001843202 0.020494118 0.0062159747 -0.0064580636 -0.026824128
-0.0020960658 0.028607916 0.027400704 0.011727465 -0.025216985 -0.017361173 0.017553143 -0.0050424016
0.025698312 -0.017589252 -0.005401375 -0.0011877666 -0.017867662 -0.0030607434 0.004018872 -0.021912826
0.028377624 0.017027874 0.017580893 -0.0027879083 -0.008287767 -0.028988233 0.00224015 0.019676305
0.0026694038 -0.0056515713 0.015170425 0.023791451 -0.0053269574 -0.013819752 0.017989526 -0.019156551
00000000: aff1 1fba f9d4 44bc 89d9 853c f6a4 42bc
00000010: 1595 2fbc de16 c3bb d1f1 ae3c a747 dfbc
00000020: 501a f23b 2158 1bbc fae3 d93b 03a0 b0bc
00000030: d741 ddbc c0da e53b 25d8 9fbc 7bb2 e5bc
00000040: 7d64 7b3c ff12 ca3c bcbf a23b e3a5 043c
00000050: 3faf 91bc 2af1 2d3c ded8 c63a 6d77 9cbb
00000060: 56a3 ba3c 5da1 433c 2f4f 70bc 9997 f1ba
00000070: 48e3 a73c 60af cb3b 2a9e d3bb 46be dbbc
00000080: 265e 09bb 265b ea3c 7177 e03c 8e24 403c
00000090: da93 cebc 0539 8ebc 9ccb 8f3c bb3a a5bb
000000a0: 4485 d23c 5617 90bc 04fe b0bb d5ae 9bba
000000b0: 345f 92bc c196 48bb beb0 833b 8782 b3bc
000000c0: 3178 e83c 0a7e 8b3c ce05 903c 57b5 36bb
000000d0: 6ac9 07bc bb78 edbc 7bcf 123b 3430 a13c
000000e0: 2af1 2e3b d130 b9bb 608d 783c 4ae6 c23c
000000f0: c28d aebb 3e6c 62bc c55e 933c 33ee 9cbc

value_stream.0.weight f4 [128, 64]
0.078304656 0.011556362 -0.040222142 -0.007110471 -0.08735671 0.0045289486 0.03751436 -0.019042648
-0.12380054 -0.044509698 -0.0013450301 -0.09564016 0.056372922 0.12182187 -0.060586307 0.080362655
0.056063756 0.038705286 -0.0002384585 -0.10974622 0.07657457 0.06430507 -0.083517015 -0.096086
0.12354608 -0.058014613 -0.006773725 -0.018939171 0.13287379 -0.06031058 0.017212892 -0.113009654
0.10153409 0.12060786 -0.050726537 -0.11461916 0.06582597 0.010417134 0.012185946 -0.07004043
-0.047924772 -0.09808731 -0.019728346 0.10299953 0.04595422 0.039149746 -0.099957235 0.095167674
-0.064461164 0.0762014 0.121504754 -0.058337964 -0.075758465 0.06563768 -0.050530747 0.0110586975
0.04985266 -0.0635125 0.112101376 -0.1209441 -0.06769555 0.056150597 -0.109651476 0.106621034
-0.07672636 0.1199675 0.08352747 -0.0454462 -0.022872489 -0.11210094 0.017570017 -0.007885451
0.029318342 0.032081395 0.12875359 -0.014628409 -0.021747077 0.11148743 0.047882147 0.020372503
-0.019840658 0.005200792 0.100845404 0.08366495 0.04778678 -0.029641785 0.033497803 0.07982608
0.020905 0.060656648 0.004931206 -0.10944606 0.1350992 0.08605085 0.06687387 -0.09392247
-0.056535363 -0.11064163 -0.044292185 -0.087124825 0.05657153 -0.096785136 0.059016876 0.045957595
-0.08738104 0.07456721 -0.10664667 -0.0019216767 -0.041137926 -0.0926729 -0.0136498045 0.060054705
0.081693895 -0.021555984 -0.031215979 0.12624948 0.020594442 0.05129303 0.02999688 0.0095906025
0.08079734 0.029821252 -0.10941576 0.05487471 0.116813116 0.04381167 0.11047794 -0.041116856
0.12511626 -0.049653307 -0.123022534 0.054131277 -0.11947169 0.07685881 0.08023292 0.009601445
0.08055092 0.09633583 -0.07700818 -0.07510932 0.109131925 0.046821624 -0.07383841 0.11544458
-0.07597486 0.08317548 0.10369143 -0.10093545 0.059262265 -0.04587377 0.014492048 -0.07427531
0.12585111 -0.05777872 0.09329159 -0.09302827 0.06753663 -0.10423439 -0.10478778 0.09873922
-0.05023935 -0.06612042 -0.061918907 0.055906177 -0.11304732 0.11210212 0.029626718 -0.0064323773
0.09353429 -0.015930831 -0.022204943 0.0064985766 0.093435474 0.02711403 0.0711256 0.09648398
0.06299063 -0.0921439 0.09419658 0.068474695 0.12584819 -0.023830712 0.043959893 -0.0186721
0.08243132 -0.069605924 -0.0044802865 0.07484028 0.08283034 0.09206461 0.07608003 -0.016172232
0.024066407 0.08148083 -0.085719325 0.100444235 0.074000485 -0.029461846 -0.033871744 0.05274079
-0.05296111 -0.027627725 -0.08397336 -0.012541294 0.003278993 0.11131133 0.057487965 -0.01501385
-0.06620663 0.00012566725 -0.04102265 0.099121936 0.10107688 0.07360609 -0.008818441 -0.12203843
0.06490543 0.015078802 -0.017207569 -0.014476306 -0.0023758477 0.09605348 0.029246183 -0.0780703
0.04342547 -0.03154815 -0.0152848605 -0.08224932 0.087191775 0.106205784 -0.03528771 -0.035354346
0.03047638 0.012204587 -0.049676877 -0.094015636 -0.049273867 0.02083862 0.036079515 0.06402781
-0.075330526 0.068073094 -0.027022371 0.1074493 0.11116485 0.010685042 0.016077075 -0.033896662
-0.024617076 0.11363136 -0.014176508 -0.102237195 0.04619496 0.11178482 -5.195835e-05 0.11825917
00000000: 315e a03d e556 3d3c f9bf 24bd f4fe e8bb
00000010: 13e8 b2bd 9367 943b a8a8 193d 54ff 9bbc
00000020: 238b fdbd cd4f 36bd b94b b0ba fdde c3bd
00000030: 4be7 663d bf7d f93d 5929 78bd 2d95 a43d
00000040: 1ca3 653d 6f89 1e3d b70a 7ab9 a0c2 e0bd
00000050: 21d3 9c3d 60b2 833d f80a abbd bdc8 c4bd
00000060: ba05 fd3d bba0 6dbd 20f6 ddbb 5226 9bbc
00000070: 1110 083e 3a08 77bd 0d02 8d3c 9b71 e7bd
00000080: 1bf1 cf3d 4101 f73d a1c6 4fbd 73bd eabd
00000090: c4cf 863d a0ac 2a3c 90a7 473c 5b71 8fbd
000000a0: c44c 44bd 00e2 c8bd 579d a1bc 6bf1 d23d
000000b0: 7e3a 3c3d 7c5b 203d 61b6 ccbd 45e7 c23d
000000c0: 3704 84bd 7b0f 9c3d 7cd7 f83d caf3 6ebd
000000d0: 4127 9bbd 0c6d 863d 54f9 4ebd 8a2f 353c
000000e0: 4e32 4c3d d712 82bd 6895 e53d 8ab1 f7bd
000000f0: f7a3 8abd 2bfe 653d f490 e0bd 215c da3d
00000100: b622 9dbd 85b1 f53d 7310 ab3d cb25 3abd
00000110: 165f bbbc 2d95 e5bd ffee 8f3c fb31 01bc
00000120: 052d f03c c867 033d fbd7 033e ffab 6fbc
00000130: ed26 b2bc 8653 e43d 1220 443d 3ce4 a63c
00000140: e088 a2bc 686b aa3b 0988 ce3d 8858 ab3d
00000150: 12bc 433d 54d3 f2bc fe34 093d db7b a33d
00000160: f640 ab3c 1b73 783d f495 a13b 4225 e0bd
00000170: 7257 0a3e 6e3b b03d 2bf5 883d 6d5a c0bd
00000180: a091 67bd 1498 e2bd b96b 35bd 806e b2bd
00000190: 8cb7 673d 4937 c6bd aebb 713d 083e 3c3d
000001a0: d5f4 b2bd b2b6 983d 9269 dabd c5e0 fbba
000001b0: 3e80 28bd 4acb bdbd 6ea3 5fbc ecfb 753d
000001c0: 214f a73d 2d96 b0bc a7b8 ffbc 8b47 013e
000001d0: adb5 a83c a418 523d 04bc f53c e721 1d3c
000001e0: 1379 a53d b34b f43c 5f15 e0bd 4ec4 603d
000001f0: b73b ef3d de73 333d 4242 e23d 266a 28bd
00000200: 7a1e 003e 4461 4bbd 3df3 fbbd c2b8 5d3d
00000210: 93ad f4bd 2768 9d3d 2851 a43d 614f 1d3c
00000220: e1f7 a43d b84b c53d 77b6 9dbd ead2 99bd
00000230: 8f80 df3d 08c8 3f3d 9838 97bd 356e ec3d
00000240: b598 9bbd e857 aa3d 2c5c d43d 3fb7 cebd
00000250: fdbc 723d 22e6 3bbd 0e70 6d3c a71d 98bd
00000260: 1ddf 003e 61a9 6cbd a90f bf3d 9b85 bebd
00000270: a550 8a3d d778 d5bd fa9a d6bd ca37 ca3d
00000280: c7c7 4dbd 256a 87bd ae9e 7dbd e0fd 643d
00000290: 5a85 e7bd cc95 e53d bbb3 f23c b1c6 d2bb
000002a0: e88e bf3d 6081 82bc 24e7 b5bc 03f2 d43b
000002b0: 195b bf3d 3e1e de3c 4caa 913d 6599 c53d
000002c0: 3b01 813d f1b5 bcbd 23ea c03d 763c 8c3d
000002d0: 59de 003e a038 c3bc 4a0f 343d 3bf6 98bc
000002e0: c0d1 a83d 8d8d 8ebd 5ecf 92bb dc45 993d
000002f0: f4a2 a93d 5f8c bc3d d9cf 9b3d a17b 84bc
00000300: ea26 c53c 6cdf a63d 9d8d afbd b5b5 cd3d
00000310: 918d 973d f859 f1bc 19bd 0abd ba06 583d
00000320: c0ed 58bd 8a53 e2bc 3afa abbd 007a 4dbc
00000330: 60e4 563b 32f7 e33d 8078 6b3d a7fc 75bc
00000340: 5797 87bd 8cc5 0339 5e07 28bd 7100 cb3d
00000350: 6501 cf3d cabe 963d 397b 10bc 49ef f9bd
00000360: 23ed 843d 140d 773c e3f6 8cbc 072e 6dbc
00000370: 1cb4 1bbb b0b7 c43d b195 ef3c 52e3 9fbd
00000380: e8de 313d a238 01bd 5a6d 7abc 5572 a8bd
00000390: 9a91 b23d 6b82 d93d d989 10bd b8cf 10bd
000003a0: 9aa9 f93c c0f5 473c fb79 4bbd 458b c0bd
000003b0: 65d3 49bd c1b5 aa3c 1dc8 133d 0321 833d
000003c0: e446 9abd e869 8b3d 055e ddbc 610e dc3d
000003d0: 66aa e33d 5010 2f3c 12b4 833c 3ad7 0abd
000003e0: c0a9 c9bc 8fb7 e83d 9644 68bc bc61 d1bd
000003f0: ed36 3d3d 71ef e43d daed 59b8 dd31 f23d

value_stream.0.bias f4 [128]
-0.030753087 0.054093193 0.07253275 -0.020581357 -0.095263556 0.12157985 0.042407334 0.051881652
0.1272429 -0.051822156 0.03336535 0.120472826 0.11530074 0.11992705 0.105249085 -0.09628194
-0.03532156 0.006045044 0.010402858 -0.105260655 -0.04236862 0.045608267 0.07087868 0.057983432
0.109177634 -0.086106636 -0.02868718 -0.088650405 -0.09802669 -0.013549842 -0.038739156 -0.023354575
-0.0420494 0.12076454 -0.0580452 0.07520318 -0.024546118 0.07133373 -0.10144605 -0.10313341
0.105657645 -0.12193757 -0.06286583 -0.059736535 0.0697105 -0.042233624 -0.11260009 0.059378292
0.06092057 0.0038877998 -0.10924421 -0.07543807 0.10337009 -0.025028404 -0.02571274 0.080961935
0.0147207845 -0.06052234 -0.013828985 0.011760648 0.084121525 -0.06483938 -0.083907984 0.08555606
0.11033336 0.021481164 -0.06773952 -0.04699941 0.11425146 -0.0622135 -0.09972967 0.08179137
-0.004009999 0.005576786 -0.06508863 -0.12051438 -0.037257764 0.066492386 0.039166052 0.0826223
-0.10326416 0.02961169 -0.079369225 -0.102816194 -0.008565345 0.056405026 -0.04729284 -0.04572806
0.03942343 -0.011203981 -0.04807463 -0.001349422 -0.047505066 0.101933174 -0.07812611 -0.05949463
-0.11483103 -0.12788747 0.08924896 0.08488275 0.023354594 -0.11372334 0.08470586 0.094840474
-0.01966088 -0.055217933 0.10727831 -0.06639728 0.034426037 0.0848914 -0.10420597 -0.022198051
0.09608352 -0.052487016 -0.006994948 -0.0009870384 0.08167095 -0.07120882 0.03584407 -0.06964548
0.11450428 0.11750443 0.009272911 0.124985054 -0.021609114 -0.06885057 -0.055390984 -0.0021105467
00000000: e6ed fbbc d390 5d3d 0d8c 943d 3c9a a8bc
00000010: 8a19 c3bd dbfe f83d 50b3 2d3d db81 543d
00000020: f64b 023e 7843 54bd 1baa 083d 75ba f63d
00000030: cb22 ec3d 509c f53d d58c d73d 772f c5bd
00000040: 57ad 10bd 8115 c63b c070 2a3c e692 d7bd
00000050: b88a 2dbd bccf 3a3d d728 913d 0980 6d3d
00000060: 8698 df3d ad58 b0bd 6001 ebbc 588e b5bd
00000070: 38c2 c8bd 2800 5ebc f3ac 1ebd 1852 bfbc
00000080: fe3b 2cbd 6653 f73d cec0 6dbd 2004 9a3d
00000090: f114 c9bc 6b17 923d f2c2 cfbd 9c37 d3bd
000000a0: 0963 d83d 68ba f9bd cdbf 80bd 4cae 74bd
000000b0: 61c4 8e3d 2afd 2cbd e09a e6bd a736 733d
000000c0: d987 793d 75ca 7e3b 6ebb dfbd 467f 9abd
000000d0: b3b3 d33d 5e08 cdbc 86a3 d2bc 5fcf a53d
000000e0: 722f 713c 46e6 77bd f892 62bc bcaf 403c
000000f0: e847 ac3d 82ca 84bd f3d7 abbd 0438 af3d
00000100: 75f6 e13d 44f9 af3c 04bb 8abd 7482 40bd
00000110: abfc e93d 95d3 7ebd 123f ccbd 3c82 a73d
00000120: 4f66 83bb 79bd b63b 304d 85bd 3ed0 f6bd
00000130: 999b 18bd 292d 883d 956c 203d e135 a93d
00000140: 297c d3bd 3794 f23c 558c a2bd 4c91 d2bd
00000150: a955 0cbc f508 673d 23b6 41bd 594d 3bbd
00000160: 767a 213d e790 37bc e7e9 44bd 17df b0ba
00000170: ac94 42bd 57c2 d03d 9500 a0bd a4b0 73bd
00000180: 882c ebbd eff4 02be 29c8 b63d 02d7 ad3d
00000190: 2252 bf3c c8e7 e8bd 447a ad3d b93b c23d
000001a0: db0f a1bc 332c 62bd bbb4 db3d 4cfb 87bd
000001b0: 5102 0d3d 8bdb ad3d f169 d5bd b0d8 b5bc
000001c0: 70c7 c43d a0fc 56bd e035 e5bb 835f 81ba
000001d0: 1943 a73d eed5 91bd 3bd1 123d 4aa2 8ebd
000001e0: 3881 ea3d 2aa6 f03d 68ed 173c 2af8 ff3d
000001f0: 9905 b1bc 8701 8dbd a8e1 62bd 1951 0abb
