test_for_cleanRL/training_logs_jumping_ball/duelingCNN_fps10_lr0.0001_2025-05-19_20-45-28/dueling_cnn_final.pt (torch, 597077 bytes, 23 tensors)

cnn.cnn.0.weight f4 [32, 1, 3, 3]
00000000: 887a 7e3e f939 883e 2745 abbd 6c14 a33e
00000010: cb81 98bd 3fef 953d 112e 2fbe e725 493e
00000020: 1c88 953e 2144 7ebe 5fd6 943e 1852 653d
00000030: 6921 7a3e 0738 613d 0d0e 1d3e 9eda 4dbd
00000040: 3639 813e 0924 353d cfda 23be e597 ce3d
00000050: df37 23be 7964 2bbd 35aa 13be b38b 553e
00000060: 1cb8 86be b35b 1dbe 70da d7bd 6b70 4ebe
00000070: bbfe 063d 0a34 a9be 01e7 9a3e 32fc 8cbe
00000080: ca2b 883e 68ff 4a3d e983 dfbd 3eca 4f3e
00000090: 1b6d 4e3d fb96 883e d0ef 0c3d 162e d8bd
000000a0: bc6e b73d f9cf babd 2464 143e bc93 993e
000000b0: 60e2 463e 40ef 17be 85e9 3f3e 4e92 653d
000000c0: 6d2c 283e 5e0b 50be ec8e a9be 2f55 08be
000000d0: bee7 82be 6da2 893e 4df2 c23d 09fd 083e
000000e0: 6b22 d43d e728 7739 d16c 873e e0e9 6dbe
000000f0: be9a a73c cb39 6abe b377 ce3d 06cd e5bd
00000100: 5949 e53d 225c 99bd 8c12 8f3e 028e 4ebe
00000110: f7d1 54be 526b 4abe 7561 983e 500a e03d
00000120: 6172 a53e 55ae 8abe 5b61 abbe 918b 88be
00000130: 4826 76be 4d80 013e fdde e73d e497 8a3e
00000140: 8d98 35be c3ac 68be 185b 353e 1dcd 11be
00000150: 212b 4d3e 349b acbd 0bb6 393e 31be 87be
00000160: 194e 32be d45d c53d 0106 953d 8690 adbd
00000170: 5798 4e3e 7342 6d3e 14a5 70be 84af 2fbe
00000180: 714c 9b3e ffec eebd 9c50 ffbd db22 a5be
00000190: b078 43be 5c88 aa3d f836 34bd e3c4 77be
000001a0: e01a 003c 9328 69be 04cb 90be a3f5 3bbe
000001b0: 9321 99be 7807 6abe 9169 a93e 11b4 7c3d
000001c0: 3ab0 e13d c466 9bbe d87c 61be d634 d8bd
000001d0: c038 913d 5a2c 96be 4312 13be 7658 4cbe
000001e0: 0028 723a c005 febd 4039 bdbc 304c 67be
000001f0: 204a 6abe 6e22 47be d778 ebbd 8b0b 87be
00000200: 8060 8e3e 30cf 85bd 7acf 943e 354a d13d
00000210: 88dc 8fbe df46 6c3e 1aaa c6bd 6d37 06be
00000220: 56aa 8dbe 8bab a9be b203 c93d 40bf a2bd
00000230: 5ac2 073e 560f 8cbe 32ca 783e 9357 7ebe
00000240: 645d 60bd 808e 8f3d bde6 333e c899 883e
00000250: 8525 9b3e 38d8 86be 8544 a93d 1366 13be
00000260: a5ca 1ebd 5317 82be 4cd3 9a3e e255 79be
00000270: f6ae 313e 02e6 e83d 5724 da3d 6eb4 41be
00000280: bea0 9a3e 4418 8a3d be85 4e3d b580 94be
00000290: 336a 123e 514d 2cbd 8225 1dbe 242b 963e
000002a0: 2b30 953d 52f1 39be b7d7 28be a72d c8bc
000002b0: 2c5b 4b3e 33d8 bebd 88f7 4bbe b1cc e3bd
000002c0: a60f 83be 2f92 df3d 710e 823e de68 a6be
000002d0: d207 b43d b30a 3a3e 10a1 6f3d ff3e ecbd
000002e0: b1fb 313e 436d 313e 7b4e fc3d 0c70 65bd
000002f0: 8975 bebd dfcb 173d a9b3 70bd 4e50 cabd
00000300: 4f48 5d3e 855c 923e 9972 1abd 97b1 91bd
00000310: d818 e23b 93ee 8fbc 8658 9d3d 7a89 c33d
00000320: 99ba 9bbe c92f f9bd eedb 923e f37d 083e
00000330: c736 a2bc e212 48be cbea 4abe df2a 95be
00000340: ce90 dfbd c3d6 ee3d 7564 5f3e 1c37 213e
00000350: c635 95be c04d 4bbe b5b2 56bd 17da a53e
00000360: c080 433d 3b43 b1bd 43bd 063e ec6c 04be
00000370: 10ee 5cbe 8816 733e 7334 1bbe 1cda 88bd
00000380: aac7 a9be d5b7 603e 3e0c 7c3e 6cf9 f23d
00000390: 7808 71be 02fe adbe 8035 8ebe 09a1 7a3e
000003a0: bff0 183e 3204 8f3e cc49 333e ac07 c13d
000003b0: 296d 8ebc d71d 81be 57d7 91be e439 a3be
000003c0: 8314 0e3e b523 2fbe 5b0f 9fbd ef97 40be
000003d0: 050b 9bbd 82c9 75be ac47 57be 253f de3d
000003e0: 47bb cbbd 1676 573e 9b67 fbbd 8442 78be
000003f0: ab3a 7ebd 4555 28be d6f4 d9bd d5bc a7be
0.2485143 0.2660673 -0.08362799 0.31851518 -0.07446631 0.07321023 -0.17107417 0.19643365
0.29205406 -0.24830677 0.29069802 0.055986494 0.24426807 0.054985072 0.15337391 -0.050257318
0.2523896 0.04422382 -0.16001438 0.10087565 -0.15939282 -0.041843865 -0.14420398 0.20854072
-0.2631234 -0.15367012 -0.105397105 -0.20160072 0.032957774 -0.33047515 0.30254367 -0.2753616
0.26595908 0.04955998 -0.10913832 0.20291993 0.05039702 0.2667769 0.03440839 -0.10555665
0.08956668 -0.09121699 0.14491326 0.29995525 0.19422293 -0.1483736 0.18741424 0.05604773
0.16423197 -0.20316836 -0.33116853 -0.13313745 -0.2556743 0.26881734 0.095188715 0.13377775
0.10358127 0.00023570993 0.26450208 -0.23233747 0.020459529 -0.22873609 0.100814246 -0.11220746
0.111956306 -0.07488276 0.27943838 -0.20171359 -0.2078322 -0.19767502 0.29761854 0.10939467
0.32313827 -0.2708613 -0.33472714 -0.2666898 -0.2403804 0.12646599 0.113218285 0.27069008
-0.17733975 -0.22722153 0.17710531 -0.14238401 0.20035984 -0.0842804 0.1813585 -0.26512292
-0.17412604 0.09637037 0.07276536 -0.08474831 0.201753 0.2316988 -0.23500472 -0.17156798
0.30331758 -0.11666297 -0.12466547 -0.32253155 -0.19089007 0.0832679 -0.043997735 -0.241962
0.0078189075 -0.22769384 -0.2827989 -0.18355422 -0.29908428 -0.22854412 0.33088353 0.061695162
0.11019941 -0.3035184 -0.2202028 -0.10556953 0.07090902 -0.29330713 -0.14362435 -0.1995562
0.0009237528 -0.124034405 -0.023098588 -0.22587657 -0.22879839 -0.19446728 -0.11497658 -0.26375994
0.27808 -0.065336585 0.29064542 0.10219232 -0.2809794 0.2307391 -0.09700413 -0.13107081
-0.27669019 -0.3313869 0.09815158 -0.07946634 0.13257733 -0.2735545 0.24295881 -0.24838094
-0.054776564 0.070096016 0.17568488 0.26679826 0.30302063 -0.26336837 0.08265022 -0.14394407
-0.038767476 -0.2540842 0.30239332 -0.24349168 0.17351899 0.113719955 0.106514625 -0.18916485
0.30200762 0.067429096 0.050420515 -0.29004446 0.14298324 -0.042065922 -0.1534634 0.2932979
0.07284578 -0.18158463 -0.16488539 -0.024435831 0.19858998 -0.093185805 -0.19918644 -0.11123026
-0.25597876 0.10916554 0.25401643 -0.32501882 0.08790554 0.18168144 0.05850321 -0.11535453
0.17381169 0.17326836 0.123196565 -0.05601506 -0.09299762 0.03705966 -0.058765087 -0.09878598
0.21609615 0.28586212 -0.037706945 -0.07113951 0.0068999343 -0.017569816 0.076829 0.09547706
-0.304158 -0.121673174 0.28683418 0.13329296 -0.01980151 -0.19538453 -0.19816129 -0.2913427
-0.10916291 0.11662056 0.21815665 0.15743679 -0.29142588 -0.19853878 -0.052416522 0.32392952
0.047730207 -0.08655401 0.13158135 -0.12932175 -0.21575189 0.23739064 -0.15156727 -0.06682226
-0.33160144 0.21945126 0.24614045 0.1186398 -0.23538387 -0.33982855 -0.27775192 0.24475493
0.14935587 0.27932888 0.1750862 0.094252914 -0.017386036 -0.25218078 -0.28484604 -0.31880105
0.13875012 -0.17103465 -0.07766601 -0.18807958 -0.07570461 -0.2400265 -0.21023434 0.108518876
-0.0994783 0.2104114 -0.122756205 -0.24244124 -0.06206767 -0.16438778 -0.10642402 -0.32761255

cnn.cnn.0.bias f4 [32]
00000000: b21c 8f3e c00d 3cbd c0d1 09bd d39c 07be
00000010: 0471 98be 149b a8be 02e3 073e 626f 32be
00000020: ef07 5dbe 342f c3bc 8b91 e0bd 5cdb dcbd
00000030: dd7e 083c 54cd 90bd 64a7 ecbd 1197 20be
00000040: 7336 8cbe 0748 903e cf0c 04be 111b 973d
00000050: be16 e6bd 44d4 153d 6090 9d3e 6025 253e
00000060: 5bec 96be 9af4 043e f8af 9b3e 5529 993d
00000070: d488 603e 6e7d a83e 4548 44bd a254 873d
0.2795158 -0.04591155 -0.0336473 -0.13243417 -0.29773724 -0.32930815 0.1327019 -0.17425302
-0.21585058 -0.02382622 -0.1096526 -0.10784027 0.008331028 -0.07070413 -0.11555365 -0.15682627
-0.2738529 0.28179953 -0.12895511 0.073782094 -0.112348065 0.036579385 0.30774212 0.16127539
-0.294772 0.12983933 0.3040769 0.074785866 0.21927196 0.32908195 -0.047920484 0.06607939

cnn.cnn.2.weight f4 [32]
00000000: 2281 7e3f a1f4 7e3f 1e71 813f 8c6f 7f3f
00000010: 795e 7f3f cad4 7e3f 602e 7e3f 779f 7f3f
00000020: 21d6 7f3f 09f3 813f 553d 7f3f 0000 803f
00000030: b61c 813f 0000 803f e474 7e3f f60a 813f
00000040: 55d0 7e3f 9e83 7e3f 87c2 7f3f 3513 813f
00000050: 0db4 7d3f 7feb 7c3f dc3d 7f3f 24ed 7f3f
00000060: f45b 7f3f f111 7f3f 537e 803f dc43 803f
00000070: dbd9 7e3f ecf0 7f3f 75f3 7d3f f057 803f
0.9941579 0.99592024 1.0112646 0.9977958 0.9975353 0.9954344 0.9928951 0.998527
0.9993611 1.0152293 0.9970296 1.0 1.0086887 1.0 0.9939711 1.008147
0.9953664 0.9941958 0.999062 1.0083987 0.9910286 0.9879684 0.99703765 0.9997122
0.99749684 0.9963675 1.0038551 1.0020709 0.9955117 0.9997699 0.9919961 1.0026836

cnn.cnn.2.bias f4 [32]
00000000: 5cd9 93bb 5484 1abc c935 0cbc 4389 73bb
00000010: 4d00 75bb 7426 c3bb a15f aebb 6934 f73b
00000020: db47 feb9 a523 103a 1490 7abb ada3 493b
00000030: 9c90 09ba ab27 ce3b 53c6 cebb 8950 e0bb
00000040: f7cb 43bb fad5 b33b 4e58 ceba 3e61 e23a
00000050: 2983 af3b a03c 4c38 f411 b13a 1bd9 723b
00000060: d753 bbbb 7366 193b 967d 17bc f041 0a3b
00000070: 238f 803b 9da0 b43b cf8b 50bb 785a fdbb
-0.0045119952 -0.009430964 -0.008557745 -0.0037160672 -0.0037384212 -0.0059555117 -0.0053214584 0.0075440896
-0.00048500192 0.00054984755 -0.003823285 0.0030767724 -0.0005247684 0.00629135 -0.006310263 -0.006845538
-0.0029876211 0.0054881545 -0.001574287 0.0017271412 0.0053562117 4.869385e-05 0.0013509379 0.0037055674
-0.0057167816 0.0023407012 -0.009246251 0.002109643 0.003923313 0.0055123107 -0.0031821614 -0.007731732

cnn.cnn.2.running_mean f4 [32]
00000000: 5aa7 833f 7eba 0b3f 7c9e ee39 9dc0 9d3c
00000010: 58ea c13e f282 3e33 a783 9e3e c944 093a
00000020: dd69 2239 f93c 0f3c 1c18 ce3b 0000 0000
00000030: 546c 423b 0000 0000 791b da3c 87e8 a637
00000040: 41d1 b23d b0da 123f c0e4 0e3b 4198 953c
00000050: c1ae 963e 2180 783e 678d 203e da0f b73d
00000060: af43 8239 3281 bd3e 585e 923d c2d3 813c
00000070: 305c d43d 3903 8d3e 117d ba3e 0b8c 643c
1.0285447 0.5458144 0.00045512978 0.019256884 0.37874103 4.4356916e-08 0.30959818 0.0005236385
0.00015488961 0.008742564 0.006289495 0.0 0.002966662 0.0 0.026624428 1.9897021e-05
0.08731318 0.5736494 0.0021803826 0.018261077 0.29430202 0.24267627 0.1567894 0.0893857
0.0002484596 0.3701263 0.07146901 0.015848044 0.10369146 0.2754152 0.36423543 0.0139494045

cnn.cnn.2.running_var f4 [32]
00000000: 2d2f 413e dda9 c63d 777f 6038 d1ae ab3b
00000010: a0ac 8e3d 39fd 8d30 d67f 943c c9f0 0338
00000020: 5e17 8837 c5d1 a93a b7c5 ee3a 0400 0000
00000030: 0b6b 9539 0400 0000 f8c4 d83b e759 c535
00000040: 82fc a23b cbb6 133d 3aeb fc39 9e1d b03a
00000050: 0dfa 0a3d e94f 823c bd38 993c 39b4 0f3c
00000060: b9d7 9237 933c 443d c22b 873c 5784 763a
00000070: e576 623c 71a7 473c 3af0 303d b56c 3f3a
0.18865652 0.097003676 5.3524473e-05 0.0052393456 0.06966519 1.033107e-09 0.018127363 3.1457083e-05
1.6223345e-05 0.0012956193 0.0018216883 6e-45 0.00028499248 6e-45 0.0066152774 1.4703809e-06
0.004973949 0.036062997 0.00048240443 0.0013436561 0.033929873 0.015907245 0.018703813 0.008770996
1.750501e-05 0.04790933 0.016500358 0.00094038754 0.013822292 0.012185917 0.043197848 0.00073022704

cnn.cnn.3.weight f4 [64, 32, 3, 3]
00000000: f0bc 27bd 0414 0abc 818b 3b3d c3bc fb3c
00000010: 5367 19bd d8c8 39bd 7ab0 1cbd d2bf 6fbd
00000020: 9730 30bd 72f8 54bc d599 2f3d 37f1 463c
00000030: e984 35bd 2bb8 42bd db2d f83c 5195 1dbd
00000040: 768c bebb 6789 fe3c 0cb9 29bd c71c d63b
00000050: a972 8cbc 0b01 26bb cfd4 b5bc efc3 43bd
00000060: 506e 46bd d2f9 e7bc ff12 713d eaa9 d0bc
00000070: f08a 22bd 4af4 443c db25 733c 2044 193d
00000080: 3d95 533d f104 0a3d 6014 4abd 8cb8 243c
00000090: a0b3 123d 6b41 95bb 09b1 07bd bb0b 683d
000000a0: 1306 b7bc 63b4 02bd 91e8 49bd fdfd 903b
000000b0: dbe4 d93c ef29 8b3c 8c76 903c 7e8a 1ebd
000000c0: 809c 4fbd 8ec0 7fbb f914 593d 0063 173d
000000d0: 6544 efbc acfb 26bb 1e98 28bd 465c c3bc
000000e0: 50cb 923c 23f3 ec3c 89cb 433d 4aa4 62bd
000000f0: 18be 273d ab7b 24bd 0755 c23c 2289 293d
00000100: 21ad b8bb 8d0a 3b3d 579c 14bd b114 adbc
00000110: 5dc1 313d 43f1 9c3b 7baf 17bc 15b2 9fbc
00000120: 348b 2e3d 254b a83c 709e 7b3c 893c 35bd
00000130: c19a 6cbd 2ab4 823c 0c88 473c a369 04bd
00000140: 77ad 27bc af34 1f3d 0aed 6e3c 09e4 1abb
00000150: 928a 60bc 50a4 5fbd 622f 6abd bf51 a6bc
00000160: 5ade 18bd 20dd da3c f406 9fbc c939 eebc
00000170: 40f1 6e3d 87f5 8b3c 8cff f03c 1625 b2bc
00000180: 7528 02bd fe50 bc3c 8454 1abd 70da 2cbd
00000190: 88b4 d2bb a3eb cdbc 5259 40bd d6e8 033d
000001a0: 54d6 363d 81ef dd3b 681d 55bc b9d1 6abd
000001b0: 7ffb ebbc 409c 3e3c d5c8 ca3c 515f 06bc
000001c0: 2855 22bc f79b d43c 85c5 2ebd b029 0f3d
000001d0: 0a12 10bd 1251 9ebb 1cf9 9abc 6932 07b9
000001e0: dd1f b9bc 6747 153d 57fa 01bc e3c7 283d
000001f0: 9fd7 4d3d cbce 0fbd 5b11 13bd 2ad7 3b3d
00000200: 05e5 313d f4e7 1dbd 0839 06bc 7a3a 5ebd
00000210: e228 2fbd 7d88 843c e474 9a3c b19d 823c
00000220: a8f7 76bc 5143 733d 248c bb3c d7a5 01bd
00000230: 214c 4b3b 9ff3 883c 233c c13c cb43 19bd
00000240: 8801 b53c 14ff dfbc 6cb7 29bd bf57 06bd
00000250: 86cc 6a3d 9421 4e3d b170 553d 0fd8 243d
00000260: 187f 343d 867c dcbb 828e e8bc fa23 053d
00000270: b248 ddbc bc42 2dbd be09 83bc 9c9a d43c
00000280: 19f1 f93c f279 9bbc 2343 28bd 1c5c 163c
00000290: 0524 25bd 92f6 04bd 3324 0c3d f3a5 8cbb
000002a0: 3a54 5d3d 6c26 823d 75a7 873c 137c 8c3c
000002b0: 44e7 443c fe96 4eba 39c1 c6ba 8629 06bb
000002c0: bc5b b53c 80ad 903d 55f7 8abc 74cb babc
000002d0: 02f5 39bc 9671 d2bc 3fd6 663c 531a 283d
000002e0: fbdc 3d3d 3767 d03c ce19 32bd fcf0 ecbc
000002f0: a97b 39bc 5fd2 10bc fdfd 053c 2928 40bd
00000300: b0d0 933c acd5 3cbd 3a8f 14bd 7630 3dbd
00000310: 96a2 593d 7e65 5dbd bb2c 3c3d b49a 6ebb
00000320: ba1f f339 3249 0b3d 982b 03bc 6499 123d
00000330: 2d1b 3e3d f9a3 53bd 0260 c83c 1b6d 1c3c
00000340: 1bea 2d3c 3773 683b 04b2 9e3c 948c c4bc
00000350: 4a52 24bc 692c 823d 4c45 113d bf50 6cbb
00000360: 5311 83bd 0c70 793b 4a8d 37bd 44ad 4e3d
00000370: a74e ebbc b26a 0cbc 450e 6fbc 9d3b a33c
00000380: 6a49 573d 128e 5a39 08ea 0d3d b0a9 303d
00000390: b771 393d cacf b9bc b482 60bc d3ce f73c
000003a0: 2c46 67bc 3a8f ee3c 7ca1 72bc 70c0 2fbd
000003b0: 5f9a aa3c 1ac9 243c 56db cd3c 82e7 6b3d
000003c0: 021b 0e3d 6f0f 5b3d 40e8 513b d1e9 4bbd
000003d0: a134 33bd 7e77 21bd f221 5bbd dcb1 f9bc
000003e0: 6664 72bd 6759 70bd 5499 1abd 17a9 7abd
000003f0: d747 27bd 9feb 6c3c f330 313d 4084 86bc
-0.04095167 -0.008427624 0.04578734 0.030729657 -0.037452053 -0.045357555 -0.03825424 -0.058532543
-0.04301509 -0.012998687 0.042871315 0.012142471 -0.044316206 -0.047538918 0.030295303 -0.038472477
-0.005815084 0.031071378 -0.04143624 0.0065341922 -0.017144518 -0.0025330212 -0.022196202 -0.04779428
-0.048445046 -0.028317366 0.058856007 -0.025471646 -0.039683282 0.012021134 0.014840568 0.037418485
0.051655997 0.03369612 -0.049335837 0.010053765 0.035815835 -0.0045549176 -0.03312782 0.056651812
-0.022341764 -0.03191031 -0.04929406 0.004424809 0.026598385 0.016987769 0.017634653 -0.038706295
-0.05068636 -0.0039024684 0.052998517 0.036959648 -0.029207418 -0.0025479598 -0.041160695 -0.02384771
0.017919213 0.02892453 0.047801528 -0.05533246 0.040952772 -0.040157 0.023722185 0.041390546
-0.005635873 0.04566436 -0.03628191 -0.02112803 0.043397296 0.004789503 -0.009258146 -0.019494096
0.042613223 0.020543644 0.015357599 -0.044247184 -0.057764772 0.01595505 0.012178432 -0.032327306
-0.010234228 0.038868602 0.014582882 -0.0023634455 -0.013704913 -0.05460006 -0.057174094 -0.020302651
-0.037321426 0.026716769 -0.019412495 -0.029080288 0.058335543 0.01708485 0.02941873 -0.0217462
-0.031776864 0.022987839 -0.037678257 -0.042200506 -0.0064302124 -0.025136774 -0.046960182 0.03220447
0.044637993 0.006772936 -0.013007499 -0.057328913 -0.028806446 0.011633933 0.024753967 -0.008201436
-0.009907998 0.025953276 -0.042668838 0.034951866 -0.035173453 -0.0048314417 -0.018917613 -0.00012893383
-0.022598201 0.036445048 -0.007933221 0.04120625 0.05025446 -0.035109323 -0.035905223 0.045859493
0.0434313 -0.038551286 -0.008192308 -0.054254986 -0.0427636 0.016178364 0.018854566 0.015944334
-0.015073694 0.05939037 0.022893973 -0.031652298 0.0031020718 0.01671773 0.023588246 -0.037418168
0.022095457 -0.02734331 -0.04143469 -0.032798525 0.057323955 0.05032499 0.052109424 0.040245112
0.04406652 -0.0067287115 -0.028388266 0.032505013 -0.027012203 -0.04229997 -0.015995856 0.02595263
0.030510472 -0.018979046 -0.04107965 0.009177234 -0.040317554 -0.03246171 0.03421421 -0.0042922436
0.054035403 0.06354985 0.016559342 0.017149007 0.012018029 -0.0007880776 -0.0015163786 -0.0020471527
0.022138469 0.070643425 -0.01696364 -0.022802092 -0.011349918 -0.025688928 0.014089166 0.04104073
0.04635332 0.025439842 -0.04348164 -0.028923504 -0.011320987 -0.008839219 0.008178231 -0.0469133
0.018043846 -0.04610221 -0.036269404 -0.046188794 0.05313357 -0.05405187 0.045941096 -0.0036408128
0.0004637221 0.03400535 -0.008005999 0.035790816 0.046412636 -0.05167005 0.024459843 0.009547497
0.010614897 0.0035469064 0.019371994 -0.023992814 -0.010029385 0.06356127 0.035466477 -0.003605887
-0.06399789 0.003806117 -0.044812478 0.050458208 -0.028724028 -0.00857036 -0.014590804 0.019925887
0.052560247 0.00020843025 0.034647018 0.043130577 0.045274463 -0.02268209 -0.013703037 0.030249989
-0.014115851 0.02912103 -0.014809009 -0.042908132 0.020825563 0.010057712 0.025129002 0.05759383
0.034693725 0.053481515 0.00320293 -0.04978353 -0.043751363 -0.039420597 -0.05349917 -0.030480318
-0.05917778 -0.05867901 -0.03774388 -0.061196413 -0.040839996 0.014460473 0.043259572 -0.016420484

cnn.cnn.3.bias f4 [64]
00000000: 6960 82bd 7360 58bc cc38 0a3d 4a71 33bd
00000010: 1c0f c9bc 1d8e acba 1287 cbbc c3ef c33a
00000020: 6fab 7dbd a7d1 303c d341 3f3d f25b 803a
00000030: 8aa1 633d 7694 75bd 1263 05bd 248b 79bc
00000040: be31 273d 6c3c 6ebd 6767 f8bb 5f22 81bd
00000050: 6c02 42bb 0ad0 7bbd 77a7 67bd ba9b 29bd
00000060: c343 f0bc d737 043d 0f66 bd3b 8838 75bd
00000070: 928e 563d 05a2 23bc 42d7 623c 18f9 0bbd
00000080: df6d 09bd cc23 4ebd b025 3abd 433b 13bd
00000090: ea76 ea3c 5215 c2bc ef0f 56bd 82e1 6e3c
000000a0: 8fcc d1bc 60ca 28bd 69b4 1e3d 2e44 6bbd
000000b0: 0da7 66bd 77ff cf3c 8bf5 093d 731b 08bd
000000c0: e0de 1d3d 7e28 29bd 77aa 04bd 543d 61bc
000000d0: 304d bbbc 4b33 ff3c be68 77bd 5db6 393d
000000e0: 3cca fa3c e418 fcbc fd6c 0fbd c882 063c
000000f0: 9e1b e9bb f4d3 58bd b8ab 223d f9b3 3a3d
-0.06366045 -0.013206589 0.033745572 -0.043809213 -0.024543338 -0.0013164912 -0.02484468 0.0014948774
-0.06193107 0.0107921725 0.046693634 0.0009793027 0.055573978 -0.059956037 -0.032565184 -0.015230928
0.040818922 -0.05816309 -0.007580686 -0.06305384 -0.0029603494 -0.0614777 -0.05655619 -0.041408278
-0.029329186 0.032279816 0.0057799886 -0.059868366 0.05238206 -0.009987359 0.013845267 -0.0341731
-0.033552047 -0.050327107 -0.045446098 -0.03594519 0.028621156 -0.023691807 -0.05226129 0.014580132
-0.025610236 -0.041208625 0.03874627 -0.057438068 -0.056311656 0.02539037 0.033681434 -0.033229303
0.03854263 -0.041298382 -0.03238913 -0.013747532 -0.022863954 0.031152388 -0.060402624 0.04533993
0.030614011 -0.030773588 -0.03501605 0.008209892 -0.007113888 -0.05293651 0.039714545 0.04558179

cnn.cnn.5.weight f4 [64]
00000000: 19bb 803f 33a2 803f 7ee4 803f 5f8c 813f
00000010: bf3b 813f cc98 803f 95df 803f 8d85 813f
00000020: 42fd 803f 6cec 813f 652e 813f 692f 813f
00000030: 1485 803f 03a9 813f 8d87 813f ff2f 823f
00000040: 67e6 803f 818a 813f 428b 813f e13d 813f
00000050: a45d 813f a274 803f f175 803f 383b 823f
00000060: 62e0 813f 4c05 813f 6b5f 813f 2648 813f
00000070: 661a 813f 4ad4 803f 6b35 803f 3f64 803f
00000080: 2c12 813f ca66 823f ff6d 803f 1a06 813f
00000090: 3467 823f 6fbe 813f e176 813f 9703 813f
000000a0: 619d 813f 0dd7 803f bb4b 813f f53d 813f
000000b0: 364b 803f 1a12 813f 2c65 813f 6dbe 803f
000000c0: d203 813f 64bc 7f3f 9b47 813f 37c8 803f
000000d0: 31fe 7f3f 79c4 813f 4b4e 813f 6fee 803f
000000e0: f20f 813f 45c9 813f b712 813f 6823 813f
000000f0: 92ef 803f dba0 803f 9ad7 803f fc95 813f
1.0057098 1.0049499 1.006973 1.0120963 1.0096358 1.004663 1.0068232 1.0118881
1.0077288 1.0150275 1.0092283 1.0092593 1.0040612 1.0129703 1.0119492 1.0170897
1.0070313 1.0120393 1.0120623 1.0097009 1.0106702 1.0035594 1.0035993 1.0174322
1.0146601 1.0079741 1.0107244 1.0100143 1.0086181 1.0064785 1.0016302 1.0030593
1.0083671 1.0187619 1.0033568 1.0079987 1.0187745 1.0136241 1.0114404 1.007922
1.0126153 1.0065628 1.0101236 1.0097033 1.0022953 1.0083649 1.0109 1.0058113
1.0079291 0.99896836 1.0099977 1.0061101 0.9999724 1.0138084 1.0102018 1.0072764
1.0082991 1.0139548 1.0083836 1.008893 1.0073111 1.0049089 1.0065796 1.0123897

cnn.cnn.5.bias f4 [64]
00000000: f264 963a c5de b8b8 0db9 e63a 7797 983a
00000010: 8a2b 393a c06e 403a 4eea f0ba 60f9 3639
00000020: df8b 443b 4e7e aaba 01b6 f03a 4664 b33a
00000030: b012 8ebb 3183 8dbb b4ce b33a f382 bc3a
00000040: 800c 4236 a2d3 38bb f778 49bb bbdf 803a
00000050: dbfd 063a feee cfba 8495 12bb 9a9e 08bb
00000060: 3c5b 9bb9 228e a93a cb2a 39ba 7d98 453b
00000070: 46bd 1aba 74c6 8339 7479 283b b5b2 7db9
00000080: 5ded 0fba 595b c7ba e7a7 33ba fc3a 00bb
00000090: 1da3 1639 175d 503a 2655 17ba 3e00 ae3a
000000a0: 1e16 08bb eef2 b73b 0f4d beba df9a a53a
000000b0: 506e 843a 4441 ce3a 60b8 cdba fecb ccbb
000000c0: 7ab4 8f3a 0492 09ba a2b5 df3a 9adc 18ba
000000d0: ab9d 0c3a d73b 643a a2d5 573a ad7f eb3a
000000e0: 56e4 1e3a bbfb 98bb 84e5 64ba 540b e83a
000000f0: 1894 9c39 a258 053b 9b8e 293a a63e 12ba
0.0011474176 -8.815298e-05 0.0017602757 0.001164182 0.0007063678 0.0007340722 -0.0018380375 0.00017449772
0.0029990596 -0.0013007612 0.0018364788 0.00136865 -0.004335724 -0.0043186177 0.0013718219 0.0014382288
2.8915529e-06 -0.0028202315 -0.0030742267 0.0009832302 0.0005149522 -0.0015864072 -0.002236695 -0.0020846487
-0.0002963188 0.0012936036 -0.00070635666 0.0030150705 -0.0005902838 0.00025134126 0.0025707157 -0.00024194534
-0.0005490387 -0.0015209719 -0.00068533275 -0.0019566407 0.00014365879 0.0007948442 -0.0005772881 0.0013275219
-0.0020765136 0.0056136763 -0.0014518815 0.0012634656 0.0010103676 0.0015736003 -0.0015695207 -0.0062499037
0.001096382 -0.0005247893 0.0017067681 -0.0005831212 0.00053640705 0.00087064266 0.0008233433 0.0017967127
0.00060612464 -0.0046686805 -0.000873171 0.0017703571 0.00029864977 0.0020347019 0.0006468088 -0.00055787934

cnn.cnn.5.running_mean f4 [64]
00000000: 616e 6c3d 8b22 013e a988 403e a88a c23d
00000010: 16b8 1a3d 8e0a f83d ec3a 0a3e 497b 363d
00000020: a5c2 943d 91c4 5d3e de51 e53d 6315 1a3e
00000030: 6211 3e3e fdea 2d3d 88af 133e f445 1c3e
00000040: 58c4 013e 9351 a23d e294 563e b717 ba3d
00000050: e354 253e 6a36 c23d 46b6 033d c05f 263e
00000060: 4bbf 853d ea5f 483e cd3e 333e 5c64 143d
00000070: c066 013e b5e9 093e 69f6 633e cddf 0b3e
00000080: d1f9 213e 0400 653d ceac b13e e736 3a3d
00000090: 97a1 393e 7233 393d 16ac 233d cff3 a83d
000000a0: 13ee a93c 6b29 353e 20be 103e 5f51 013e
000000b0: c8da 883d cca1 0e3e fa43 d13d 86d0 4b3d
000000c0: 571f ef3d 9da3 2f3e d83b a93d 70a5 ee3d
000000d0: 9d45 d63d d2ab ce3d 7b29 033e 29e2 b13d
000000e0: 1795 163e c0e3 c53d c347 723d ca50 2e3e
000000f0: 10c3 0c3e aa36 523e 832e 1d3e 21e3 343e
0.057722453 0.12610833 0.18802132 0.09499103 0.037773214 0.12111388 0.1349904 0.044551168
0.07263688 0.21657015 0.111972556 0.15047221 0.18561319 0.04246043 0.14422429 0.1526106
0.12672555 0.07925715 0.20955232 0.090865545 0.16145663 0.09483035 0.03215625 0.16247463
0.06530627 0.19567838 0.17504425 0.036228523 0.12636852 0.13468058 0.22261967 0.13659592
0.15817954 0.055908218 0.34702152 0.045462515 0.18128048 0.045215078 0.039959036 0.08249628
0.020743405 0.17691581 0.14135027 0.12628697 0.06682354 0.13928908 0.102180436 0.04975941
0.116758995 0.17152257 0.082633674 0.116526484 0.104624964 0.10091366 0.12808792 0.08685715
0.14705311 0.096625805 0.05915047 0.17023006 0.13746285 0.20528665 0.15349774 0.17664768

cnn.cnn.5.running_var f4 [64]
00000000: d045 453d 94b3 8e3d 6b4f 1e3e efa1 2f3d
00000010: 0d02 7d3c 9b1d 8f3d 5ec5 3b3d 7f0d e83c
00000020: e511 843d 47c3 f53c 9453 983c 85de f33c
00000030: 9b19 1b3e b8fc fc3c cf0c 113d 7c11 573d
00000040: 969c d73d 546e 393d 22b7 603d 7161 973d
00000050: 4876 8d3d 0795 8d3d 39b4 c83c 3511 1a3d
00000060: 5d69 813c e5d2 903d 8716 ca3d 5e35 b53c
00000070: d53b 613d fee6 873d 8312 1a3e 443e 933d
00000080: 09cd a23d 53f9 b23c 8b5c 8c3d 247d ef3c
00000090: f314 0e3d 908d 123d 2a31 e93c c4f3 0e3d
000000a0: 84e6 153c 4301 e03d 769b 033d aeb6 943d
000000b0: 9a45 6b3d 82df 9d3d c4b1 153d d56b 363d
000000c0: 40b2 7c3d 8643 bf3d f255 333d 8999 7b3d
000000d0: 499b 133d e8fe e93c 79d7 bc3c 5af3 363d
000000e0: fe5c 513d 56d6 d73c 0f52 2f3d ea03 e43d
000000f0: 50a6 833d a4a0 173e 4b76 343d def7 043d
0.04816228 0.069678456 0.15459983 0.04287904 0.0154423835 0.06988069 0.04584252 0.028326748
0.064487256 0.030000342 0.01859454 0.029769192 0.15146486 0.030882224 0.035412606 0.05250691
0.10527913 0.045271233 0.05486215 0.07391632 0.06907326 0.0691319 0.0245 0.037614066
0.015797311 0.07071475 0.09867578 0.022120174 0.0549887 0.06635855 0.15046124 0.071896106
0.079492636 0.021847403 0.06853589 0.029234476 0.034687947 0.035779536 0.028465826 0.03490044
0.0091491975 0.10937741 0.03213068 0.07261406 0.057439424 0.07708646 0.036546484 0.04453643
0.06169343 0.09339051 0.043783136 0.06142572 0.036036763 0.028563932 0.023051964 0.044665672
0.051114075 0.02634732 0.042802867 0.11133559 0.06428206 0.14807373 0.044058125 0.032462947

cnn.cnn.6.weight f4 [64, 64, 3, 3]
00000000: cf75 153d ce06 cd3c b594 cfbc 6152 99bc
00000010: 4fa4 88bc 5663 453c c562 c83c c99f 31bb
00000020: cf9f 1dbd cfe8 b2bc 5a2c aabc c65b d6bc
00000030: 98be af3c c194 833b 856c dcbc c135 ddbc
00000040: 960c febc eb94 e6bc b3c2 823c 91fa dabc
00000050: 541a 03bd 748a 263c e004 5bbb 22af 05bd
00000060: 5f79 6e3c 54a1 a43b 928c f73b 410c b93c
00000070: f8be 89bc c380 0fbd b814 0d3d 2c0f 3c3d
00000080: 4873 4d3d 7ddc bc3c 061e 0e3d 6c7e 5a3c
00000090: e58b 12bd 9ca2 043c 6495 0bbd f4a5 26bd
000000a0: b0ee 573c aa95 bcbc 8495 d5bc 211c 253d
000000b0: 5fb9 4e3c 114e 963c f196 25bc 9391 913c
000000c0: 1d9e 423b 7460 4fba 1bdb 7ebb 1cd9 193d
000000d0: 6dc6 e8bc 8d5a 99bc 4f9b 023d 42d6 a53a
000000e0: d403 d53c 8fc8 82bc 21be 023d 7c28 debc
000000f0: 1f7c b3bc 3c4a 1ebd 22b2 fdbc 8dad ea3c
00000100: eb1c fe3c b091 d43c b2b7 ad3c 75e1 173d
00000110: 5778 073d 4d84 e33c c447 c7bc 7ce6 f43c
00000120: 85cc f13c 4ea3 883c e3b5 f0ba a9c0 253d
00000130: 5009 0eba 0416 13bd e860 6abc d715 d0ba
00000140: fc04 b13c 90dd a83c 1776 893c a733 393d
00000150: 1c11 eb3c 3d90 a2bc 8a7a 22bc 2cc7 40bc
00000160: e274 4dbb c9a7 11bd cbfa 86bc 75da 023d
00000170: af4c febc e482 153b 7ed8 c93b 4621 46bc
00000180: ad0f b2bc d17d cfbc 4123 23bd 9f30 4ebd
00000190: 6996 b03c 3f29 8f39 688c 9bbb f3dd 0bbc
000001a0: 2165 33bd 540c 6cbb 27b7 1ebd 30cd b83c
000001b0: dc91 34bc 4f5e 2fbc 91b4 8f3c 1a52 f4bc
000001c0: 7ea8 cfbc ac0f a5bc e5f0 2abc f93f e0bc
000001d0: a0c6 2cbd c3d0 943c 0f92 953c a9b9 bcbc
000001e0: 73cd e6bc 5a23 013d b4ed c0bc 8536 d3bc
000001f0: 73b0 efbc 3824 d53b 58ff 1a3c 1549 1d3d
00000200: e77f 52bc ad8a 0bbd 38fd 183d 8ec0 003d
00000210: ec66 2ebd 25a2 30bd 7427 a03c df31 64bc
00000220: 2099 1a3c 9c87 8dbb bceb 49bb d15a 223d
00000230: 06dd a63c 9727 ab3c 53ff 0fbd d6ce 74bc
00000240: 9791 ae3c ddee d23c 2a3d 0e3c aa88 27bd
00000250: a493 a1bc ded4 323d 10a2 083d f72b c63c
00000260: 24e6 c2bc 0baa 5dbc 96a8 a33c 3d4a d6bc
00000270: b7bc e03b b409 cd3c 0a2a e73c c324 d43c
00000280: 5941 863b a735 f53c 6dd6 43bd a147 c8bc
00000290: c82e 59bc da29 a03c 83e5 50bd 363f cb3c
000002a0: 8366 d8bc 9264 cabc 7d07 fe3c aba2 3c3d
000002b0: eaed 7b3c 6320 e1bb ef46 f43c 11d8 2a3b
000002c0: dc4a df3c ed22 893c ca14 64bb 156b 1b3d
000002d0: 1304 ae3c 0591 2b3d 8630 1f3d ed9d 833c
000002e0: 901a 25bc 9c38 c2bb 0ad3 88bb 2f26 7dbc
000002f0: 9253 693b a019 303d d11a df3c 6967 823c
00000300: a3e6 dd3c 3909 a7bc 91d6 a23c 167b 163d
00000310: 0e46 553c 3e5c 2d3a c43d 0b3d d057 06bd
00000320: 4c2a 063d b385 a2bb 9c83 14bd 5d83 ce3c
00000330: ccae 88bb 0548 5bbc 79db 85bc 823e 14bc
00000340: 0441 f3bb a6b1 0ebd 197f 873c 8cb5 173c
00000350: b576 ae3c beca 193d bf54 73bc ee47 d5bc
00000360: a402 b6bc 1ece dcba 21cd 3c3b b561 c13c
00000370: 9fbd a53c 5155 b03c 3e8d c5bc c728 2abd
00000380: e492 8ebb b6c8 fa3b de3d bcbc 26ee 64bc
00000390: 8a1c c7bb 3900 1dbd b096 1b3d 7979 c93c
000003a0: f987 0abd 786f 1dbd b96c 283d e342 2e3d
000003b0: 3a47 ebbc 604f 4e3c 3d24 99bc 601a c8bc
000003c0: d30f 04bd 9e7e 9d3a fab3 183d bf23 c13c
000003d0: c4fa efbc f3d1 003d 577e 193d cff2 103d
000003e0: da9e 2e3d c0f8 cfbc 3dea 9dbc 566a e33c
000003f0: cb65 02bd 9bdb 32bc 96d6 f63c 2948 2c3c
0.036489304 0.025027659 -0.025339464 -0.01871604 -0.016679911 0.012047609 0.02446116 -0.0027103296
-0.038482483 -0.021839527 -0.020773102 -0.026166808 0.021453187 0.0040155356 -0.026907215 -0.02700317
-0.03101186 -0.028147181 0.01596198 -0.026730807 -0.03200753 0.010164846 -0.0033419654 -0.032637723
0.014555304 0.0050241146 0.007554599 0.02258885 -0.016814694 -0.035034906 0.034443587 0.045912907
0.05015877 0.023054356 0.0346966 0.013335805 -0.035777945 0.00809541 -0.034078017 -0.04068561
0.013179466 -0.023020584 -0.026072271 0.04031003 0.012617438 0.018347772 -0.010106788 0.01776961
0.0029696294 -0.0007910796 -0.0038887921 0.037560567 -0.02841493 -0.018719936 0.031886395 0.0012652355
0.026002802 -0.015964774 0.031919602 -0.027118914 -0.021909771 -0.038645014 -0.03096873 0.028647209
0.031019649 0.025948375 0.021205757 0.037080247 0.03307375 0.027773047 -0.024326213 0.02989506
0.029516468 0.016679432 -0.0018364753 0.04046694 -0.0005418258 -0.035909668 -0.014305331 -0.0015875649
0.021608822 0.020613462 0.016779942 0.045215275 0.028694682 -0.019844169 -0.009916911 -0.011766236
-0.0031350185 -0.035560403 -0.01647701 0.031946618 -0.031042425 0.0022813613 0.006159841 -0.012092894
-0.02173599 -0.025328549 -0.039828543 -0.050339337 0.021556096 0.00027305816 -0.0047469623 -0.008536804
-0.043797616 -0.003601809 -0.038748886 0.022558779 -0.011021104 -0.010703637 0.017542155 -0.029824305
-0.025348898 -0.020149074 -0.01043341 -0.027374255 -0.04218161 0.018165952 0.018258123 -0.023037748
-0.028174138 0.031527855 -0.023550846 -0.025782833 -0.029258942 0.0065045618 0.009460293 0.038399775
-0.012847877 -0.0340678 0.037350863 0.031433634 -0.042578623 -0.043123383 0.019550063 -0.013927906
0.009435922 -0.0043191444 -0.0030810675 0.03963739 0.020369064 0.020892901 -0.035155606 -0.014941892
0.021309657 0.025748665 0.008681575 -0.040901817 -0.01972372 0.043660037 0.03335768 0.024190886
-0.02379138 -0.013529311 0.019977849 -0.026158446 0.006858434 0.02502904 0.028218288 0.025896436
0.0040971455 0.02993281 -0.047811914 -0.024448218 -0.013255782 0.019551206 -0.05100013 0.024810415
-0.026416069 -0.024706159 0.03100943 0.04605357 0.015376547 -0.006870316 0.02981898 0.0026068727
0.027257375 0.016740287 -0.003480243 0.03794392 0.021242177 0.04188635 0.038864635 0.016066516
-0.010077134 -0.0059271585 -0.0041755484 -0.015450998 0.003560279 0.042993188 0.027234467 0.01591845
0.027087515 -0.02039014 0.019877704 0.036738478 0.013017191 0.00066131714 0.03399445 -0.03279859
0.03275518 -0.004959786 -0.036258325 0.025209123 -0.004171228 -0.01338387 -0.016340004 -0.009048106
-0.007423522 -0.034837388 0.016540097 0.009259593 0.021296838 0.037546866 -0.014851748 -0.026035275
-0.022218056 -0.0016846096 0.002880879 0.02360616 0.02023202 0.021525057 -0.024115201 -0.041542795
-0.004351007 0.007653321 -0.02297872 -0.013972795 -0.0060764 -0.03833029 0.037985504 0.024594055
-0.03382108 -0.038436383 0.04111931 0.042544257 -0.028720487 0.012592167 -0.018694038 -0.02442664
-0.032241654 0.0012015884 0.037281014 0.023576615 -0.029294379 0.031450223 0.037474003 0.03538781
0.04263196 -0.025387168 -0.019276733 0.027760666 -0.03183536 -0.010916616 0.03013162 0.010515251

cnn.cnn.6.bias f4 [64]
00000000: b6ce 02bd df1a 63bc ecb2 dfbc 1f76 3f3c
00000010: 4c99 243c d0a1 07bc 78e7 9d3c 135a 453b
00000020: 4f11 203d ac97 073c 398d f53c c7fb de3c
00000030: c4ac b236 a23f a73c 45b3 373c 7447 53bc
00000040: 6bc2 ab3c c5ff b43c 939c c0bc be83 c1bc
00000050: 7dfd e3bc ed3e cebc a2a6 babc 6e64 eebc
00000060: 4e8e f13c 6bfa f9bc c6cd fcbc cbdf edbc
00000070: d536 d7bb 5fda 223d 5c70 9239 6ba8 17bd
00000080: eba3 24bc c966 da3b 99c8 053d c4f6 7a3b
00000090: 9354 3a3d c40e f33b d317 0b3d e9fa d7bc
000000a0: 0238 b6bb 704c 6f3b 4024 273d 8c8c 81bc
000000b0: 650d 2d3c 578b 0ebd a16c 87bc 1f43 51bc
000000c0: a819 2ebc 3692 8bba 3b45 523c 472d 193d
000000d0: c471 b33c fbc8 16bc 7d1d 853c 2fc3 fabc
000000e0: a244 26bc 67d6 dd3c c256 133d 2e02 6fba
000000f0: 9d1d f13c 4d03 a1bc da29 f73c a903 ffbb
-0.031935416 -0.013861387 -0.027306996 0.011685877 0.010046314 -0.008278325 0.019275412 0.0030113503
0.039079007 0.0082759075 0.029974567 0.027219666 5.324926e-06 0.020416085 0.011212175 -0.012895454
0.02096673 0.022094617 -0.02351216 -0.02362239 -0.027830834 -0.02517649 -0.022784535 -0.029100623
0.029486801 -0.030514916 -0.03085984 -0.029037377 -0.006567816 0.039759036 0.00027931004 -0.03702585
-0.010048847 0.006665085 0.032662008 0.0038294056 0.045490813 0.0074175317 0.033958267 -0.02636476
-0.005560876 0.0036514066 0.040806055 -0.015814088 0.010562276 -0.034800854 -0.01653129 -0.012772351
-0.010626234 -0.0010648433 0.012833889 0.037396695 0.021904834 -0.009203191 0.016249413 -0.030610649
-0.010148199 0.027079774 0.03597141 -0.0009117451 0.029433066 -0.019654894 0.030171324 -0.0077824187

cnn.linear.0.weight f4 [64, 1152]
00000000: 90f5 99bc 0d52 81bc fb13 25bb da44 c33c
00000010: 8cee fa3b 36f2 60bc b1ed 2fbc bf52 85bc
00000020: 97e2 ba3c d0af c2bc e4ca ca3b e427 18bc
00000030: 7989 923c 54d0 86b9 2e89 52bc dbf0 943b
00000040: e597 cb3c bab5 23bc eccb b33c b873 91bc
00000050: 15b1 e13c 8c4e 0d3c ee60 72bc d395 27bc
00000060: 4d4a c63c 92f1 8bbb 4a5f ec3c bd69 c2bc
00000070: e590 533c 71bc a6bc 4cef 9cbc cc21 d63b
00000080: db2b 393c 0599 51bc cf30 9e3c 586a 7dbc
00000090: 461e 27bc 3cd0 4bbc 4cd2 45bc 2c50 cdbc
000000a0: 36f0 80bc 2d02 4cbc 64a0 eabc 1829 aabc
000000b0: b438 853c a3fc cb3b 1c30 353c d6d3 113b
000000c0: 0b79 793c 6f14 ea3a f5fe 123c 0e56 4bbc
000000d0: b140 bbbb 8fc5 843c 2aaf b8bc 812f 0d3c
000000e0: d800 7dbb 0ef3 dcbc 8fac acbc 34bf 6b3c
000000f0: 0034 05bc 3c73 cc3c 5eb3 bdbc 2b18 d3bb
00000100: 5013 cfbc 2984 ecbb c61a b5bc 1952 4d3b
00000110: a54c 80bc 52c9 d63c 171d 55bc b501 a4bc
00000120: 3546 d6bb 7fea b03c d2ae c03c b9a0 e8bc
00000130: 3e5f cdbc cbb4 17bc 3d6f 11bc 0ec0 a9bc
00000140: 41ff b6bb dafe 8f3c d504 313b 11ee 413c
00000150: bbc9 9b3b 60f6 64bc 0bc9 223b e7af 143c
00000160: c354 5d3c 6946 c33c d30f 40bc 9d4d edbb
00000170: 6a73 d43c 5cbd 753c 4393 cdbc 311c dbbc
00000180: ca8d 44bc 2427 a73c 4107 73bc 94d2 95bc
00000190: 9579 383c 3c17 1dbc 77fb 6c3c ea0c 86bb
000001a0: 9b02 b03c 9c5f d0ba 276c 52bc a8c5 11bc
000001b0: 70d9 193c 5d4c b3bc ec4b b93c eb3c 073c
000001c0: 4eff adbc a44d aabc 4a05 e1bc 8e35 ea3b
000001d0: a553 3939 f846 b23b fc87 d13c 8872 923c
000001e0: 6439 a4bb 229b cdbc 3475 c3ba 2923 cbbb
000001f0: 2149 9e3c a46c c2bc 930b 593b ccdf 09bc
00000200: a591 4cbc 8e4b 59bc 77b4 233c a37c 34bb
00000210: c6c6 083c 37f9 d8bc 6143 0cbc acaf bdbc
00000220: c42b b33c 494f a2bb 2003 bc3c 2854 b7bc
00000230: 2ca9 dd3b eedd ccbb fd83 e1bc 7885 603c
00000240: 6d85 f2bc 82fb 80bc 64ab d33b d1b7 8ebc
00000250: 4fae d6bc 8ce9 c7bc a82e e43a c7f9 bd3c
00000260: c307 9abc b994 bf3c d5d6 c3bc d2b0 843c
00000270: f31d 9f3c c7e9 b13b dc65 793c 9dcf 813c
00000280: 02ad e0bb 45fe babc 6cab 68bc a3b2 4c3a
00000290: ecbf 953c cf7f cbbc ea56 c3ba 957d dcbc
000002a0: 74d6 463b c762 0e3b c944 59ba cf86 ad3b
000002b0: 28f5 983c 58fc 5bbc 5373 c3bc 1ac3 bbbc
000002c0: f385 dcbc a4b7 48bc b0c6 ce3c aae2 d93c
000002d0: c68f bdbc 4e87 e4bb 141c 94bc 54d4 0d3b
000002e0: 233d b73b 564e a83c 0e73 be3c 3556 c2bc
000002f0: 5d01 803c 4617 263b 8b5d dbba 7e4d e33b
00000300: 99a4 a539 3c69 d83c 8a50 933c 26df 8c3c
00000310: 441a 1fbc ace2 7bbc c90b f83a 6260 be3c
00000320: bec5 753c d188 813c 9ae6 db3c 655d e7b9
00000330: 269e 813c ec54 12bc 0dda 863c 69f7 d63c
00000340: 91f7 8d3c dfc3 3ebc 568e a93a 400a e23c
00000350: 36cb 21bc 39b4 d0bc 39c7 393c a0ae 32bb
00000360: 05b3 043c f75b 993c 7e62 9bbb e81c 4f3c
00000370: 6a22 2b3c 10ac 433c 5b00 cf3c 5d76 d3bb
00000380: 7d49 a4bc e80f 223a 4fa5 7dbc e5b1 afbc
00000390: c783 d13c ec4a c73c 3623 e3bb 3887 eebc
000003a0: 09ee e33c 0784 95b9 1b85 f43a 654c 59ba
000003b0: f7a3 223c 3198 b2bb 13fb 5ebc c80b cebc
000003c0: af1b 0bbc 6ba0 b63c e8ab 373c 645c dc3a
000003d0: ebe7 5f3a 54c2 313c b1fe 5ebc 9de5 e5bc
000003e0: 778f 8dbb 1c36 023c 72be cdbb 34cf 1cbc
000003f0: 9f65 8d3c 9097 253b 747b babc 1c3d 563c
-0.018793851 -0.015786195 -0.0025188911 0.023836542 0.0076578315 -0.013729623 -0.010737822 -0.016274808
0.022813125 -0.023765475 0.006188737 -0.009286854 0.017887818 -0.00025713688 -0.012850089 0.004545314
0.024852702 -0.009992057 0.021947823 -0.017755374 0.02755026 0.008624684 -0.014793618 -0.010228592
0.024205351 -0.004270741 0.028854031 -0.02373206 0.0129129635 -0.020353528 -0.019157074 0.0065347906
0.01130196 -0.01279283 0.019310383 -0.015467249 -0.010200089 -0.012439784 -0.012074064 -0.025062643
-0.015739542 -0.012451691 -0.028640933 -0.020771548 0.01626239 0.006225185 0.011058833 0.0022251508
0.015226613 0.0017858873 0.008971919 -0.012410654 -0.005714499 0.016207485 -0.022544462 0.008617283
-0.003860524 -0.026971366 -0.021078376 0.014388848 -0.008130074 0.024957292 -0.023156818 -0.00644209
-0.025277764 -0.007217903 -0.022107493 0.0031329452 -0.015661547 0.026219044 -0.013007424 -0.020020345
-0.006539131 0.021596191 0.02352086 -0.028396951 -0.02506983 -0.009259413 -0.008876619 -0.020721462
-0.005584628 0.017577577 0.0027010937 0.011836545 0.0047542728 -0.013974756 0.002483907 0.0090751415
0.013508978 0.023837285 -0.011722523 -0.0072419182 0.02593394 0.01499876 -0.025094634 -0.026746841
-0.011996696 0.020404406 -0.014833272 -0.018288888 0.011259456 -0.009588059 0.014464251 -0.004090895
0.021485617 -0.0015897634 -0.012843168 -0.008897223 0.00939022 -0.021886999 0.02261921 0.00825427
-0.021239903 -0.020788975 -0.027468342 0.0071474975 0.00017674135 0.005440589 0.025577538 0.017876878
-0.0050117243 -0.025098387 -0.0014912249 -0.00619926 0.01932198 -0.023733445 0.003311847 -0.008415174
-0.012485896 -0.013262643 0.009991757 -0.002754011 0.0083481725 -0.026486022 -0.008560986 -0.023155056
0.021871455 -0.004953299 0.022950709 -0.022378996 0.0067645516 -0.006252042 -0.027528757 0.013703696
-0.029604638 -0.015744928 0.0064596403 -0.017421635 -0.026206164 -0.024403356 0.0017408924 0.023190392
-0.01880253 0.023386346 -0.02390615 0.016197596 0.01942346 0.0054294798 0.015222039 0.015846068
-0.0068565616 -0.022826323 -0.014201026 0.00078086014 0.018279992 -0.024841217 -0.0014903222 -0.02691535
0.0030340226 0.0021726356 -0.0008288143 0.0052956115 0.018671587 -0.013426863 -0.023858702 -0.02292018
-0.02691934 -0.012250815 0.025241226 0.02659734 -0.023139846 -0.0069741374 -0.018079795 0.002164145
0.005592005 0.020545166 0.023248222 -0.023722747 0.01562565 0.0025343462 -0.0016736252 0.006936728
0.00031593887 0.026417367 0.01798274 0.01719625 -0.009710852 -0.015373867 0.0018924411 0.023239318
0.015000759 0.01581231 0.026843358 -0.00044129338 0.015822481 -0.00893138 0.016461397 0.026241021
0.017329963 -0.011643379 0.0012936096 0.027592778 -0.009875109 -0.025476562 0.011339002 -0.002726473
0.008099322 0.01872061 -0.004741966 0.012641169 0.010445217 0.011942878 0.025268724 -0.006453319
-0.020054573 0.000618218 -0.015481307 -0.021447131 0.025575532 0.024327718 -0.0069316877 -0.029117212
0.027823465 -0.00028517863 0.0018655391 -0.0008289277 0.009926788 -0.0054502715 -0.013609665 -0.025152102
-0.008490487 0.02229329 0.011210419 0.0016812203 0.00085413334 0.010849554 -0.013610528 -0.02806359
-0.004320081 0.007947471 -0.0062788064 -0.009570885 0.01726037 0.002526734 -0.022763945 0.013076093

cnn.linear.0.bias f4 [64]
00000000: aff1 1fba 9b32 47bc 193a 873c 1638 3dbc
00000010: 385e 2abc a9ab d5bb b6ea ae3c 740e e3bc
00000020: 6dc1 d73b 4b71 1bbc d9cf b93b 728f b5bc
00000030: 86d6 d3bc 5aaf dc3b d9ef 9ebc d8d1 e2bc
00000040: e9b7 7a3c dd36 cc3c 81d6 b13b e3a5 043c
00000050: 2470 96bc 2af1 2d3c ded8 c63a f1a3 8ebb
00000060: 8ee5 be3c 7515 4e3c ab51 77bc 1d9b b5ba
00000070: 2ad4 ab3c d77d c93b 13a8 97bb 743c ddbc
00000080: 6a5a f5ba 648a ee3c 5190 e03c 110f 483c
00000090: da93 cebc 0539 8ebc 9ccb 8f3c 5f73 bcbb
000000a0: 5060 d53c 5617 90bc 8c07 adbb 85e4 04ba
000000b0: 878b 88bc b0ba 44bb a035 cf3a 23da bbbc
000000c0: a281 ed3c 3c0e 853c 0f8d 8f3c cdf0 edba
000000d0: e8aa fabb bb78 edbc 88c7 0c3b 86a5 a33c
000000e0: 283d eb3a a7b6 9fbb 3d98 723c 912f b63c
000000f0: 76e0 98bb 9a9d 64bc aa85 943c cf90 99bc
-0.00061013823 -0.012158061 0.016507195 -0.011549016 -0.01039844 -0.0065207076 0.021352153 -0.027716853
0.0065843374 -0.00948746 0.0056705293 -0.022163127 -0.025859129 0.0067347707 -0.019401478 -0.027687952
0.015302637 0.024928505 0.005427182 0.008096191 -0.01836402 0.01061658 0.0015170833 -0.0043530394
0.02330282 0.012578358 -0.015095155 -0.0013855431 0.020975191 0.0061490345 -0.0046281903 -0.027006365
-0.0018718962 0.029118724 0.027412565 0.012210623 -0.025216985 -0.017361173 0.017553143 -0.005751058
0.026046902 -0.017589252 -0.0052804407 -0.00050694525 -0.016668094 -0.00300185 0.0015808828 -0.022931164
0.028992478 0.016242139 0.017523317 -0.0018153429 -0.007649768 -0.028988233 0.0021481235 0.019976389
0.0017947303 -0.004874069 0.014806804 0.022239478 -0.0046654297 -0.013953591 0.018130142 -0.018745808

value_stream.0.weight f4 [128, 64]
00000000: 315e a03d fba3 223c c52e 26bd e69d d6bb
00000010: c26d b1bd 9213 063b 59f3 1f3d d1e4 9bbc
00000020: 2813 00be 3212 3abd 71d7 ebba e244 c4bd
00000030: 277d 653d c853 f93d bb4d 7cbd 306c a43d
00000040: 4206 653d 7b1a 1d3d e199 463a a0c2 e0bd
00000050: 0cb6 9c3d 60b2 833d f80a abbd 3b94 c7bd
00000060: 959a fb3d 36d3 6dbd 5417 13bc 07d4 aabc
00000070: 3d6b 083e e50b 77bd dfcd 843c 639b e7bd
00000080: 89d2 cb3d 0748 f63d 19c0 85bd c846 ebbd
00000090: c4cf 863d a0ac 2a3c 90a7 473c 8b1f 8ebd
000000a0: 6193 49bd 00e2 c8bd 7c49 acbc 09a9 d23d
000000b0: 87e8 3b3d 6635 213d b953 d0bd d4ea c23d
000000c0: d5f4 86bd 7b04 9c3d cb46 f83d 58ac 6cbd
000000d0: 2926 9abd 0c6d 863d 2c56 55bd c98c 313c
000000e0: 105a 4b3d 0d5c 84bd e179 e33d 8ab1 f7bd
000000f0: 4d24 8cbd 6739 653d df18 e2bd 9cd4 d93d
00000100: b622 9dbd d3bc f43d b3b3 ad3d e7ff 30bd
00000110: fb34 a6bc acb7 e2bd 482c 903c 186f dabb
00000120: 6796 f83c 5ff6 043d f48f 033e 5bf4 68bc
00000130: 5c0b a9bc 9d2b e63d aaf4 413d 24db a73c
00000140: 3687 8abc 49c7 db3b 89f8 d03d 8858 ab3d
00000150: 5fe9 473d 54d3 f2bc fe34 093d 14cd a53d
00000160: 3d96 a53c a230 803d 955d bf3b a9f6 debd
00000170: f1bd 0a3e 6e3b b03d c6e4 8a3d 6b5b c0bd
00000180: e688 5ebd b993 dfbd 7cab 47bd 87d2 aebd
00000190: 8cb7 673d 4937 c6bd aebb 713d 10dc 3d3d
000001a0: 4c6f b0bd b2b6 983d 5fe4 d7bd 6822 21ba
000001b0: 223f 27bd f452 babd 555e 62bc b1cd 773d
000001c0: 3529 aa3d 74cc aabc c4ba ffbc 8289 023e
000001d0: 884c b13c a418 523d 0c57 fb3c 673c 183c
000001e0: 9c69 a73d 2caa 053d f920 e0bd 4ec4 603d
000001f0: c897 ed3d 8f40 333d d1a3 e43d 6cbb 20bd
00000200: 7a1e 003e 6d07 53bd 14ab fbbd 0cbd 5f3d
00000210: f583 f4bd 3cad 9b3d 9959 a43d d66d 133c
00000220: 342e a33d d091 c33d 610a 9fbd f5fa 9abd
00000230: c4c3 de3d abd2 3e3d de4b 99bd 4842 ec3d
00000240: b38f 9cbd 4815 a93d 334a d63d 3fb7 cebd
00000250: 3cda 713d 22e6 3bbd 0e70 6d3c ead9 9abd
00000260: 6423 003e bfe7 74bd 33c1 b93d b59c c1bd
00000270: aff5 8a3d de7e d5bd 9ef8 dabd eb55 ca3d
00000280: 72a7 58bd a2e4 88bd 1617 85bd e861 623d
00000290: 5a85 e7bd cc95 e53d bbb3 f23c 932c c1bb
000002a0: c9cc bc3d 6081 82bc d6ed c0bc 1663 ce3b
000002b0: 0813 bf3d c1c4 e03c e4d2 8c3d 2c97 c43d
000002c0: 94a4 7c3d ed62 bbbd 12e8 c03d c553 8d3d
000002d0: ed4f 013e a038 c3bc 4c9c 2e3d 860a 9cbc
000002e0: 0f85 a73d b653 92bd 1778 a2bb dc45 993d
000002f0: f014 a83d 677e bc3d 0de2 9a3d ebf1 8abc
00000300: ea26 c53c ed6c a23d b22d afbd 23b6 ce3d
00000310: 3e3f 973d 8430 febc 7faa 0abd 1720 553d
00000320: f18d 5ebd d8c2 eabc 1192 adbd 36c1 57bc
00000330: 1760 3c3b 02f6 e23d 0d3a 673d 52b3 77bc
00000340: c758 89bd bdd2 37ba 0054 24bd 7100 cb3d
00000350: b042 ce3d cabe 963d 397b 10bc 0057 fdbd
00000360: bc71 833d d4ed 4f3c 722b a2bc 3ecd 86bc
00000370: d051 07bb afaf c43d 475b d63c 01c0 9fbd
00000380: a60c 273d 998a 04bd acea 9cbc 1e39 aabd
00000390: 9a91 b23d 6b82 d93d d989 10bd 6f10 10bd
000003a0: 4edd eb3c c0f5 473c 5073 52bd 4e1c c1bd
000003b0: a09e 4abd e6e2 a93c 88d0 083d c81d 823d
000003c0: 4b57 9dbd 830d 8c3d 5a67 ddbc 9415 dd3d
000003d0: 3d85 e43d 5010 2f3c bbad 693c e26d 0cbd
000003e0: e84f d0bc f198 e43d a7fc 70bc 2155 d2bd
000003f0: 3653 393d c2dc e43d 8de4 85ba 7c37 f03d
0.078304656 0.009926791 -0.040571947 -0.0065495847 -0.08663513 0.0020458442 0.039050434 -0.019030007
-0.12507308 -0.04542751 -0.0017993284 -0.09583451 0.056027558 0.12174183 -0.061597567 0.08028448
0.05591417 0.038355332 0.00075760303 -0.10974622 0.0765191 0.06430507 -0.083517015 -0.097450696
0.122853436 -0.058062755 -0.00897773 -0.020853056 0.13322158 -0.060314078 0.016211448 -0.113089345
0.09952266 0.12025457 -0.0653078 -0.1148811 0.06582597 0.010417134 0.012185946 -0.0693961
-0.049212817 -0.09808731 -0.021031134 0.10286147 0.045876052 0.039357565 -0.10172219 0.09517446
-0.06589667 0.07618042 0.12122878 -0.057781547 -0.0752681 0.06563768 -0.052084133 0.010836788
0.049646437 -0.0646287 0.11107231 -0.1209441 -0.06842861 0.055962946 -0.110399 0.10636255
-0.07672636 0.11950078 0.084815405 -0.043212797 -0.020288935 -0.11070189 0.01759924 -0.0066660754
0.030345155 0.03246152 0.12847883 -0.014218415 -0.0206353 0.11238787 0.04735247 0.020490237
-0.016910177 0.0067071063 0.10203654 0.08366495 0.048806544 -0.029641785 0.033497803 0.08095756
0.02021324 0.06259276 0.0058400133 -0.108868904 0.1354902 0.08605085 0.06781916 -0.093924366
-0.054329775 -0.10916848 -0.048747525 -0.08536249 0.05657153 -0.096785136 0.059016876 0.046352446
-0.08614978 0.07456721 -0.10541605 -0.00061467895 -0.040831693 -0.09097853 -0.013816436 0.060498897
0.08308641 -0.020849444 -0.031216986 0.12747768 0.021642938 0.05129303 0.030681156 0.009291745
0.0817444 0.03263299 -0.10943789 0.05487471 0.116012156 0.04376274 0.11164058 -0.03924124
0.12511626 -0.051520754 -0.1228849 0.05462365 -0.11939231 0.07601401 0.08024902 0.008998355
0.07967797 0.09549296 -0.077656515 -0.075673975 0.10877183 0.046587627 -0.07485174 0.1153608
-0.07644596 0.08256012 0.10463371 -0.10093545 0.059046015 -0.04587377 0.014492048 -0.07561095
0.125135 -0.059791323 0.09070053 -0.094537176 0.06785142 -0.104245886 -0.10691951 0.09879669
-0.052894063 -0.06684233 -0.06498544 0.055269152 -0.11304732 0.11210212 0.029626718 -0.0058952062
0.09218747 -0.015930831 -0.023550909 0.006298433 0.09329802 0.02743757 0.06876162 0.09599146
0.06168039 -0.09149728 0.09419264 0.069007434 0.12628146 -0.023830712 0.042629525 -0.019047987
0.08179676 -0.07144873 -0.0049581635 0.07484028 0.082071185 0.09203797 0.07562647 -0.016961059
0.024066407 0.07930932 -0.085536376 0.100933336 0.07385109 -0.031028993 -0.033854004 0.052032556
-0.054334585 -0.028657362 -0.084751256 -0.013168624 0.0028743797 0.110820785 0.056451846 -0.015118437
-0.06706386 -0.00070122984 -0.04011917 0.099121936 0.100713134 0.07360609 -0.008818441 -0.123701096
0.064181775 0.01269098 -0.019796107 -0.016455289 -0.002064813 0.096038215 0.026166571 -0.07800294
0.040783547 -0.03235874 -0.019154869 -0.083116755 0.087191775 0.106205784 -0.03528771 -0.035171922
0.02879205 0.012204587 -0.0513795 -0.09429227 -0.049467683 0.020738076 0.033401996 0.063533366
-0.076826654 0.06838515 -0.02702682 0.10795131 0.11158226 0.010685042 0.014262612 -0.03428448
-0.025428727 0.11161984 -0.0147086745 -0.10270143 0.04524537 0.11174919 -0.0010215208 0.11729333

value_stream.0.bias f4 [128]
00000000: d8f5 fcbc 811a 673d cbe8 923d 5b49 b1bc
00000010: 8a19 c3bd 3144 fc3d 20ed 293d db81 543d
00000020: ddf9 033e 7843 54bd 7e48 fc3c 58be f43d
00000030: f237 ea3d 4435 f43d 455b d53d 9df7 c4bd
00000040: c717 0dbd 6e22 d43b 7c58 193c 800a d2bd
00000050: b88a 2dbd e976 3c3d b47a 923d f84f 703d
00000060: 7d4d e13d 2ee4 aabd e9c2 debc 80c0 babd
00000070: 351f cbbd aa82 58bc e936 2ebd 1852 bfbc
00000080: d3a9 29bd 6653 f73d 4e07 74bd bdcb 993d
00000090: d4d8 b6bc 805a 903d 2cb4 c5bd 9c37 d3bd
000000a0: d431 da3d 68ba f9bd 213d 7fbd f7a7 73bd
000000b0: ce7c 903d a0d9 2bbd 58f6 e3bd 35ec 6a3d
000000c0: 934d 7b3d f3eb c93b 84be dcbd 467f 9abd
000000d0: 03ad d13d 5e08 cdbc a4e0 dcbc f1f2 a43d
000000e0: 2764 7f3c 4243 81bd 0edc 3bbc 89e4 3c3c
000000f0: ed6f aa3d 2d24 89bd 8b96 b1bd da48 af3d
00000100: 47f9 e43d cbed b63c cba8 83bd afcc 3dbd
00000110: 2625 e83d 75d1 79bd 09c3 cdbd d9ba a73d
00000120: 29c6 adbb 3c67 ae3b 481d 83bd 3ed0 f6bd
00000130: 2548 14bd ef79 883d c140 2f3d 30bc aa3d
00000140: 03a5 ddbd cd2d db3c a08d 9fbd 62d1 cabd
00000150: 38c0 eebb 9feb 6b3d 3719 3fbd 3599 3ebd
00000160: d101 2b3d 3215 31bc d424 45bd be67 703a
00000170: ac94 42bd c806 d23d 9500 a0bd a6d1 70bd
00000180: 7ed8 ebbd e91c 02be a28c b73d 02d7 ad3d
00000190: 9570 c03c c8e7 e8bd 138c ab3d db5a c23d
000001a0: dba5 a8bc 8706 66bd 2b36 da3d 1778 85bd
000001b0: 4a26 0c3d a9f4 aa3d 0945 d0bd d622 bebc
000001c0: e731 c63d d8b4 5cbd e035 e5bb a032 043a
000001d0: 6d0d a83d f1a7 8fbd bcfc 173d 4aa2 8ebd
000001e0: 882f ec3d 9992 f23d 69c9 053c 631c 003e
000001f0: 048c b0bc 000c 8fbd 62dd 66bd 74d7 bcb9
-0.030878946 0.05642176 0.07173308 -0.021641424 -0.095263556 0.12317694 0.041485906 0.051881652
0.12888284 -0.051822156 0.030796286 0.11950368 0.11436452 0.11924222 0.10417799 -0.09617541
-0.034446504 0.006473831 0.009359475 -0.10255909 -0.04236862 0.04601184 0.0715231 0.058670014
0.11001108 -0.08344303 -0.02719255 -0.09118748 -0.09918062 -0.0132147465 -0.042532835 -0.023354575
-0.041421723 0.12076454 -0.05957728 0.07509563 -0.022320189 0.070485115 -0.09653506 -0.10313341
0.10654035 -0.12193757 -0.062314156 -0.059486356 0.070550546 -0.04195559 -0.11130971 0.05735417
0.061353277 0.0061621605 -0.107785255 -0.07543807 0.102380775 -0.025028404 -0.026962586 0.0805415
0.015587843 -0.063116565 -0.011466039 0.011529096 0.083221294 -0.06696353 -0.08671292 0.08558817
0.111803584 0.022330185 -0.06428679 -0.04633778 0.113352105 -0.06099077 -0.10046966 0.08189935
-0.0053031635 0.005322365 -0.06402069 -0.12051438 -0.036201615 0.06663882 0.042786364 0.08336675
-0.10822489 0.026755238 -0.07790685 -0.09903218 -0.007286098 0.057597753 -0.046654906 -0.04653283
0.04174978 -0.010808276 -0.048130825 0.0009170732 -0.047505066 0.102552 -0.07812611 -0.058793686
-0.11515902 -0.12706341 0.089623705 0.08488275 0.023491183 -0.11372334 0.083763264 0.094899856
-0.020586899 -0.05615857 0.10654863 -0.06517046 0.034216203 0.083474465 -0.101694174 -0.02320997
0.09677487 -0.053883404 -0.006994948 0.0005042944 0.08205686 -0.07014454 0.03710626 -0.06964548
0.11532503 0.118443675 0.008165696 0.12510829 -0.02155114 -0.06984711 -0.05636347 -0.0003601868
