test_for_cleanRL/models/cartpole_dueling_dqn.pt (torch, 275497 bytes, 11 tensors)

extractor.net.0.weight f4 [256, 4]
00000000: dd78 6c3e e8b6 2b3e 9167 5e3f 8226 c73e
00000010: 2fe7 eebd 23d8 813e 4d93 d6be bb88 3f3e
00000020: ff32 4abf 197d 223c 7e00 c53f e9ae 7b3e
00000030: 8ea0 60bf 1afe b2be 7e3a 15bf d935 3dbe
00000040: 8bb6 2b3d 0c65 6a3c 510e 0cc0 b942 05be
00000050: a570 063f 45e2 5cbe d250 49bf 0214 71be
00000060: edd5 d63e be8b 82be 2228 e63e 2b5d 8dbe
00000070: 635f aebe da6f 673e 0df0 30bf 52b9 013e
00000080: 9e61 3c3c cef9 a2bd 1178 b6be 272c 61be
00000090: aab8 ecbe 0963 b6be eb09 373b e944 88be
000000a0: d458 dd3d 3d0c 4e3d d441 c23f fc9c 663e
000000b0: c9e2 81bf 9277 17bb 4db7 83be 51f1 4f3d
000000c0: 1d6e b83d cc27 84bd f767 fe3e bc8e cf3d
000000d0: 1946 99be 4607 b03e ff2e 84bf 7e19 91bc
000000e0: 3f4d 12bf 3c2e 8d3e c54b 1bbf 4557 873e
000000f0: c3cb 8dbd 1a12 0c3e 9a4c 50bf 5e18 723d
00000100: f078 653e 4092 953e 88f4 4a3f 494a c33e
00000110: c897 ec3e e277 6e3e 5e77 4fbf f54e 123f
00000120: bd8d c03d 5dae ba3e 2950 393f 010c f8bd
00000130: 8de5 9d3e fbfc 5cbd 9729 a0be 4a8c 0abd
00000140: 2338 c13e c333 26be 3a2a 0e3e 5cf7 923e
00000150: f472 9ebd 0006 bc3d 9967 8ebe 1826 863d
00000160: 74c9 0e3e 10dc d5bd fd88 abbf 220d 80be
00000170: 9a68 233b 5406 2f3f 1cd9 aabd 024d 813e
00000180: 4d4b 69bd 3d49 00be 79f7 863f d786 283e
00000190: d5d7 703d c710 9dbd 55f9 f93d bf6a 8cbe
000001a0: 5260 003e b5cb 36be db76 e63f 4163 a73d
000001b0: 451f 25bf db1e e63e 36a0 30bf 4355 7d3e
000001c0: 9ca3 b23e fdc8 ddbe 34db a23e ae59 b9be
000001d0: 5f74 0cbf ecec f73e 3a37 d43d e5dd ad3e
000001e0: 9e10 cdbd 4daa a33e fe2d 6a3f 12b6 9ebd
000001f0: 77f1 22be a4e1 4d3d 1ee8 dcbf c924 86bd
00000200: 2dbc 04bf 5876 d03e 652c 38be 5286 ee3d
00000210: 4527 163f 577b 54bd 0802 8dbf 20ae 88be
00000220: 9666 5c3e c5a3 b6bd 6fb4 113f 7503 cd3e
00000230: ac2b 87bd d806 c13e f0f9 eb3f fb76 b83e
00000240: 4a42 a2bd c7b9 0d3f ccdf c83f 5c91 e43e
00000250: 0000 be3e b847 043f e8c2 b53e 1a44 a53e
00000260: 72f7 f53e 8206 81be fb86 333f 3257 8dbe
00000270: 973a c73d 7fa2 eabd 5943 5fbf fcba 803e
00000280: 8e68 ba3c 7234 f93e 195d 94bd cd95 563e
00000290: 944a c2be a81f 20be 1f36 b0be 7570 9ebe
000002a0: 34c5 a1be e418 023e 4f78 813f 0360 873e
000002b0: 05f1 5a3f 3640 223d b390 dabf 433a a7bd
000002c0: bd8d 1bbd f28e 483d bcac 3b3f 7a5c 9d3d
000002d0: 7170 473e 50a9 0f3e 1201 c23f 195a 493e
000002e0: 4327 2a3e cfa4 82be fd8a 6f3f d75c 31be
000002f0: acdf 07bf 1327 a3bd 0462 03bf 9001 4abe
00000300: ceb0 66be 65d2 13be 40a1 e33e 6c61 01bd
00000310: 944f e3bb bf81 fe3d 8a63 983f d079 e23e
00000320: 1fd0 a7be f49d 71be 425b 1fbf a811 19be
00000330: 45f2 8f3d 742d 283d a4c0 48bf ef68 023e
00000340: 1894 afbe c509 f63d 82c8 19bf 1064 c63d
00000350: 4601 33bd b835 9b3d e4df 51bf 3c1d dd3d
00000360: 9230 02bd d7e1 df3d d57a 853e 349e c63d
00000370: f700 1a3f a0bc 9ebc 16c9 5d3f 2357 063e
00000380: c67e b1bd e693 813e 19c3 4f3f 1bc8 95be
00000390: 90f0 fdbe 6d68 f73e 13ba 9d3f bc85 e23e
000003a0: 84fd 2abd d471 7cbc 7e7e 04c0 6783 0cbe
000003b0: ea44 51be 645c 393e 2873 a63f 06a0 19be
000003c0: f25f b6bd b880 dc3d 5e2a 87bf 5f9f 033f
000003d0: 494a 3fbf be75 a0bc bc8c fbbe 139d 063e
000003e0: b07d 863e 9f4e 633d bcd5 e1bf 09e9 f3bd
000003f0: 18a7 b13d 47bf 913e f4e5 ccbf e260 863b
0.2309298 0.16768992 0.8687678 0.38896567 -0.116651885 0.25360212 -0.41909257 0.18704502
-0.78984064 0.009917521 1.5390775 0.24578442 -0.87744987 -0.3495949 -0.58292377 -0.18477573
0.041922133 0.014306318 -2.1883738 -0.13013734 0.5251563 -0.2157069 -0.78638947 -0.23542789
0.41960087 -0.2549724 0.44952494 -0.27610144 -0.3405715 0.22601262 -0.6911629 0.1266835
0.011497883 -0.07957803 -0.35638478 -0.21989499 -0.46234637 -0.35622433 0.0027929496 -0.26615074
0.10807958 0.05030464 1.5176339 0.22520822 -1.0147334 -0.002311204 -0.25725785 0.050767247
0.090053774 -0.06452903 0.49688694 0.10134646 -0.29936293 0.3438055 -1.0326842 -0.017712351
-0.5714912 0.27574337 -0.6066249 0.2643377 -0.0692363 0.1367878 -0.81366885 0.05910527
0.22409415 0.29213142 0.79279375 0.38142613 0.4620955 0.23287919 -0.81041515 0.5715173
0.094020344 0.36461154 0.7238794 -0.121116646 0.30839196 -0.0539522 -0.3128173 -0.033825196
0.3773814 -0.16230683 0.13883296 0.28704345 -0.07736769 0.09180832 -0.27813414 0.065502346
0.13944036 -0.10442364 -1.340118 -0.2501002 0.0024934174 0.6836903 -0.083421916 0.25254065
-0.056956578 -0.12527938 1.0544273 0.16457687 0.058799583 -0.07669216 0.122057594 -0.2742519
0.12536743 -0.17851146 1.8005022 0.08173228 -0.6450084 0.44945416 -0.6899446 0.24739556
0.3489045 -0.43317404 0.31807864 -0.36201233 -0.5486507 0.48422945 0.10362096 0.33958355
-0.10012935 0.31965867 0.9147643 -0.07749571 -0.15912424 0.050264016 -1.7258337 -0.06549985
-0.51849633 0.4071529 -0.17985685 0.11646713 0.5865367 -0.05187544 -1.1016245 -0.26695347
0.21523508 -0.08917955 0.56915945 0.400417 -0.066001266 0.37700534 1.843565 0.36028275
-0.079228 0.553616 1.5693297 0.4464215 0.37109375 0.51671934 0.35500264 0.3227852
0.48040348 -0.25200278 0.7012784 -0.27605587 0.09727972 -0.11456775 -0.8721214 0.25142658
0.022754934 0.48672825 -0.072443195 0.20955582 -0.37947524 -0.15637076 -0.3441629 -0.30945173
-0.31595767 0.12704808 1.011484 0.2644044 0.85524017 0.039612018 -1.7075409 -0.081654094
-0.03797697 0.04896445 0.73310447 0.07683654 0.19476487 0.14029431 1.5156577 0.19663276
0.1661654 -0.25516364 0.93571454 -0.17320572 -0.5307567 -0.07966437 -0.51321435 -0.19727159
-0.22528383 -0.14435728 0.4445896 -0.03158705 -0.0069369767 0.12427091 1.1905377 0.4423356
-0.3277597 -0.2359541 -0.62248623 -0.14948142 0.07028631 0.041058972 -0.78418946 0.12735341
-0.34292674 0.12013582 -0.60071576 0.09687054 -0.043702386 0.075786054 -0.81982255 0.10796592
-0.0317846 0.109317474 0.26070276 0.096981436 0.6015772 -0.019377053 0.8663496 0.13119178
-0.08666758 0.2530815 0.8115707 -0.2925423 -0.49597597 0.48321858 1.232241 0.44242656
-0.041745678 -0.015407998 -2.0702205 -0.13722001 -0.20436445 0.1810165 1.3003893 -0.1500245
-0.08905019 0.10766739 -1.0559804 0.51415056 -0.74722725 -0.019587394 -0.4913081 0.13145857
0.26267767 0.0554949 -1.7643352 -0.11909682 0.08674449 0.28466246 -1.6007676 0.004100905

extractor.net.0.bias f4 [256]
00000000: 2347 13bf 1d62 fbbe b774 fdbe 1380 a4bd
00000010: 0c08 f4be 97b8 9e3e 0eff 683e 89c1 02bf
00000020: e7c3 843e ac5c 0fbf 504b 18bf b8d1 7bbe
00000030: db4c c93e 4cdd bcbc 9a5b abbc 685b 9a3e
00000040: 8644 06bf e212 83be 8f80 85be c06f 33bf
00000050: 6540 31bf a827 153e f25c d9be 6153 2cbf
00000060: 413e 47bf 3223 ebbe abf9 9fbe e295 093e
00000070: 1a6d 18bd c70e b5be 11b7 7d3e b2d7 bdbe
00000080: bf94 eb39 dd96 83be e58e 25bf 595e d4be
00000090: ada7 cfbe 818d acbe 4159 263e f8b2 17bf
000000a0: 070b debe 4956 49bf 0bb3 ccbe 25b1 cfbe
000000b0: a608 a43e 4ea1 eabe 34b0 503e b547 2bbe
000000c0: 0201 8b3e 00e9 25be ad04 07bf e627 b53c
000000d0: db96 343e e3fa 84be 09cf 9fbe b626 e8be
000000e0: a5bc c43e a805 f3be ad3c e6be 35c6 64be
000000f0: 95be db3d da4f e9be c761 e7be 3e7f cbbe
00000100: 2fe4 fabe 5041 febd 18f5 f6be 17cc 103f
00000110: df97 49be d0fa 8cbe 5488 86be 9b4d 1b3e
00000120: 28bf dabe 0026 33bf 36fe 6dbe 0459 f7be
00000130: 9a40 763c 5c90 19bd 7330 fbbb 4c64 b9be
00000140: e030 f6be 5836 033d 6740 0dbf d081 fb3c
00000150: 0fb5 1cbf a7be f2be e10c 65bd 9b88 a4be
00000160: be0c db3c 9f9c 13bf 097e 4abd 46d5 0abe
00000170: 9784 8f3d 72cb 9d3d 89ae bf3e 29b4 4bbd
00000180: 89fc d13e 6ad2 e4be a27b e6be 8c31 12bf
00000190: d7e5 c83e 7d63 a2be 9b18 4e3d e9e2 03be
000001a0: c9cc 1cbf 5864 bdbe eda0 c5bd 72d6 b2be
000001b0: 657f 17bd 50c4 d2be be9d 113e 9aa2 e73e
000001c0: c192 8dbe ae60 03bf e906 ebbe 4e27 1fbf
000001d0: 407c 1ebf 24bf a03e 8503 70be 957b 79be
000001e0: cc08 19bf b1aa 32bf 438f bcbe bb86 07bf
000001f0: ffa7 9f3e 7693 22bf 2e9e 86be 2030 49bf
00000200: 837f 7d3d 1d82 aebe 5eaf 2bbc 2ac5 b2be
00000210: 79dd 3fbf 0cdf 06bf 0bb5 2fbf f154 52be
00000220: 4f77 43bf 5b73 063f fc19 2bbd 4c52 33bf
00000230: 10d3 be3e e600 a1be 520b 0dbf b9ef d93e
00000240: 555e 7ebe b028 34bf d20b b53e 9766 15bf
00000250: 1d53 05bf b224 32be 19f6 1fbf e184 18be
00000260: 50e8 33bf 31be d1be 6ec3 00bf 2427 09bf
00000270: 1394 03bf 7326 d13d 1974 9fbe c4ec babe
00000280: 1150 c8bd 8be7 563e 568f aa3e 5d00 56bf
00000290: efa3 07bf ae5f fabe a5dc 2ebf aa2a 97bc
000002a0: 70a3 8f3e 1a08 6dbe 4b1e 1fbd 1a42 bb3e
000002b0: 297d 26bf 5f0c 283e 792c 45bf f819 dabe
000002c0: 6edf ef3d deb5 e6be 986f f7be ab29 b43c
000002d0: 31fa a2be 0105 45bd 98d8 b33e f9fc e23d
000002e0: ede2 253e 691d cabe 0444 1bbf 42f1 02bf
000002f0: b622 463e b546 d43d 3234 8cbc 7d7d b03e
00000300: 9133 b93e d0af 82bd 6f87 9f3e 61bb b63e
00000310: 96df 8a3c e5ad cfbd a0f7 1cbf 9d18 a0bc
00000320: b405 9bbd 7936 b0bd b061 453e e748 013f
00000330: 1ee5 d93e 846f 95bd fd09 b3be f6f4 9bbe
00000340: c81c c8be cdaa 5bbf 99fd c1be 68a0 f43d
00000350: 9c05 46be eebc d6bd 55e2 32be c8b4 3abf
00000360: 4686 bf3e 1e72 d3be e4ed 21be fe0f c1be
00000370: 7778 46be 1126 8dbe bcab e8be 1c87 e3be
00000380: 276c 7fbe 6dff 063f cc64 f8bd c1c9 b83e
00000390: a016 2bbf e8a7 7c3d 3aae 14bf 9bfa 35be
000003a0: c464 f8be a89c 24bf 95f8 07bf 4014 84bd
000003b0: b569 08bf 633f ddbb 07c9 1bbf 525a 903d
000003c0: 07d4 e8be 777a a8bb 0d5c 953d a224 593d
000003d0: ed90 e53e 5103 d43e 9209 21be f272 77be
000003e0: 02df acbe 9761 a4be 0b6a 00be ec98 6c3b
000003f0: 9cb5 013a d7e2 9ebe 1412 abbe c6ce b33e
-0.5753042 -0.49098292 -0.4950311 -0.08032241 -0.4766239 0.31000206 0.22753546 -0.5107656
0.25930712 -0.5600078 -0.5948992 -0.2459172 0.3931645 -0.023054741 -0.020917702 0.30147862
-0.5244831 -0.25600344 -0.26074645 -0.7009239 -0.69238883 0.14565909 -0.42453724 -0.67314726
-0.77829367 -0.4592529 -0.3124517 0.13436082 -0.037213422 -0.35362837 0.24776866 -0.37078625
0.00044933517 -0.25701037 -0.64671165 -0.41478232 -0.40557614 -0.3370171 0.16244985 -0.5925746
-0.43367788 -0.78647286 -0.3998035 -0.40564838 0.32037848 -0.4582619 0.20379716 -0.16726573
0.27149206 -0.16202164 -0.5274151 0.022113752 0.17635672 -0.2597266 -0.31212643 -0.45342034
0.38425174 -0.47465253 -0.44968167 -0.22341235 0.1072971 -0.45568734 -0.45191786 -0.39745516
-0.49002215 -0.12414801 -0.48233867 0.56561416 -0.1968684 -0.27535105 -0.26275885 0.15166323
-0.42723966 -0.6997986 -0.23241505 -0.483101 0.015030051 -0.037491187 -0.0076656877 -0.36209333
-0.48084164 0.032034248 -0.55176395 0.030701548 -0.61213773 -0.4741108 -0.055920485 -0.32135472
0.026739474 -0.5766086 -0.049436603 -0.1355792 0.070077114 0.0770482 0.37437847 -0.04973236
0.41012982 -0.44691783 -0.450162 -0.5710685 0.39237854 -0.3171653 0.050316434 -0.12879528
-0.6124998 -0.3699062 -0.09649835 -0.34929234 -0.036986727 -0.411654 0.1422033 0.45241243
-0.27651027 -0.51319396 -0.4590371 -0.6216935 -0.6190834 0.3139583 -0.23438843 -0.24363549
-0.5977905 -0.69791704 -0.3682805 -0.5293996 0.31182858 -0.6350626 -0.26292557 -0.7858906
0.061889183 -0.34083644 -0.0104788225 -0.3491605 -0.74947315 -0.5268409 -0.68635625 -0.20540215
-0.76353925 0.5251977 -0.041772828 -0.7004745 0.37270403 -0.31445998 -0.550954 0.42565706
-0.24840672 -0.70374584 0.3536058 -0.58359665 -0.52079946 -0.1739681 -0.6248489 -0.1489444
-0.70276356 -0.40965417 -0.502982 -0.5357535 -0.5139782 0.10212412 -0.31143263 -0.36508763
-0.097808965 0.20986764 0.33312482 -0.83594304 -0.5298452 -0.48901123 -0.68305427 -0.018452961
0.2805438 -0.23147622 -0.03884725 0.3657387 -0.6503473 0.16410969 -0.77020985 -0.42597938
0.11712538 -0.4506063 -0.48327327 0.021992525 -0.31831506 -0.048100475 0.35126185 0.11083407
0.16199847 -0.39475563 -0.6065066 -0.5114938 0.19349179 0.10365049 -0.017114732 0.3447074
0.36172155 -0.0638119 0.31158015 0.35689834 0.016952317 -0.101405896 -0.61315346 -0.019542987
-0.07569447 -0.0860414 0.19275546 0.50501865 0.42557615 -0.072966605 -0.34968558 -0.30460328
-0.39084458 -0.85807496 -0.37888792 0.119446576 -0.19338077 -0.10485254 -0.17469151 -0.729321
0.3740713 -0.41298002 -0.15813404 -0.37707514 -0.19381891 -0.27568105 -0.45443523 -0.44439018
-0.249436 0.527335 -0.121286005 0.36091426 -0.668314 0.061683565 -0.5807835 -0.1777138
-0.48514378 -0.6430154 -0.5311368 -0.06449175 -0.53286296 -0.006751941 -0.6085362 0.07048477
-0.45474264 -0.005141552 0.07292948 0.05301345 0.44837132 0.4140878 -0.15726307 -0.24164942
-0.3376389 -0.32105705 -0.12540452 0.003610189 0.00049480214 -0.3103244 -0.3341223 0.35118693

extractor.net.2.weight f4 [128, 256]
00000000: d59c 303c d761 5dbd d3c3 85bd d720 84bd
00000010: 6922 05bd 8abc 1c3a 25cd 7ebc 9871 213c
00000020: e1ca 083d 4f68 d73c 910e 623c 3c58 f6bc
00000030: 6aa5 373d c9c5 8e3c df2f 1fbd 6776 163d
00000040: b132 7bbd 4c88 783c 91a7 78bd 5064 c73c
00000050: a87a 1abc e49d d53c 0c74 4d3c 5264 13bc
00000060: fb5f 493b 661d 213d c950 a4bc 1c8e b5bb
00000070: 09c1 78bd 1da4 75bb bf50 0bbd 4a35 233c
00000080: dca1 523d 612c 78bd a805 ddbc 41f8 5dbd
00000090: 82f5 b83c d88d 7abc dfdd 6fbd e355 1b3d
000000a0: e537 dabd 6220 b6bd 0a66 03bd c724 69bc
000000b0: 13d2 05bc 6cf6 8fbd b2d9 4f3d 1528 40bc
000000c0: 6ab0 893c 562e ddba 7fa6 b3bc 12bc 7bbd
000000d0: 08ef 173d 8fd4 87bd 59d7 603c 0289 bc3c
000000e0: 66b6 e6ba 1712 4dbd 92cb 7ebd b6ee 1c3d
000000f0: 77bd f9bc 15b9 293c 0e22 6dbd 207c e23c
00000100: 19d8 febc 502d 67bd a33f 78bd 4d94 7fbd
00000110: 91f1 8ebd 75d0 9cbd 61c7 393d 5e60 b1bd
00000120: a410 4a3d 0918 5abc c923 13bd 96fc adbc
00000130: d61e 053b 21ed 97bc f862 a9bd a1d8 f03c
00000140: f96f b1bd 3d5e 80bd 6039 d0bb 2022 9bbd
00000150: c6f8 143d 79e0 7cbd 6a0e 503b 7a38 d23a
00000160: efb4 bbbc ec4d 09bd 5f9b 88b8 654d 4c3d
00000170: e111 4c3d eb40 89bd 3f54 1dbd 251d 0bbd
00000180: 6fb3 69bc a29f 0fbd 2fed 6abd 218b a03b
00000190: aab8 e8bb 1f8f 7f3c 36fb 39bd 5897 c9bc
000001a0: 23fe 96bd 6613 42bd 35a9 8dbd 8758 0ebc
000001b0: 24af b83c 15c6 013d 7060 5dbc ccff 45bc
000001c0: 1e27 5ebd 8938 223c 4ebd b03c 44cc ce3c
000001d0: 0127 c8bd 941f 3ebc a455 7fbd fc53 3a3c
000001e0: 20b6 5bbb 2555 00bd 2833 303d be7c 083d
000001f0: c480 23bd b755 15bd f4f7 ff3c 20ec 30bc
00000200: 3ea3 b7bd 7874 9ebc 2ab4 ef3b 10b2 b1bc
00000210: faa6 753d 9b41 55bd 6437 89bb b6a1 f2bc
00000220: 9eec 1d3d bdcb a3bc e78c 63bd 38cd 37bd
00000230: fa3e 4c3d f296 bfbd 5f4f 433d 0375 5abd
00000240: 6c85 b6bc 2209 9f3c cd6f 983c 208e aa3b
00000250: a165 01be 8ea1 05bd d29b bcbd 41e8 d8bc
00000260: c862 47bc 65b5 84bd 0206 bdbd 4f6d 4bbd
00000270: 5bfb b2bd 91bc d53c 69ca 5abd 42a8 90bd
00000280: c31f c8bd 697f cb3c 360f 2e3c c2e5 bdbd
00000290: 1c7b f8bc 9cb9 f7bc d09f f73b 0eea dc3c
000002a0: 3357 943c 0ce3 aabc 0576 ec3c cf00 32bd
000002b0: 42bf 86bd 542a 103c ab85 42bd f8f1 c7bc
000002c0: cf41 afbd 038c 3bbd c892 dc3c cee5 523c
000002d0: 15ad bbbd 5182 66bc 35b2 8fbd 752a 2f3d
000002e0: b0f7 ca3c 5049 de3c f949 84bd 13d4 cfbd
000002f0: e383 acbb 6d9d 453d 3f63 053d d400 653b
00000300: d71e 65bd 23bd 70bd cae3 15bd 565e 223c
00000310: 08c3 7fbc 3f4e c6bc bcf4 6dbd 1ba4 3c3d
00000320: b131 36bd 1a74 973c 112d 193d 9759 c0bc
00000330: a27e f8bc f1cb 1a3d 6c03 f7bc 0e39 123d
00000340: ec33 e7ba b1b3 8dbd 5419 e1bc 2059 91bd
00000350: 6111 873c c81e b33c 9a5f 55bd f48f f3bc
00000360: 6267 8fbd a8b4 b03c 6384 86bd d13b bbbd
00000370: cfe9 293c 8861 84bd e453 d3bc 9410 86bd
00000380: cf6b 5fbc 2e4c 6abd be5b e83b fd15 c2bc
00000390: 144c e13c 22ae 33bd 26a1 acbc 7939 e1bc
000003a0: 78bd e9bc 07c4 78bd 49a8 a4bc 8828 ee3b
000003b0: 69e2 29bd be0c 14bd 9bac a2bb 4e61 543d
000003c0: cc9b c43c 3026 abbc c136 f7bc c202 cebc
000003d0: 8d07 6cbd 20b2 8dbd 558a ccbb e43c 09bc
000003e0: d639 0cbd 1eb0 653d 7ce9 893b 0c42 38bd
000003f0: b518 6fbd 9536 90bd 2074 513c d8b2 da3b
0.010779579 -0.054048385 -0.06531491 -0.06451576 -0.03250352 0.0005979022 -0.01555184 0.009853743
0.033396605 0.026294855 0.013797418 -0.03007137 0.044835486 0.017428296 -0.038864013 0.03673401
-0.06132764 0.015169214 -0.06070668 0.024339825 -0.009428658 0.026076265 0.012539875 -0.008996086
0.0030727375 0.039334677 -0.020058053 -0.0055406224 -0.060730968 -0.0037481852 -0.034012552 0.009961436
0.051423892 -0.060589198 -0.026980236 -0.05419183 0.022578005 -0.015292607 -0.058561202 0.037923705
-0.10655192 -0.08892895 -0.032079734 -0.01422996 -0.008167761 -0.07029423 0.05074472 -0.011728306
0.016807754 -0.0016874771 -0.021929977 -0.061458655 0.037093192 -0.06632339 0.013723218 0.02301455
-0.0017601966 -0.05006608 -0.06220586 0.03831359 -0.030485852 0.010359068 -0.057893805 0.027647078
-0.031108903 -0.056439698 -0.060607564 -0.06239729 -0.06979669 -0.076569475 0.04535616 -0.08660959
0.049332276 -0.0133113945 -0.0359228 -0.021238606 0.002031257 -0.018545689 -0.0827083 0.029400172
-0.08663935 -0.062679745 -0.006354496 -0.07574868 0.03637006 -0.06173751 0.0031746873 0.001603856
-0.022913424 -0.033521578 -6.5139255e-05 0.049878497 0.04982174 -0.06701835 -0.03841042 -0.03396334
-0.014263972 -0.035064347 -0.057355102 0.004899398 -0.007102092 0.015598088 -0.04540559 -0.0246083
-0.073726915 -0.04738178 -0.06917039 -0.008688099 0.022544451 0.031683046 -0.013511762 -0.0120849125
-0.054236524 0.009901174 0.021574643 0.025243886 -0.097730644 -0.0116042085 -0.062337533 0.0113725625
-0.0033525303 -0.0313312 0.043017536 0.03332209 -0.039917722 -0.036458697 0.031246163 -0.010798484
-0.08966683 -0.019342646 0.0073151784 -0.021691352 0.059973694 -0.05206452 -0.0041875113 -0.029618125
0.038555734 -0.01999461 -0.055554297 -0.044873446 0.049864747 -0.093549624 0.047683116 -0.053334247
-0.022280417 0.019413535 0.018607998 0.005204931 -0.12636425 -0.032624774 -0.09209408 -0.026477935
-0.012169547 -0.06479911 -0.092296615 -0.04966479 -0.087393485 0.026090892 -0.05341569 -0.07063343
-0.09771683 0.024841027 0.010623744 -0.092723384 -0.03033214 -0.030239873 0.007556893 0.026967075
0.018107986 -0.020860218 0.02886487 -0.043457802 -0.06579448 0.008799154 -0.047490757 -0.024407372
-0.08557474 -0.045787822 0.02692546 0.0128721725 -0.09163872 -0.014069156 -0.07016412 0.0427651
0.02477631 0.027134567 -0.06459422 -0.10147872 -0.0052647456 0.048245836 0.03256535 0.003494312
-0.055937614 -0.058774125 -0.03659419 0.009910187 -0.015610464 -0.024207233 -0.058094725 0.04605494
-0.044480983 0.018487979 0.037396494 -0.02348022 -0.03033382 0.03779215 -0.030152999 0.035698943
-0.0017639375 -0.06919039 -0.027477898 -0.07097077 0.01648778 0.021865264 -0.052093126 -0.029731728
-0.070021406 0.021570519 -0.065682195 -0.091422684 0.010370686 -0.06463915 -0.025796838 -0.06546131
-0.013636543 -0.057201557 0.0070910146 -0.023692125 0.027502097 -0.043867238 -0.021072935 -0.027493225
-0.028532729 -0.06073382 -0.020099776 0.0072680153 -0.041475687 -0.036144964 -0.004964424 0.05185061
0.024000071 -0.020892233 -0.030177476 -0.0251478 -0.05762439 -0.0691874 -0.0062420764 -0.008376334
-0.034234844 0.05607616 0.0042087417 -0.044984862 -0.05837317 -0.07041661 0.012784034 0.006674152

extractor.net.2.bias f4 [128]
00000000: 4b30 ee3c 4e95 e5bc b895 70bd 2c9b 77bd
00000010: 480c 813e 5049 cc3c a36b 13bc 8e3c 993c
00000020: 6188 a03e c287 dcbc 30a6 5f3e 618f 8e3e
00000030: 378d a83c dc51 e1bc 2652 7dbd 82c4 723b
00000040: 7e21 093e ac47 16bd 2166 f23e 103f 75bd
00000050: 13a9 84bd 4093 89bd b9b6 d9bc 0141 babe
00000060: 0fa8 afbd cb8d 1bbc 96f1 95bb 3f2f edbd
00000070: 45f2 68bd 2fc3 8ebd 0c63 cabb 3028 96bd
00000080: 4967 b73c 53d5 263d a60c 353e 0d29 43bd
00000090: 67ed 30bd 5e2d b8bc 0e12 43bd cebc 8ebd
000000a0: 2c38 b43e 19b6 75bd cc2d 24bd 80b9 78bd
000000b0: 99ac 62be 4615 f0bc 0b29 7f3c 0679 f3bc
000000c0: acd4 5b3e 540f 4cbb 1522 8e3e 4b77 693e
000000d0: 9518 adbd 06b3 1e3c bba4 093d f9bf 9c3e
000000e0: a6c9 773e 3402 f5bc d815 c33e cbe1 d63c
000000f0: 4e69 af3c 3214 c13e bd1c 973e 69fe 09bd
00000100: 2fd4 de3e 60b5 f9bc 2b83 ab3b f3c2 713e
00000110: e7ae 8cbd 2d35 dfbc c8ca 61bd 0235 88bd
00000120: 465b 0b3c ae21 3cbd 2664 94bd f5e8 a93e
00000130: ed04 c13e 757a fa3c c5d7 933e 5512 39bc
00000140: 1fd5 c63e b16e dcbc 07f1 b8bd b623 223e
00000150: a9cd 713e b5ee 9b3d 0254 3a3e f20e b13e
00000160: 801d e0bb ceb1 afbc c096 203d 8e47 a3bd
00000170: c5c1 c8bc dd68 483d 9815 3bbc 9d15 cdbb
00000180: dde9 f73b 9460 e7bd 8002 033d 9113 bd3c
00000190: 274c e13d a204 18bd 513e 9c3b ccee 0bbc
000001a0: a801 d03d 174f 973e 2a8b e4bd 5100 763e
000001b0: 244b b4bd bebb 7e3e 9ac1 2fbc 0804 a2bb
000001c0: f449 713e 3b2c b2bd aa15 ab3c 1122 af3c
000001d0: 216e ed3e 9515 a9bd 06a0 253d 6eb2 9dbd
000001e0: 9b0f 07bd 4d98 913e 7a32 5abd 4b56 323d
000001f0: 8243 a6bd f978 e73c 9e76 7b3e 67cc 583c
0.029075762 -0.028025296 -0.058736533 -0.060450718 0.25204682 0.024937302 -0.008997831 0.018705633
0.3135405 -0.026920203 0.21840739 0.27843764 0.020575149 -0.027504854 -0.06184592 0.0037043397
0.13391683 -0.036689445 0.47343543 -0.059874594 -0.06477561 -0.06717539 -0.026576387 -0.3637772
-0.085769765 -0.009494255 -0.0045759184 -0.11581277 -0.05687167 -0.06970822 -0.006176358 -0.07331884
0.022388117 0.040730786 0.17680606 -0.04764657 -0.043195155 -0.02248257 -0.04762464 -0.069696054
0.35199106 -0.059988115 -0.040082738 -0.06072378 -0.22136153 -0.029307019 0.01557375 -0.029720794
0.21467847 -0.0031137066 0.27760378 0.22799413 -0.08451954 0.009686237 0.033604365 0.30615214
0.24198017 -0.029908277 0.38102603 0.026230713 0.021412518 0.3771072 0.29514113 -0.03368989
0.43521258 -0.030481994 0.0052341423 0.23609523 -0.068692975 -0.027247036 -0.055125028 -0.066507354
0.008505648 -0.045930557 -0.07245664 0.33185545 0.3769907 0.03057597 0.28875557 -0.011295875
0.38834473 -0.02690825 -0.09030347 0.15833935 0.2361361 0.07613889 0.18196109 0.34581715
-0.006839454 -0.021447089 0.039206266 -0.07972632 -0.024506459 0.04892813 -0.011418723 -0.00625868
0.0075657205 -0.11297718 0.031984806 0.023080619 0.11000853 -0.037113793 0.004768171 -0.00854082
0.10156566 0.29552528 -0.11159356 0.24023558 -0.088033944 0.24876305 -0.010727311 -0.004944328
0.23563367 -0.086998425 0.020884354 0.021378549 0.46373084 -0.082560696 0.040435813 -0.077000484
-0.032973867 0.2843651 -0.053270794 0.043539327 -0.08118345 0.028255926 0.24556968 0.013232327

value.0.weight f4 [128, 128]
00000000: 4ef0 3c3d 3861 80bd 0b52 5f3d 72a4 3ebd
00000010: c0af 9ebf 3b43 13bd 5240 493d b296 3938
00000020: e097 83bf f3d8 1d3f 0109 23bd 4a78 a0bf
00000030: 0f37 1dbd 724f 8fbc d9de 7f3d 2c54 1fbf
00000040: 6043 19bf cd97 023d ab36 99bd 49fc 9f3d
00000050: ffc7 b03d aa1b 5a3d 7651 02bc e1e4 45be
00000060: c20b c0bd f62d d43d 77af 84bd 2518 b43e
00000070: fb99 62bd 4001 263c 0c7c 7abd 06aa 6f3d
00000080: 6f0b 0dbc c050 e63a 7391 babf 0af4 3cb9
00000090: 712f acbd 6a5b 243d 7263 99bd 6c92 c03c
000000a0: a52c ebbe 38c0 90bc 8fb3 8b3d 8ba4 83bd
000000b0: 8189 3a3d 9611 a73d f8d7 54bd 642a 9dbd
000000c0: eb27 a43d 0ff2 2dbd 4828 643d 64a7 9abf
000000d0: f95a 87be dcdb a93e 6646 f7bc 0df4 9bbf
000000e0: 3598 b4bf a8fc 5ebc 8fe6 8bbe 7701 b7bd
000000f0: 95c1 82bb 13fd 0bbe 4393 c8bf 24c1 f3bc
00000100: 5c94 8cbd 781a 18bc 3f9c 2bbe 6f9b 61bf
00000110: e149 8ebd 6fce 9d3d 0518 0a3b cbd8 68bd
00000120: b684 5d3d 90e4 c03b 68f8 443c e202 b2be
00000130: c0a9 b8bd f2f2 c6bd 2625 02bf d05b 803c
00000140: 8f43 93bd 48e0 243d 22fb 163d 11de 8abf
00000150: 14a8 a3bf dc17 1d3f 5146 e1be 2983 2fbc
00000160: 31a4 c43c a903 80be b44c b33c 47a3 583d
00000170: 52ba a03d 5cab dc3c 7c98 aa3c b639 f5bc
00000180: eea3 9dbd 45f5 21bd b517 393c 9e03 d8bb
00000190: ff8f c83d 2a9c e03d 0bc0 1a3d 0940 1d3d
000001a0: 6266 89bf 3fe7 70be 3a8f 9abc 8808 30bf
000001b0: be04 803d 44be 31be 9244 1bbd 1212 18bc
000001c0: d4be 2fbe 6be7 44bd ccff 803d 6609 f6bf
000001d0: 2476 4bbe 1860 843c 2aa3 853d a770 c9bc
000001e0: bf53 953d 81b3 d73d a092 ae3c 6ddd a7be
000001f0: 4d1c a6bd e9be 6abd 6f67 05bf 058f 05be
00000200: 5bb2 8bbc 70d6 743d b7a7 473d 0387 9fbd
00000210: c207 62bd a13f 30bd bf77 813d e532 74bb
00000220: 4bae ccbd c836 dcbd 3b6e 2f3d 36a6 43bd
00000230: 54d0 983d 2249 243d d0f0 2b3c 4971 083d
00000240: c550 40bd 643a 66bd 3317 6dbd 646c d23c
00000250: f3ec 2cbd 3dd7 973b b691 3bbd 70a6 0abd
00000260: a0bf cebb c803 82bd fa0b ebbc 68dd 853c
00000270: 58e8 9dbd 63ae 9c3d 4bde d93c 1c47 69bc
00000280: ebca bdbd 40db f5ba 3a57 6abd 00f4 fbbc
00000290: 7e3b b8bc a456 973c 211f 8abd 80cf 74ba
000002a0: 23c5 c4bd 6fb6 d2bc cce8 f23c d1c8 8cbd
000002b0: 7d0b a13d d474 6dbd 45e2 983b 1747 f5bb
000002c0: 3ed4 0abe 7859 a13c 8749 ffbd fbf1 13bd
000002d0: 435d 50bd a0bf 0d3d 7413 093d 4812 a3bc
000002e0: 8af9 a43c 92f7 a3bd 8c64 7c3c 2eab f9ba
000002f0: 9a9f 913d 6b08 2abd caa1 d73c 1575 903d
00000300: 8d23 3c3b d067 67bc 22e1 0f3c 9c12 e93b
00000310: 7dc5 9cbc 2d74 3b3d 7926 71bd d160 b03d
00000320: bacc 173d 8315 a0bd e67d c83c f97a 96bd
00000330: 3ad2 d6bd de0a 77bc ae73 b53c 819d d63c
00000340: 988d 38be 3287 3e3d 64a3 e2bc cfbb f4bb
00000350: ae64 d0bc e111 bfbd aa69 233c 0d82 9cbd
00000360: aae0 a8bd f659 3ebd 39a2 983d 1d82 97bd
00000370: 1718 05bd 3085 12bc 7d61 07bd 567a ffbb
00000380: 018a dfbc f0b5 57bd e618 383d 0711 2e3c
00000390: b6ac 543d cba3 38bd aa4d 2bbd 1ac4 173d
000003a0: f47d 25be 52a4 f9bd 4313 38bc 2096 22bb
000003b0: 6e84 cbbd a475 313d 2b0d b3bd 52b4 ee3c
000003c0: 56b0 0cbe bbd5 9d3d 8043 813d d2cc 893c
000003d0: fdb0 0abd dde2 86bd 83eb f4bc 486f 67bc
000003e0: 7ab4 55bd 32df b4bb 7075 67bd 923d 99bd
000003f0: 5c31 93bc fc75 2c3d d64d 8c3d 60c7 aebd
0.04612761 -0.06268543 0.0545216 -0.046543546 -1.2397385 -0.035952788 0.049133606 4.4247783e-05
-1.0280724 0.61659163 -0.03980351 -1.2536709 -0.038382586 -0.017493937 0.062468383 -0.6223781
-0.5986843 0.03188305 -0.0748113 0.078117914 0.08631896 0.05324904 -0.007953992 -0.19325592
-0.093772426 0.10360329 -0.0647878 0.3517467 -0.05532263 0.010132134 -0.061153457 0.058511756
-0.008608683 0.0017571673 -1.4575638 -0.00018019989 -0.08407486 0.04012624 -0.07489671 0.02350732
-0.459325 -0.017669782 0.068213575 -0.064278685 0.04554129 0.08157651 -0.051963776 -0.07674101
0.08015426 -0.042467173 0.055702478 -1.2082334 -0.26436594 0.33175552 -0.030184936 -1.2183853
-1.410895 -0.013610043 -0.2732434 -0.08935826 -0.003990362 -0.13670759 -1.5669941 -0.029755183
-0.06864235 -0.009283654 -0.16758822 -0.881278 -0.06947685 0.0770539 0.0021071446 -0.056847375
0.05408164 0.005886622 0.012022115 -0.34767824 -0.09016752 -0.09714307 -0.50837934 0.01566878
-0.0719062 0.040252954 0.036860593 -1.0849019 -1.2785668 0.6136453 -0.4399896 -0.010712423
0.024004074 -0.25002792 0.02188716 0.05289009 0.07848038 0.02693718 0.020824663 -0.029934745
-0.07697283 -0.039540548 0.011297156 -0.006592228 0.0979309 0.10967286 0.037780803 0.038391147
-1.073437 -0.23525713 -0.018867124 -0.6876302 0.062509045 -0.17357737 -0.03790719 -0.009281652
-0.17162639 -0.04807226 0.062987894 -1.9221618 -0.19869286 0.016159102 0.06525262 -0.02458985
0.07291364 0.105322845 0.02131015 -0.32786122 -0.08110867 -0.057310972 -0.5211095 -0.13042839
-0.01705282 0.059774816 0.04874393 -0.07789423 -0.05518318 -0.04302943 0.06321668 -0.003726178
-0.09994181 -0.10752636 0.042829733 -0.047765933 0.074616104 0.040108807 0.010494426 0.033311162
-0.046952028 -0.05620803 -0.057883453 0.02568645 -0.04221816 0.0046338127 -0.045793258 -0.033850133
-0.0063094646 -0.063483775 -0.028692234 0.016340926 -0.07710332 0.07650449 0.026595255 -0.014238145
-0.09267219 -0.0018757358 -0.057212092 -0.030755997 -0.022489306 0.01847393 -0.067442186 -0.0009338781
-0.09607913 -0.025721757 0.029652022 -0.0687424 0.07863519 -0.057972744 0.0046656453 -0.007485281
-0.13557526 0.019695982 -0.12465196 -0.036119442 -0.05087019 0.034606576 0.033465818 -0.019906178
0.02013852 -0.08006205 0.015404832 -0.0019048208 0.0711052 -0.041511934 0.026322264 0.070535816
0.0028707713 -0.014123872 0.008781703 0.007112814 -0.019137139 0.04576509 -0.05887458 0.08612216
0.037060477 -0.07816603 0.024474096 -0.07347674 -0.10489316 -0.0150782745 0.022149887 0.02619815
-0.18022764 0.04651565 -0.027665801 -0.0074686776 -0.025438633 -0.09329582 0.009973923 -0.07641993
-0.08245976 -0.046472512 0.074528165 -0.07397864 -0.032493677 -0.008942887 -0.033051956 -0.007796566
-0.027287485 -0.052663743 0.04494562 0.010624177 0.051922522 -0.04507808 -0.041822113 0.03705225
-0.16161329 -0.12189545 -0.011235061 -0.002480872 -0.09937368 0.04332508 -0.08742746 0.029138718
-0.13739142 0.077067815 0.06311703 0.016821299 -0.033860195 -0.065862395 -0.029897457 -0.014125653
-0.05217407 -0.005519771 -0.05650848 -0.07482447 -0.017967872 0.042104706 0.068507835 -0.085341215

value.0.bias f4 [128]
00000000: 2ae4 95be fc55 a3bc 9956 943d 3757 e5bd
00000010: 3934 15be eb68 363e 0fc0 57be d3e1 cabd
00000020: e745 4a3f 4ff2 46bd 8d3f 12be 79ae 2f3f
00000030: dc68 cbbd 1417 e73d 31e5 513f a622 bebc
00000040: a530 19be 22f6 2fbd 9a66 5e3d 7a03 d83d
00000050: bf27 363f 1ddb 283f c353 473c 20c9 0dbe
00000060: 3a50 56bd 6818 02be 89ed b83b 7b28 1b3e
00000070: de3c 84bc 6e3c 2e3f 4004 c4bd d585 153d
00000080: 885b ddbd e6a6 3b3f 757a d03b 12d4 15be
00000090: c405 b6bd aaa7 48be bcf6 89be 75a2 29bd
000000a0: 5a11 bcbc 4de9 3e3f ffa1 10be be41 c8bd
000000b0: 0b86 6bbe 8344 373e 2483 ddbd 7246 debd
000000c0: 6fa1 433f 4d48 893d 45f1 02be af9c 263f
000000d0: 4b86 0dbe 79e9 42bd 2f86 07be c93d efbd
000000e0: 74f5 25be 4cdf 39bd 4e17 e1bd 8324 133d
000000f0: 0d6a 083d c284 d13c d9c0 2b3d b3fa e53c
00000100: 7e9b a6bc 2d5b f7bd ea13 92bd 72e5 56bb
00000110: b489 04be 3634 d6bd 2123 47be 00ed 173f
00000120: 65f7 4f3f 5e80 23be 620c 88bd 9fbe 6bbd
00000130: c7a6 2c3f fa7d 2e3f f3f2 2cbe 4232 f63d
00000140: 63d7 21bd 639e 983e f3f8 3a3e 3a81 d73c
00000150: 9906 88bd 685a a0be f32c d63e 8e24 85bd
00000160: 168b 87bd 6805 12bd b537 383f e0da 63be
00000170: 68b2 83bc 1e5e e6bd 745a 303e ee9e 3e3f
00000180: b3bc 473f e8bf 313f e256 15be 50a5 303c
00000190: 2935 523f 795b b83e aed1 4b3f 0afd 253e
000001a0: 28ed 96bd f1ae d7bd 3ba2 b3bd cf3d 84bd
000001b0: 1d59 523b 6a5e f23d 18d6 11be 7334 713d
000001c0: 7c87 6c3e c5cf 1c3d b049 a9bd 91aa 313f
000001d0: 690c 273c aaac 273f 3041 3ebd bb77 e8bd
000001e0: 0e8c 223f c8c9 44bd 5be2 70bd 9388 373d
000001f0: 2a4b d9bc 8457 433f 2809 f6bd 5ad9 88bd
-0.29275638 -0.019938461 0.0724308 -0.111982755 -0.14570703 0.1781346 -0.21069358 -0.09906354
0.7901291 -0.048570927 -0.14282055 0.686256 -0.0993211 0.11283699 0.81990343 -0.023209881
-0.14959963 -0.04295934 0.054297067 0.10547538 0.711544 0.6595934 0.012165966 -0.13846254
-0.052322604 -0.12704623 0.005643551 0.15152161 -0.016142305 0.6806096 -0.09571123 0.036504585
-0.10808474 0.7330154 0.0063622543 -0.1463168 -0.088878185 -0.19595209 -0.26946056 -0.041414697
-0.022957493 0.7457474 -0.14124297 -0.09778164 -0.23000352 0.17897229 -0.10816029 -0.1085328
0.76418203 0.067032434 -0.1278735 0.6508283 -0.1382076 -0.047585938 -0.1323478 -0.116817065
-0.16206914 -0.045378968 -0.10990773 0.035923492 0.033304263 0.025576 0.04193196 0.028073644
-0.020337816 -0.12077937 -0.071327046 -0.0032790569 -0.12943155 -0.10459177 -0.19446994 0.5934601
0.8123687 -0.15966937 -0.06642987 -0.057554837 0.6744198 0.68160975 -0.16889553 0.12021305
-0.03951205 0.2980834 0.18259029 0.026306737 -0.066418834 -0.31318974 0.4183117 -0.06501113
-0.066183254 -0.035649687 0.7196 -0.22251463 -0.016076282 -0.1124842 0.17222005 0.7446126
0.7802231 0.6943345 -0.14583924 0.010781601 0.82112366 0.36007288 0.7961682 0.16209808
-0.07369453 -0.10531414 -0.087711774 -0.064571016 0.0032096573 0.11834414 -0.14241827 0.05888791
0.23098558 0.038284082 -0.08266008 0.6940089 0.01019583 0.6549784 -0.046448886 -0.11350962
0.63494956 -0.048043996 -0.05880962 0.04480798 -0.026525099 0.76305413 -0.12013465 -0.066820815

value.2.weight f4 [1, 128]
00000000: c2dd 38bf 8613 663c c021 78bb 4e6b 1c3a
00000010: e16e 02bc 1021 3a3e b3d6 5ebf 3b0e 0ebf
00000020: b9d5 5b3e 8c05 d0be 2de4 cabb fbf0 693e
00000030: aef3 94bb 020e 96bf ebc9 913e 3ccd 153d
00000040: a949 923c d1f9 99bc c69b f8ba a1a7 c43e
00000050: b840 4a3e 01c0 813e 9fde 82bc 6d3b 0ebd
00000060: fe97 7b3c 74cd 49bb 5404 17bc c3fd 61bf
00000070: 9380 f5bd 0926 683e 2bf9 cfbc 5ec4 b0bc
00000080: d68e 80bb ef18 503e 63a4 553c 0dea 9cbc
00000090: 9d40 a9bc b647 14bf 39a7 07bf 858d e53d
000000a0: 082f 2abd a801 7c3e 06ea bfbc f171 783c
000000b0: eced 61bf 4c17 f63d 9db4 223c 83f9 823c
000000c0: 698e 693e e678 78bf c59f 80ba 2fa1 1a3e
000000d0: cae8 d2bf 1eca fc3e acdd bdbc bb5a d63b
000000e0: 8e86 103c 2b5f 93bb bf0a 81ba 0b77 13bd
000000f0: e90c e03c be4a 73bc 4656 88bc 1407 e1bb
00000100: ffe4 bf3c c494 03bc 0fda ec3b 1e84 e1bc
00000110: 6b0e f2bc 61fe 7f3c 0044 943f b463 c43e
00000120: 7612 8d3e 35a4 08bf 8c58 c6be ab05 d23c
00000130: 4737 073e 3957 0e3e 7a36 8e3c ea6f 4abc
00000140: 9dc0 bb3d e1aa 41c0 e263 923f 11f9 55bc
00000150: 2673 8a3a 9afe 95bf e919 eb3e 55f5 71bf
00000160: d0ad de3c 4b75 ca39 89a3 433e 6111 93bf
00000170: bbab c8bb 25a2 1bbf e805 bbbf cac2 7b3e
00000180: aa69 643e a96e f93d 596a 82bc 72cd 2abb
00000190: ad7a 973e d7df 6c3f 6927 7d3e 62aa 66bf
000001a0: efe1 25bc 297f 60bc d2df 4a3d a9fe 1f3b
000001b0: d8c2 09bd d111 e0bf 4cb3 f0bc 692b b43f
000001c0: 265c 84bf e34f 5dbd 826c afbc 324a 403e
000001d0: 585f 8aba 01cb 123e 31c7 823c 1a4e e8bd
000001e0: 75bc 183e c4e8 383d 50e7 cebc 712a e43c
000001f0: d564 943e d5e8 803e 22ad d7bf 5d83 07bc
-0.72213376 0.014042741 -0.0037861913 0.00059669174 -0.007961006 0.18176675 -0.87046355 -0.55490464
0.21468247 -0.40629232 -0.0061917515 0.22845833 -0.0045456504 -1.1723025 0.28474364 0.03657268
0.01785739 -0.01879588 -0.0018967323 0.3840914 0.1975125 0.253418 -0.015975295 -0.03472464
0.015356062 -0.0030792626 -0.0092173405 -0.88277835 -0.11987414 0.2267076 -0.025387367 -0.02157801
-0.0039232774 0.20322011 0.013039681 -0.019154573 -0.020660693 -0.5792192 -0.52989537 0.11208633
-0.04154876 0.24610007 -0.02342702 0.0151638845 -0.88253665 0.12016162 0.009930757 0.015988117
0.22808231 -0.97059476 -0.000981324 0.15100549 -1.6477292 0.49372953 -0.02317699 0.0065415776
0.008821143 -0.004497429 -0.0009845122 -0.0360022 0.027349906 -0.014849363 -0.0166427 -0.006867299
0.023424624 -0.008031074 0.007228143 -0.027528819 -0.02954789 0.0156246135 1.1583252 0.38357317
0.27553147 -0.5337556 -0.3873943 0.025637468 0.1320468 0.1390046 0.01735996 -0.012355784
0.091675974 -3.0260546 1.1436732 -0.01305987 0.0010562881 -1.1718323 0.45918205 -0.9451497
0.02718249 0.00038615832 0.19105352 -1.1489679 -0.0061239875 -0.6079429 -1.4611177 0.24586025
0.22305933 0.1217931 -0.015919851 -0.0026062396 0.29585782 0.9252905 0.24722065 -0.90103734
-0.010124668 -0.013702192 0.049529858 0.0024413264 -0.033633083 -1.7505437 -0.02938237 1.4075748
-1.0340621 -0.054031264 -0.021414045 0.18778303 -0.0010556979 0.14335252 0.015964122 -0.11343022
0.1491564 0.045143858 -0.025256783 0.027852269 0.2898318 0.25177637 -1.6849711 -0.008271066

advantage.0.weight f4 [128, 128]
00000000: b55b b4bd ee1f 86bd 205b 233b 990e 9e3d
00000010: 5b9e f13c e099 45bd 5575 aa3d 9850 083d
00000020: ee85 30bd abe4 1dbd b332 91bd 74f6 6f3c
00000030: fc39 a43c 4898 35bd a88f 98bc c51c cfbd
00000040: 7585 9fbd 6388 9d3d 17b8 c3bc 1011 34bd
00000050: 769c f63c c8bb f83c 54d3 a23c 3a62 b0bd
00000060: 9800 7a3c b4fc 003d f56b 00bd fc34 c8bc
00000070: 94b7 a93c 33e3 b13d 8154 8fbd dcd5 83bc
00000080: 35ab aabd ba06 483d c4c8 90bd 40f0 99bc
00000090: c1ca 83bd 22e9 abbd 007f e039 7d0a 913d
000000a0: 4a2c 78bd 0aed a0bd ec06 9dbd 583c 77bd
000000b0: bc2f f33c 063c 243d a8b3 103d 205d 163b
000000c0: 7e18 50bd 60dd a03c c45f 60bd d8ed 63bd
000000d0: aaee 7d3d e01e 2abc 465f 96bd 1d14 b0bc
000000e0: cc90 99bd 34ca 97bd 04be 013d 9f1d 46bd
000000f0: e144 84bd 1d69 bebd 9b4c f7bd 00e9 18bd
00000100: 9887 3bbd c020 71bd 4e0d 6e3b e05d 80bd
00000110: f3c2 88bd dafe 3e3d b82d 50bc 3008 6bbd
00000120: 8876 5abc 409f fdba c9b8 85bd e0fa 483d
00000130: c01e 093d a5ab d2bb 6bdb 1abd 4879 183c
00000140: 6ba5 5e3d bd0c 983d f205 7ebd 4020 a9bc
00000150: b9ec 01bd 8655 253d f848 ab3c 2b3c b4bd
00000160: 03af 5abd d441 e33c 40be 62bb 06c3 6abd
00000170: 0697 353d 6064 373b 6615 14bd c00f debb
00000180: 100c 34bc ce09 91bd be77 213d c0be 753b
00000190: 2247 85bd 80c0 343a b03a c83b e746 903d
000001a0: 59f3 c7bc 8638 393d 4db7 bbbd 39bc 05bd
000001b0: 7551 62bd 1f7b 633c 5897 2abd 3b20 a13d
000001c0: bb77 f83b d5c6 d73c 74ad 983c b9df a1bc
000001d0: a7fc b1bc dea8 073d 1690 773d 25a2 66bd
000001e0: 0a93 5f3d e364 6a3c 2508 8d3d 8ef2 303c
000001f0: e18c 853d c3a3 5bbd d068 283d 18c0 34bd
00000200: 2e0c a0bd f486 7d3d 6665 183d cd2a 38bd
00000210: c7b4 95bd dda1 e03c 4a4f 273d b315 c0bd
00000220: aa56 f3bd 7425 6cbd 6a1c 2dbd 23a7 55bd
00000230: 34fc b7bd 7da7 4dbc da9c d6bc 0553 e43b
00000240: 1e96 ba3c 1af3 433d 44ac 0dbe 68be 823c
00000250: d965 923d 9b24 65bd 5d33 a73d 4f5f 09bd
00000260: ccc5 803c fa84 bcbb 3fbf 5ebd 3155 a6bd
00000270: f842 203c 32c9 603d e742 b6ba 4684 7d3d
00000280: 3e74 a9bb 3065 dc3b 2efd a8bd 9547 59bd
00000290: 02ad f3ba 0ade 6b3d 9072 65bd d8d0 8fbd
000002a0: 3ec4 c3bd c3fc 54bd 2736 6c3d a976 a63d
000002b0: b82f 87bd 5cc3 9b3c b24a f03c 58ea 37bc
000002c0: 2f1f 52bd f96e 9b3d 6e9e b8bd ada7 063d
000002d0: a965 aebd 9bc7 97bd 6550 d23c 6a58 e8bc
000002e0: 7a7e b6bd b10b a63d 96ed 4bbd 8fdc 9b3d
000002f0: 2600 40bd 6d91 64bd 34fb e0bd 400b 9aba
00000300: ba02 18bd 3aa9 573d f3ff 2b3c bbcf db3b
00000310: 0add 813d faf9 8fbd b482 1dbd 1a97 5f3d
00000320: 00ab 183b b2b3 a9bd b2a0 053d 5800 033c
00000330: a150 acbd fe08 053b 102c cabd aa7b 5f3d
00000340: d2e9 08be 7f80 a03d 81e4 adbd 4827 73bd
00000350: 45e1 e3bd 07ec 273c b93d a7bc d924 d03c
00000360: 7227 a2bd 6c2a 57bd 49b7 783d 10c9 9fbb
00000370: 73d0 523d 418f 99bd 7fa4 a6bd ad74 8abc
00000380: b632 1f3d 7c8f 16bc a989 b53d c840 00bd
00000390: 0010 95bc 462a 8f3d dfb5 b33d 0674 7b3d
000003a0: a7dc a13b e1df 97bc fccb c13d dc97 bdbb
000003b0: b8bd 29ba 1828 3fbd 079d 1fbd 57fb 923d
000003c0: 6ab3 c2bd 602e 1bbc 6f90 b0bd 2358 c8bc
000003d0: 1870 63bd 4c63 a53c 61a7 8fbd 9c44 903c
000003e0: 815c b3bd c82d 84bd 900b e23b 0957 3fbd
000003f0: 0052 30bb a1a9 a53d 525a 923d 51ed 3cbd
-0.08806554 -0.06549059 0.002492614 0.07717628 0.029494455 -0.04824245 0.083231606 0.033279985
-0.043096475 -0.038548153 -0.07089748 0.014646161 0.02004718 -0.04433468 -0.018623188 -0.10112909
-0.07789127 0.07692029 -0.023891492 -0.043961585 0.030103903 0.030362979 0.01987616 -0.08612485
0.015258931 0.031490996 -0.031352956 -0.024439327 0.02071742 0.08685913 -0.0699854 -0.016093187
-0.083334364 0.04883454 -0.07069543 -0.018791318 -0.064351566 -0.08394076 0.00042819232 0.070820786
-0.060589112 -0.078577116 -0.07667336 -0.060360283 0.029685847 0.040096305 0.035327584 0.002294369
-0.050804608 0.01963681 -0.05477883 -0.055646747 0.061995186 -0.010383338 -0.07342391 -0.021493966
-0.07498321 -0.07411614 0.031675354 -0.048368093 -0.0645845 -0.092973925 -0.12075158 -0.03733158
-0.04578361 -0.058869123 0.0036323848 -0.06267905 -0.066778086 0.046629764 -0.012706213 -0.057380855
-0.013333924 -0.0019349828 -0.065293856 0.049067378 0.03347659 -0.006429153 -0.03780691 0.009306259
0.054356974 0.07424305 -0.06201739 -0.02064526 -0.031719897 0.040364765 0.020908818 -0.08800539
-0.05338956 0.02774135 -0.003459826 -0.057314895 0.04433348 0.0027983412 -0.03615322 -0.00677678
-0.010989204 -0.07081948 0.039420836 0.003749773 -0.06507708 0.000689514 0.0061105117 0.070447735
-0.02440803 0.04521992 -0.09165821 -0.032650206 -0.055253465 0.013884335 -0.04164824 0.078674756
0.0075826324 0.026339928 0.018637396 -0.01976 -0.02172692 0.03312003 0.060440145 -0.056306977
0.054583587 0.01430628 0.06886319 0.010800017 0.06521011 -0.053622972 0.041115582 -0.044128507
-0.07814823 0.06189628 0.037206076 -0.044962693 -0.07309871 0.027420932 0.0408471 -0.09379139
-0.11881764 -0.057652906 -0.042263426 -0.052161347 -0.08983651 -0.012552139 -0.02619784 0.0069679045
0.02277666 0.04783926 -0.13835245 0.015959933 0.07148332 -0.055943113 0.08164094 -0.03353816
0.015719317 -0.0057531567 -0.054381605 -0.08121718 0.009781592 0.054879375 -0.0013905436 0.061893724
-0.005171328 0.0067259297 -0.08251415 -0.05304678 -0.0018590989 0.0575848 -0.05601746 -0.07022256
-0.095589146 -0.051998865 0.05766883 0.081281014 -0.066008985 0.019014053 0.029332493 -0.0112253055
-0.05129927 0.07589526 -0.09014593 0.03287475 -0.08515484 -0.074111186 0.0256731 -0.028362472
-0.08910842 0.08107699 -0.049787126 0.076104276 -0.04687514 -0.05580275 -0.10985413 -0.001175262
-0.037111975 0.05265162 0.010498035 0.006708113 0.06340988 -0.07030101 -0.038454726 0.05458746
0.0023295283 -0.08286227 0.032623954 0.007995687 -0.08413816 0.002029955 -0.098716855 0.054561295
-0.13370445 0.07837009 -0.08490849 -0.059363633 -0.11126951 0.010249144 -0.020415174 0.025408195
-0.0791768 -0.05253069 0.06072167 -0.0048762634 0.051468324 -0.07498027 -0.08136844 -0.016901338
0.03886672 -0.009189483 0.08864147 -0.03131178 -0.018196106 0.06990485 0.087749235 0.061389945
0.004939634 -0.018539371 0.09462735 -0.0057859253 -0.00064751087 -0.046669096 -0.038968112 0.071768455
-0.09506877 -0.009471506 -0.086212985 -0.02445609 -0.055526823 0.02018895 -0.07014347 0.01761084
-0.08757878 -0.064540446 0.006898351 -0.046713863 -0.0026904345 0.08088995 0.071461335 -0.04612476

advantage.0.bias f4 [128]
00000000: 4c33 eabd 7651 4dbd 4fd5 ef3d 983a 03be
00000010: e4a5 24be 0479 39be 0fc7 c53b a6e3 08bc
00000020: 7c2c 233d 934f afbd 400b 8c3c 5e8a 3b3b
00000030: 4578 bfbd bede fcbd 3ce7 93bd 6717 cdbd
00000040: 64ae f1bb c0f7 b4bd dfb8 98bd 5a18 03be
00000050: 018a 3c3e bfb2 4a3d 11b7 2f39 c44a 09be
00000060: 4ed2 4ebd e283 59bd 4167 5ebc 645a f7bc
00000070: 37ab 01be ec73 9abd 072a 4ebd 62b5 b3bd
00000080: dd5c 9cbc 8f0b f5bd 46b0 36be 47e9 c7bc
00000090: 3005 2f3d c4ba db3b 24e4 95bd c5d9 263e
000000a0: 2514 65bc f6ea f63d bec9 1abe 3971 ac3d
000000b0: 8511 e4bd 8190 dabb 9eaf 933d 4909 a3bd
000000c0: d01c 023d da26 61bc 0ad3 32be c45e 03be
000000d0: 27a1 f4bd a13d babd 5dd0 b7bd 9670 223e
000000e0: 7355 b5bd 2620 73bd 0824 25bd 7776 37bd
000000f0: f2bf 983c f94d febc 0740 57bd 9f57 97bd
00000100: d5e6 0fbd 47e3 e6bd 831b 53bd 4371 fcbc
00000110: 16b0 d2bd 5f3e 613d 4f95 00ba aabf 9a3c
00000120: fd61 79bd 0c56 9c3d ba18 3bba 518b 4abe
00000130: 2538 f2bb 1b1f f83c b130 5cbe 3b70 d6bb
00000140: 96c6 c0bd 8dcf 43bd 4da4 edbd 342a 06bd
00000150: 2b46 86be 0dbb c3bd 35d3 213e 20b8 96bd
00000160: bd28 aebd fb46 0d3e a5cd e3bd 218c 41bd
00000170: 3dd2 5bbd 35ee efbc e01b ac3d 0e72 5b3c
00000180: 9e90 5c3d f90e cebd 0207 e9be ad74 c13b
00000190: 7d66 29be 0c96 b6bd 9ac8 1ebe 4586 83bc
000001a0: e076 88bd cc19 2c3b 435b b3bd 886b f4bd
000001b0: 33e5 03be 5a53 883d 2f7b 42be 5684 33bd
000001c0: 2888 b3bd a58f 99bd 9cf0 87bd 936e 02be
000001d0: 3a2c 0abe 0839 813e 73d0 55be e896 9f39
000001e0: d442 1ebe a466 bd3c 0927 033d 5860 f6bd
000001f0: 5ebb cf3c 998b 39bd e0ce d0ba d934 f9bd
-0.11435565 -0.050126515 0.11710607 -0.1281532 -0.16078907 -0.1811257 0.0060356925 -0.008355057
0.039837345 -0.085600995 0.017095208 0.0028616409 -0.093491115 -0.12347172 -0.07221839 -0.10014229
-0.0073755253 -0.08836317 -0.07457136 -0.12802258 0.1841202 0.04948687 0.00016757498 -0.13407427
-0.05049353 -0.05310429 -0.013574422 -0.030194469 -0.1266297 -0.075416416 -0.05033305 -0.087748304
-0.01908725 -0.11965095 -0.1784068 -0.024403227 0.042729557 0.006705614 -0.07318905 0.1629401
-0.013981854 0.12056534 -0.15116021 0.08420033 -0.11136154 -0.0066700582 0.07211231 -0.079607554
0.03176576 -0.013742173 -0.17463318 -0.12829119 -0.119448 -0.09093786 -0.08975289 0.1586326
-0.08854189 -0.05935683 -0.040317565 -0.04479071 0.018646214 -0.03104304 -0.052551296 -0.07389759
-0.035132248 -0.112738185 -0.05153991 -0.030815726 -0.10287492 0.054991122 -0.0004905061 0.01889022
-0.060884465 0.076336 -0.00071371684 -0.19779707 -0.007391947 0.03028827 -0.2150295 -0.0065441406
-0.09412877 -0.047805358 -0.116036035 -0.03275509 -0.2622541 -0.095571615 0.15803225 -0.07359338
-0.08503864 0.13796608 -0.11123208 -0.047252778 -0.053667296 -0.02928839 0.08403754 0.013393892
0.053848855 -0.100614496 -0.4551316 0.0059038014 -0.16543002 -0.08915338 -0.15506211 -0.016055236
-0.066632986 0.0026260493 -0.08757641 -0.119345725 -0.12880401 0.06656523 -0.18992303 -0.043827377
-0.08766204 -0.07498101 -0.066376895 -0.12737493 -0.13493434 0.25238824 -0.20880298 0.00030439277
-0.1545518 0.023120232 0.03201965 -0.12030095 0.025357898 -0.045299146 -0.0015930794 -0.12168283

advantage.2.weight f4 [2, 128]
00000000: 7523 a5bc a015 c7bb 1bc5 bdbf d0b2 0fbd
00000010: 6a0e 61bd 742b 0b3f b168 203d a2eb 983f
00000020: 2230 5dbe 27d1 4abd 6256 b9bc 0301 00bd
00000030: d4ad 70bc d086 74bd ab02 72bd 109f 04bd
00000040: 78d9 96be 910d 38bd 5942 1d3e f371 31bd
00000050: 5d81 b53f 10c8 6d3f 8d84 96bf 85b8 7abb
00000060: 24e0 89bb 0f9d 70be b49a 9fbf 85c7 933c
00000070: b016 c8bc 9f9e 68bb 63df 0d3f 0abe 4c3d
00000080: d27c 20be 061a f3be ffc1 8a3d 9d21 45bf
00000090: ad44 733c 94ed 42bf fd00 4f3f 81dd b8be
000000a0: 22da 723d 7560 93bf 2f49 97bd ae1d 87bf
000000b0: a692 f03c bb9e 03bd 58f0 63bf 2b21 8f3e
000000c0: 2956 393f 8bd4 f23c 651e 8abc 1db3 40be
000000d0: 6997 bfbc 89e6 6d3d fd1a d8bb cea3 0840
000000e0: 7bf1 bd3e 1152 17bc 1e8f 89bc 1fe7 823c
000000f0: f1fa c0bc 57a7 c6bb bdde 153f b8e7 42be
00000100: ce2d 643c 64d1 ad3f 98fd 98bb 105d 323c
00000110: 6dd8 543d 55dc 9d3d 810e 96bd a866 51bc
00000120: 5fd4 ab3c 2759 3d3e 155e 9f3c b68d a6bf
00000130: 3722 a9be 7503 80bd 547e 1cbf 171c b63e
00000140: cc7a db3b da00 963d b529 e53c a23b 25bf
00000150: 8756 183e 31a2 0bbd 4082 833f 7e39 5b3d
00000160: b967 e03c af53 483f 2ddb d33d 24fd 25bf
00000170: 7f19 9ab9 1792 93bd 530e e1bf 11d0 44bd
00000180: a718 bf3e 80e1 60bc 5a5e ac3f f09b ffb8
00000190: 3e3f 03bd b1b2 473f 4e8f 623c 0ef5 1e3c
000001a0: 05b6 09bc 86c3 d1bf e032 1a3d 5a20 bebb
000001b0: 71e7 95bd f503 223d e3a2 63bf 3910 963d
000001c0: fb74 823e 0548 5dbc f333 a03f e320 b33d
000001d0: ee11 943e 5125 08bf d9f1 a23e e592 1d3d
000001e0: 016d d43b d230 af3b 17a8 6b3f 0bd5 3c3c
000001f0: 5cbf 5abc cae6 30bf 7493 fa3c 40bc 493d
00000200: f6d5 8ebd 44a0 86bd c2c1 cc3f abf6 31bd
00000210: aedd 37bd 3c18 13bf 23be c43d 701a a4bf
00000220: 4ab0 2c3e 186f 28bc 6513 c6bd 62ad e1bc
00000230: eac7 183d adcd 37bd 19de ddbd 0dea 28bd
00000240: d80b 6e3e ab7b 21bd e3bd 58bd 6b84 203b
00000250: b45b a7bf 9661 81bf c4a9 a33f c6f6 fabb
00000260: 13bc 023d 7b40 0b3e deb8 8f3f 46bc c93b
00000270: 7daf 43bd 7bc2 2fbd 4503 03bf 82b2 8fbc
00000280: ee54 843e ddc4 cf3e 2fd0 a23d b766 2b3f
00000290: c0dc 963d 1ae7 383f fcf7 3abf d5e0 c43e
000002a0: a41d e93c 919e 8a3f 4c45 9abd 1651 813f
000002b0: c00a 7b3d 862e a3bc 64a7 813f 0753 b4be
000002c0: 4620 1abf f101 503d c7eb d9bc 6cc0 e23d
000002d0: 4196 d43c e964 813d 61b9 4a3b ff02 08c0
000002e0: b87b e6be e7b8 94bc 5776 9abd f7ec 45bd
000002f0: 1172 a43d 560e 3dbc 0d49 1ebf 5d35 773e
00000300: d131 9dbc 1ed0 aebf 8fa0 ecbc b0ca f93c
00000310: 877e c23d 348b 903d 3935 be3d 8c7e c03d
00000320: 947c b8bc f944 38be 1c2a bb3a a48e b03f
00000330: 07ea b43e 12c6 e6bc 144e 2c3f dfd9 8abe
00000340: c45e 063d 1e60 dbbd 2e8b c63c 48e1 223f
00000350: b0c8 86bd c65e 49bc ca5c 83bf d823 c2bd
00000360: 88ab 943d d5d1 67bf 96ab 253d d2f3 043f
00000370: 7f40 093d c0ea ddbc 03b3 dc3f c776 95bd
00000380: 5ebf c9be 90a5 b5bb d526 b7bf 2ed9 e2bc
00000390: 2e9d 083d 7d5a 56bf 85af 953c 4029 e93c
000003a0: 0220 38bd ba29 dd3f 6bcb ccbc 6b24 dfbc
000003b0: 0f22 12bd 521c 32bc 298c 653f 6192 223b
000003c0: 090a 9abe 61ca 97bc ebba 9fbf 12e6 963d
000003d0: 7fdd 8abe 9fa9 dc3e c0f3 b7be e85f 82bd
000003e0: 3811 01be e7cf 3a3d d12d 72bf 3c4d 063d
000003f0: 7e1f e03a e16c 0e3f f99d 6f3d 35ee b33d
-0.020158509 -0.006075576 -1.4825777 -0.03508264 -0.054945387 0.5436318 0.03916234 1.194691
-0.21600392 -0.04951587 -0.022624198 -0.031250965 -0.014689881 -0.05969888 -0.059084576 -0.032378256
-0.2946279 -0.044934813 0.15357341 -0.04332156 1.4180104 0.92883396 -1.1759201 -0.0038256955
-0.004207628 -0.23497413 -1.2469087 0.018039474 -0.02442488 -0.0035494936 0.55418986 0.049985923
-0.15672615 -0.47480792 0.06775283 -0.77004415 0.014847917 -0.76143765 0.80860883 -0.36106494
0.05929006 -1.1513811 -0.073870055 -1.0555933 0.029366802 -0.0321338 -0.8903861 0.27954993
0.72397095 0.029642364 -0.016860196 -0.18818326 -0.023387628 0.058081184 -0.006595014 2.1349978
0.37098297 -0.009235875 -0.016791876 0.015979348 -0.023557158 -0.006062429 0.58542997 -0.19033706
0.013926936 1.3579526 -0.0046689026 0.010886446 0.051964212 0.077080406 -0.07326985 -0.012780823
0.02097529 0.1849104 0.019454041 -1.3011997 -0.33033916 -0.062506594 -0.6113026 0.35568306
0.006697988 0.07324381 0.027973989 -0.6454412 0.14876758 -0.034090225 1.0274124 0.053521626
0.027393209 0.7825269 0.10344539 -0.64839387 -0.00029392165 -0.07205599 -1.7582496 -0.04804999
0.37323496 -0.013725638 1.3466294 -0.00012188393 -0.032042734 0.78007036 0.013828112 0.00970198
-0.008405213 -1.6387794 0.037646174 -0.0058021965 -0.073195346 0.039554555 -0.8892042 0.07327313
0.25479874 -0.01350594 1.2515854 0.08746507 0.2891993 -0.5318194 0.3182514 0.038470168
0.006482721 0.005346396 0.9205336 0.011525403 -0.013351288 -0.69102156 0.03058789 0.049251795
-0.069744036 -0.06573537 1.599663 -0.04344813 -0.044889145 -0.57458854 0.09606578 -1.2820568
0.16864124 -0.010280393 -0.09671668 -0.027548496 0.037300028 -0.044873882 -0.108333774 -0.041238833
0.23246706 -0.03942458 -0.052915465 0.002449299 -1.307486 -1.0107906 1.2786183 -0.007658812
0.031917643 0.13598816 1.1228292 0.006156477 -0.04777478 -0.04291008 -0.51176864 -0.017541174
0.25846046 0.40579882 0.07949864 0.66953605 0.073663235 0.72227633 -0.73034644 0.38452783
0.028456517 1.0829641 -0.075327486 1.010287 0.06128955 -0.019919645 1.0129209 -0.35219595
-0.60205495 0.0507831 -0.026601685 0.11071858 0.025950553 0.06318075 0.0030933248 -2.1251829
-0.45016265 -0.018154575 -0.07542103 -0.04832169 0.08029569 -0.0115390625 -0.61830217 0.2414145
-0.019188793 -1.3657262 -0.028885154 0.030492157 0.094967894 0.07057801 0.09287495 0.09399137
-0.022520341 -0.17995061 0.0014279517 1.379353 0.353348 -0.02817062 0.6730664 -0.27119347
0.03280522 -0.10711692 0.024236288 0.63625 -0.06581247 -0.012290662 -1.0262692 -0.09479493
0.072592795 -0.90554553 0.04044684 0.5193454 0.033508774 -0.027089477 1.724213 -0.072980456
-0.39403814 -0.005543418 -1.4308726 -0.02769145 0.033353023 -0.83731824 0.01827217 0.028462052
-0.0449524 1.7278359 -0.024999341 -0.027239045 -0.035677012 -0.01087101 0.8966699 0.0024806487
-0.3008578 -0.018529119 -1.2478918 0.07368101 -0.27122113 0.4309816 -0.35928154 -0.06365949
-0.12604225 0.045608427 -0.9460116 0.0327885 0.0017099229 0.55634886 0.058500264 0.08785669

advantage.2.bias f4 [2]
00000000: 9804 d73e 222c efbe
0.41995692 -0.46713358
