test_for_cleanRL/models/dueling.pt (torch, 274751 bytes, 11 tensors)

extractor.net.0.weight f4 [256, 4]
0	0x3f16817f	0.58791345
1	0xbea39f46	-0.31957453
2	0x3dc704fd	0.09717748
3	0xbe851884	-0.25995266
4	0x3d07af97	0.03312644
5	0x3ee7e479	0.45291498
6	0x3e4bc3b7	0.19898878
7	0x3dadd60f	0.08488094
8	0xbeacb390	-0.33730745
9	0x3cda14c3	0.026621228
10	0xbf6a9095	-0.91626865
11	0x3dc2a9f2	0.09505071
12	0xbe9c39b6	-0.3051278
13	0xbe8d8a46	-0.27644557
14	0x3f1b3fbf	0.60644144
15	0xbbe4fd38	-0.006988194
16	0xbe1bfcb4	-0.15233117
17	0x3dce23ff	0.100654595
18	0xbf06b297	-0.52616256
19	0x3e5e38bf	0.21701334
20	0xbe3fe15e	-0.18738315
21	0xbdc518b6	-0.09623854
22	0x3f28db72	0.65959847
23	0x3eaaf234	0.3338791
24	0xbe9ca7f9	-0.30596903
25	0x3e5ffb55	0.2187322
26	0xbf92870b	-1.1447462
27	0xbe8062ac	-0.2507528
28	0xbf084889	-0.5323568
29	0x3e9e11e5	0.30873027
30	0xbe921391	-0.28530553
31	0x3e6d10db	0.23150961
32	0x3d62296b	0.05521528
33	0xbdf633f8	-0.12021631
34	0x3eeec4a1	0.4663439
35	0xbe4b4438	-0.19850242
36	0xbd58ec32	-0.05295963
37	0x3cf58d9e	0.029974755
38	0xbdeaa41a	-0.11457081
39	0x3d6c2d4c	0.057660386
40	0x3e852a1c	0.2600869
41	0xbec895c6	-0.39176768
42	0x3e168916	0.14700732
43	0xbe6f6cd6	-0.23381361
44	0x3e15c8dc	0.14627403
45	0xbe024554	-0.12721759
46	0x3e8be86a	0.27325755
47	0xbde9fd08	-0.11425215
48	0xbdc2e25d	-0.095158316
49	0x3e02d086	0.12774858
50	0xbf335506	-0.7005161
51	0x3e1b3046	0.15155134
52	0xbdd131bf	-0.102145664
53	0xbe06bb5c	-0.1315741
54	0xbf04f232	-0.5193206
55	0x3e02c232	0.12769392
56	0xbdc2b017	-0.09506243
57	0x39951436	0.00028434553
58	0xbe5b6d41	-0.21428396
59	0x3dcfd653	0.10148301
60	0x3e9dedaf	0.308454
61	0x3ec52c05	0.38510147
62	0x3eb1a8e8	0.34699178
63	0x3e8fdb50	0.2809701
64	0xbd81f3d6	-0.06345336
65	0xbd8fa5e2	-0.070140615
66	0x3e859be5	0.260955
67	0xbdbf033c	-0.09326789
68	0x3e84b975	0.25922742
69	0xbcea0f5f	-0.028571783
70	0xbf1c7d21	-0.6112843
71	0x3d046eb9	0.032332156
72	0xbda1319a	-0.07870789
73	0xbd6c7cff	-0.057736393
74	0x3ebb5d2f	0.3659453
75	0xbda2ee35	-0.07955591
76	0x3e476f50	0.19476056
77	0xbe5f5601	-0.21810152
78	0xbed05af4	-0.40694392
79	0xbc21b4e6	-0.00986979
80	0x3db8fbbe	0.09032391
81	0x3dbb787a	0.091538385
82	0xbfdbca89	-1.7171184
83	0x3d1098c7	0.03530195
84	0xbe0e421c	-0.13892406
85	0x3e171e8c	0.14757746
86	0x3e82424a	0.254412
87	0x3e01dc59	0.12681712
88	0x3e3a6321	0.18201877
89	0xbd1306dd	-0.035895217
90	0x3f63ea63	0.8902952
91	0x3eedf86c	0.46478593
92	0xbe89b9a2	-0.2689944
93	0x3e40c234	0.18824083
94	0xbb60ea6d	-0.0034319416
95	0xbdb805be	-0.0898547
96	0xbe05b638	-0.13057792
97	0xbdfef9cc	-0.12449989
98	0xbf729b26	-0.9476799
99	0x3e74cda8	0.23906577
100	0x3d26e0e0	0.0407418
101	0x3e77d5ab	0.24202602
102	0xbe392596	-0.18080744
103	0xbcfff286	-0.031243574
104	0x3e4fc943	0.20291619
105	0x3dbb9bfb	0.0916061
106	0x3eb1112e	0.3458342
107	0xbd6d4e98	-0.05793628
108	0xbd049f6f	-0.03237861
109	0xbd9b6889	-0.07588298
110	0xbf246ff5	-0.6423333
111	0x3e882045	0.2658712
112	0x3c49d786	0.012319451
113	0xbbda4701	-0.0066612964
114	0xbfa9d617	-1.326846
115	0xbe0a925d	-0.13532396
116	0xbe27a5b6	-0.16371807
117	0xbdb88378	-0.09009451
118	0xbcd4bd3f	-0.025969146
119	0xbc822308	-0.015885845
120	0x3d856913	0.06514182
121	0xbdfd17a7	-0.12358027
122	0x3ee12901	0.43976596
123	0x3e84dac7	0.25948164
124	0xbe112cdf	-0.14177273
125	0x3e250e1f	0.16118668
126	0xbf1e545c	-0.6184747
127	0x3e030f16	0.12798724
128	0xbde0b5bb	-0.10972162
129	0x3cb11a37	0.021618946
130	0xbfa685c2	-1.300957
131	0xbdab556c	-0.08365902
132	0xbef2271f	-0.47295472
133	0x3ef650ba	0.48108464
134	0xbccf0254	-0.025269665
135	0x3e1a2b66	0.15055618
136	0x3c466e7d	0.012111303
137	0xbe09b004	-0.13446051
138	0xbea6f29b	-0.32606968
139	0x3d25edcb	0.04050998
140	0xbdad6d3e	-0.08468102
141	0x3d23828b	0.039919417
142	0x3eda041c	0.4258126
143	0xbf1691e5	-0.5881637
144	0x3e14433f	0.14478777
145	0xbe0690ff	-0.13141249
146	0xbc33a08d	-0.010963571
147	0xbdcebaaa	-0.10094197
148	0xbe66973e	-0.22518632
149	0x3dc6cc99	0.09706993
150	0x3f0dd00e	0.5539559
151	0xbd9769e3	-0.07393243
152	0xbe2ba3bc	-0.16761678
153	0x3e4053c9	0.18781962
154	0xbfbc7ef7	-1.4726247
155	0x3e0593aa	0.1304461
156	0xbeb7126f	-0.3575625
157	0xbd381ef5	-0.044951398
158	0xbecd86b4	-0.40141833
159	0xbc0d46b7	-0.008622817
160	0xbed6de20	-0.41966343
161	0x3eacf0a5	0.33777347
162	0xbf77ba1d	-0.9676836
163	0x3e128dfa	0.14311972
164	0x3eb8289b	0.3596848
165	0xbdf0aa51	-0.11751235
166	0xbf19c58c	-0.6006706
167	0xbab3a14c	-0.0013704686
168	0x3f4c0df9	0.7970882
169	0xbeb1d4fb	-0.34732804
170	0xbee61f62	-0.44945818
171	0xbe9c01bf	-0.30470082
172	0x3f278e5e	0.6545161
173	0x3f024825	0.50891334
174	0x3e20f0d0	0.15716863
175	0x3ed6ad5a	0.41929132
176	0xbee1486e	-0.44000572
177	0x3e417bba	0.18894854
178	0xbf304e98	-0.68869925
179	0x3ea9b279	0.33143976
180	0x3e90058c	0.28129232
181	0xbed56eed	-0.41686192
182	0x3eb6ef24	0.35729325
183	0xbe837112	-0.25672203
184	0xbf35f44d	-0.710759
185	0x3ec6d777	0.38836262
186	0x3ea4a315	0.32155672
187	0x3d9f2b83	0.07771971
188	0xbe91d525	-0.2848293
189	0x3e99bdd0	0.30027628
190	0xbee2f79e	-0.44329542
191	0x3e6aa44e	0.2291424
192	0x3eeb8ff5	0.46008268
193	0xbf0041a7	-0.5010018
194	0xbf119493	-0.5686733
195	0xbee28be7	-0.44247362
196	0xbda35f42	-0.07977153
197	0x3b2dd3b5	0.0026523892
198	0xbfb132ba	-1.3843606
199	0xbdcdf0e6	-0.10055713
200	0x3dc7383a	0.09727521
201	0xbe3749f2	-0.17899302
202	0x3f241d00	0.6410675
203	0xbe880455	-0.26565805
204	0xbd25a14e	-0.040437035
205	0xbdbc9594	-0.09208217
206	0x3eb64302	0.35597998
207	0x3cfc9864	0.030834384
208	0xbe281f3e	-0.16418168
209	0xbdb7bdb0	-0.08971727
210	0xbec6b815	-0.38812318
211	0xbe887551	-0.26652005
212	0xbe9c99ec	-0.30586183
213	0x3d91303f	0.0708928
214	0xbe0fe874	-0.14053518
215	0x3e2746d1	0.16335608
216	0xbe1890e9	-0.14899029
217	0xbdf4ac60	-0.119469404
218	0x3fac42b5	1.3457857
219	0x3d43085f	0.047615405
220	0x3f26af87	0.65111583
221	0xbe68c69d	-0.22732015
222	0x3f560d0a	0.83613646
223	0x3dd8afed	0.1058043
224	0xbe6a0c61	-0.22856285
225	0x3d9f7d79	0.07787604
226	0xbfb844e8	-1.4396029
227	0xbe85ef22	-0.26159006
228	0x3e351b15	0.17686112
229	0xbe2a7b2e	-0.16648552
230	0x3f502cb6	0.81318223
231	0xbe918435	-0.28421178
232	0xbe811c65	-0.25216976
233	0xbe81d64b	-0.25358805
234	0xbed5b03f	-0.41736028
235	0xbdc862d6	-0.097844765
236	0xbb8797c0	-0.004137963
237	0xbf090af7	-0.53532356
238	0xbe94eee2	-0.29088503
239	0xbe6af351	-0.2294438
240	0x3e12701e	0.14300582
241	0x3eaa78e4	0.33295357
242	0x3f6263a2	0.8843328
243	0x3dd4ac30	0.10384405
244	0x3e2a90dd	0.16656823
245	0xbecf557d	-0.4049491
246	0x3f1b53b2	0.60674584
247	0xbe8788da	-0.26471597
248	0xbd3abfe1	-0.045593146
249	0xbe2333bf	-0.15937708
250	0x3f75c1f8	0.959991
251	0xbe8273cc	-0.2547897
252	0xbe237494	-0.1596244
253	0x3e2d01e3	0.16895251
254	0x3fb8373b	1.4391855
255	0x3ea96027	0.3308117

extractor.net.0.bias f4 [256]
0	0xbedc4aed	-0.43025914
1	0xbefc75b3	-0.49308547
2	0xbec30b1c	-0.38094413
3	0xbf08a70b	-0.5337989
4	0x3d8b8f25	0.06814412
5	0xbeebd6ef	-0.4606242
6	0xbf2fb1df	-0.68630785
7	0xbd06f3b2	-0.03294725
8	0x3eb0b41f	0.3451242
9	0x3df584c6	0.11988215
10	0xbe4a2367	-0.19740067
11	0xbe935aae	-0.2878012
12	0x3df42c40	0.119225025
13	0xbd8486ed	-0.064710476
14	0x3eeeb7e5	0.46624675
15	0xbf2e08fc	-0.6798246
16	0x3ea50825	0.32232776
17	0x3e7ef029	0.24896301
18	0x3ee6c31c	0.45070732
19	0xbe53def8	-0.20690525
20	0xbdd69bb1	-0.104789145
21	0x3e83f623	0.25773725
22	0xbf07e3be	-0.5308188
23	0x3ee0da63	0.43916616
24	0xbe40e11b	-0.18835871
25	0x3e6f45fb	0.23366539
26	0x3e9ab056	0.3021266
27	0x3e8d3bba	0.2758463
28	0xbe7098e1	-0.23495819
29	0x3c8f991a	0.01752906
30	0xbf1493ae	-0.5803784
31	0x3ea77d94	0.32712996
32	0xbdfd8992	-0.12379755
33	0x3e4a794d	0.19772835
34	0xbee4ba4f	-0.44673392
35	0x3b148286	0.0022660806
36	0x3db7d0e0	0.089753866
37	0x3ee28783	0.44244012
38	0xbcf43ded	-0.029814685
39	0xbf30c634	-0.69052434
40	0xbe704a9e	-0.23465964
41	0xbe9dbd36	-0.3080842
42	0xbde2538c	-0.110510916
43	0xbe3db924	-0.18527657
44	0xbf0c9d77	-0.5492777
45	0x3d62b425	0.05534758
46	0xbe91714b	-0.28406748
47	0xbee1f9b1	-0.44135812
48	0xbe6186f0	-0.22024131
49	0xbdba781c	-0.0910494
50	0x3d40716c	0.046983168
51	0x3e9ed6ba	0.31023198
52	0xbeab4eac	-0.3345846
53	0xbee607a3	-0.449277
54	0xbdb622aa	-0.088933304
55	0xbe4bb54d	-0.1989338
56	0xbdcb92e5	-0.09940127
57	0x3ea5fdd8	0.3242023
58	0x3eb4b6d0	0.35295725
59	0xbe8e058a	-0.277386
60	0xbf091069	-0.53540665
61	0x3d9cdad4	0.07658926
62	0xbe972829	-0.29522827
63	0xbea41f97	-0.3205535
64	0x3e0a0963	0.13480143
65	0xbec1f371	-0.37881044
66	0x3ec1a20a	0.37818938
67	0xbe904b32	-0.2818237
68	0xbd51418e	-0.05108791
69	0xbe2cbc8f	-0.16868804
70	0xbf1f56df	-0.6224193
71	0xbe60bedc	-0.21947807
72	0xbe31afd7	-0.17352234
73	0xbe9b6891	-0.30353215
74	0xbefc8bc2	-0.49325377
75	0xbecfa5b8	-0.4055612
76	0xbd0d1b2b	-0.034449738
77	0xbe42028f	-0.18946289
78	0x3ec4e460	0.38455486
79	0x3e653b9c	0.2238602
80	0x3eac505e	0.33655065
81	0xbe425ca3	-0.1898065
82	0x3ea85c8a	0.32883102
83	0x3d95252f	0.07282483
84	0x3e73acdd	0.23796411
85	0xbe293fc6	-0.16528234
86	0x3ee52d21	0.44760993
87	0xbe1eb569	-0.1549889
88	0xbe85f707	-0.2616503
89	0xbebf0feb	-0.37316832
90	0xbe999f9f	-0.30004594
91	0xbddbe877	-0.107376985
92	0xbd6a1318	-0.057147115
93	0xbee45289	-0.4459422
94	0xbe4ec7d2	-0.20193413
95	0xbe3f2a11	-0.18668391
96	0x3e8bc835	0.27301183
97	0xbe17ca35	-0.1482323
98	0xbddf2c32	-0.108971015
99	0xbc8c60be	-0.017135974
100	0xbeca5986	-0.39521426
101	0xbe565589	-0.20931067
102	0xbe986ad4	-0.29769003
103	0x3edf4ac9	0.43611744
104	0x3c3f162c	0.011663001
105	0xbf00dc50	-0.5033617
106	0xbf3c90d1	-0.7365847
107	0xbe9f583f	-0.31122014
108	0xbef0f770	-0.4706378
109	0xbe971013	-0.2950445
110	0xbdf3f443	-0.119118236
111	0x3dec1fa9	0.11529476
112	0xbe38a653	-0.18032198
113	0xbc85b720	-0.016322672
114	0x3d87cee8	0.06631261
115	0xbc77a5a5	-0.015115176
116	0xbf3616d6	-0.71128595
117	0xbea26b2c	-0.3172239
118	0x3e93aad2	0.28841263
119	0xbed54697	-0.41655418
120	0x3e58a2f9	0.21155919
121	0x3e830e1b	0.255967
122	0x3ebd3471	0.36954072
123	0xbf03f09b	-0.5153901
124	0xbeedd5d7	-0.4645221
125	0x3d9b91b4	0.0759615
126	0xbf0d76ad	-0.5525921
127	0xbee8739a	-0.45400697
128	0xbf1f56f4	-0.62242055
129	0xbe86ea07	-0.26350424
130	0xbe0ddefb	-0.13854592
131	0x3e8790df	0.26477715
132	0xbe516636	-0.20449147
133	0x3e94a174	0.2902943
134	0x3ea092ff	0.3136215
135	0x3e13e57f	0.14443015
136	0x3c33ae9a	0.010966921
137	0xbf38153d	-0.7190741
138	0xbef6dfd8	-0.48217654
139	0xbef3b832	-0.47601467
140	0xbe50c7cb	-0.20388715
141	0xbe3b8891	-0.18313815
142	0x3ea6ad72	0.32554203
143	0x3e28386a	0.1642777
144	0x3eff29a0	0.49836445
145	0xbb01361b	-0.0019716087
146	0x3ee5ce83	0.44884118
147	0xbd8d0526	-0.068857476
148	0xbe394440	-0.18092442
149	0xbec63225	-0.38710132
150	0xbd52f7d0	-0.051505864
151	0x3eac7829	0.33685425
152	0x3ebd14a7	0.3692982
153	0x3d151ef4	0.036406472
154	0xbe72bfbd	-0.23705955
155	0xbd9a7372	-0.07541551
156	0x3e407b02	0.18796924
157	0xbe934346	-0.28762263
158	0x3d0b3217	0.033983316
159	0xbdd8a6bf	-0.10578679
160	0xbe630270	-0.22168899
161	0x3dd1ffe8	0.10253888
162	0xbf00c022	-0.5029317
163	0xbe5b72c3	-0.21430497
164	0x3eef2007	0.46704122
165	0x3ebc3a15	0.36763063
166	0xbf014d53	-0.5050861
167	0x3e99d8f4	0.30048335
168	0x3ebe69e1	0.37190154
169	0xbe9e6acb	-0.30940852
170	0xbe3e8a7d	-0.18607517
171	0x3dc1a9b5	0.09456197
172	0xbf1d8c81	-0.61542517
173	0x3e69cdd5	0.22832425
174	0xbe594de3	-0.21221118
175	0x3d7ce819	0.061744783
176	0xbe2fe1cc	-0.17175978
177	0x3e43a7a2	0.19106916
178	0x3e1a4175	0.15064032
179	0xbc9ef0e1	-0.01940197
180	0x3e296447	0.16542159
181	0xbdc40f19	-0.09573192
182	0xbce09ff7	-0.027420027
183	0xbdd601d1	-0.10449565
184	0x3e7263c3	0.23670869
185	0xbf0e8410	-0.5567026
186	0xbecbee54	-0.39830267
187	0xbe9411e7	-0.28919908
188	0x3e6f07f9	0.23342885
189	0x3e75a4b7	0.23988615
190	0x3eb03d3a	0.34421712
191	0xbf3cde0b	-0.7377631
192	0xbea47e38	-0.32127547
193	0x3e049349	0.1294681
194	0xbec5431b	-0.3852776
195	0xbea28652	-0.31743103
196	0xbf30b02d	-0.6901882
197	0x3ecb8b11	0.39754537
198	0xbd7fc657	-0.06244501
199	0x3e5595c6	0.20857915
200	0x3d2dd2b8	0.042437285
201	0x3eb97d01	0.36228183
202	0xbe9b0784	-0.3027917
203	0xbc767c0e	-0.015044225
204	0x3e39cf01	0.18145372
205	0x3e3e3dd6	0.18578276
206	0xbe8a2ffe	-0.2698974
207	0x3ea31edd	0.31859484
208	0x3ed665b6	0.41874474
209	0x3ea8074e	0.32818073
210	0xbed9e65c	-0.42558563
211	0x3eb72a7f	0.3577461
212	0xbf1aa199	-0.6040283
213	0xbd4cd004	-0.050003067
214	0xbea0fa6e	-0.31441063
215	0xbee1708e	-0.44031185
216	0x3ec5f251	0.38661435
217	0x3ef504c9	0.47855213
218	0xbeae8b7e	-0.340908
219	0xbe67e063	-0.2264419
220	0xbe41c4db	-0.1892275
221	0xbe0e5d0d	-0.13902684
222	0x3d03350c	0.03203301
223	0xbdf15855	-0.11784426
224	0xbed1b7fe	-0.40960687
225	0xbe826548	-0.25467896
226	0x3e27ce30	0.16387248
227	0x3ed82e08	0.4222262
228	0xbed7de05	-0.42161575
229	0xbd7bb1af	-0.06144875
230	0xbdd50808	-0.104019225
231	0xbdf8765c	-0.1213195
232	0x3e92a046	0.28637904
233	0xbe77af8a	-0.24188057
234	0xbf0c4ec5	-0.5480769
235	0xbf11bed0	-0.5693178
236	0x3df86828	0.12129241
237	0xbd91b279	-0.07114119
238	0xbeae9f10	-0.3410573
239	0xbebce427	-0.36892816
240	0x3ea361a8	0.31910443
241	0xbee672fa	-0.45009595
242	0xbefb4073	-0.49072608
243	0x3f013bb8	0.5048175
244	0xbd07fe41	-0.03320146
245	0xbaf897d5	-0.0018966148
246	0xbe2ba2cc	-0.16761321
247	0xbe8a7a99	-0.2704666
248	0xbf171d89	-0.5902944
249	0xbdefff2a	-0.117185906
250	0xbe998ef2	-0.2999187
251	0xbbd7660d	-0.0065734447
252	0xbe0e47a2	-0.13894513
253	0x3e84f284	0.25966275
254	0xbe8388f0	-0.25690413
255	0x3b921fd4	0.0044593606

extractor.net.2.weight f4 [128, 256]
0	0x3d0c00ef	0.034180578
1	0xbc71bc78	-0.014754407
2	0xbd6b48ca	-0.057442464
3	0xbd1f3f94	-0.038878992
4	0xbd86bb2f	-0.06578671
5	0x3d17ca84	0.03705837
6	0x3d652308	0.05594161
7	0x3ce888c2	0.028385524
8	0xbca7c855	-0.020481268
9	0xbd170996	-0.036874376
10	0x3cfe9931	0.031078907
11	0xbd702586	-0.058629535
12	0x3c904089	0.017608898
13	0xbc5ed5cf	-0.013600781
14	0x3d06a86f	0.032875475
15	0xbd17a0ce	-0.03701859
16	0x3b70d71e	0.0036749314
17	0xbd677199	-0.05650482
18	0x3d2cef9b	0.042220693
19	0x3c0746a0	0.008256584
20	0x3c99dc71	0.018781872
21	0x3c207ab0	0.009794876
22	0x3d53e43f	0.051731344
23	0xbd8b2cb7	-0.06795638
24	0x3d673aae	0.056452446
25	0xbd2ed631	-0.042684738
26	0xbccca145	-0.024979243
27	0xbd4384c2	-0.04773403
28	0xbcad8067	-0.021179391
29	0xbc5dde37	-0.01354175
30	0x3d68b830	0.05681628
31	0xbd2ede34	-0.04269238
32	0xbd0e2968	-0.034707457
33	0xbc98d241	-0.018654944
34	0xbbaeb070	-0.0053310916
35	0x3d157ebd	0.03649782
36	0xbc8930ba	-0.016746867
37	0xbd69aff9	-0.057052586
38	0x3c9ba192	0.018997941
39	0xbb9cd810	-0.004786499
40	0xbd1c7972	-0.038201757
41	0x3cae1ee5	0.021254966
42	0xbccf8655	-0.02533261
43	0x3d4c41aa	0.04986731
44	0xbd0ca7fb	-0.034339886
45	0xbd12ca6d	-0.03583758
46	0xbd07ca44	-0.03315188
47	0xbcb46a5c	-0.022023372
48	0xbd356144	-0.044282213
49	0xbc2df539	-0.010617548
50	0xbd0d1047	-0.03443935
51	0xbd6a5c16	-0.057216726
52	0x3d51eeeb	0.05125324
53	0xbd4e72f0	-0.05040258
54	0x3d637aae	0.05553692
55	0x3ce5e5fb	0.028063765
56	0x3cbc1029	0.022956925
57	0xbd2b795a	-0.041863777
58	0x3d5c4489	0.053776298
59	0xbc143690	-0.009046212
60	0xbd00aeb2	-0.031416602
61	0xbd8e33ce	-0.06943475
62	0xbd191509	-0.037373576
63	0xbd19a1df	-0.037507888
64	0x3bd1b10f	0.006399281
65	0xbd47c20a	-0.048769034
66	0x3d043de3	0.032285582
67	0xbd834e62	-0.06411435
68	0x3c98d543	0.018656379
69	0xbd24d7c2	-0.040244825
70	0x3c5f8dd0	0.013644651
71	0xbd3c8dd8	-0.04603371
72	0x3d0d518e	0.034501605
73	0x3c859a93	0.016309058
74	0x3c86e7f4	0.016468026
75	0xbcff93b0	-0.031198353
76	0x3cedbe96	0.029021543
77	0xbbd94eef	-0.006631724
78	0xbd54b82e	-0.05193346
79	0x3bcf4a25	0.0063259774
80	0xbd3e62e4	-0.04648103
81	0xbd6cbdb0	-0.057798088
82	0x3d0ac5ba	0.033879973
83	0xbd8850a7	-0.06656008
84	0x3c89b06d	0.01680776
85	0xbd0dfabd	-0.03466295
86	0xbcdfe331	-0.027330013
87	0xbcda841b	-0.02667432
88	0x3c14290a	0.009042988
89	0xb84a4800	-4.822761e-05
90	0x3c664daa	0.0140566025
91	0x3d1e1d5d	0.03860222
92	0x3ccb7d62	0.02484006
93	0xbcbd2338	-0.023088083
94	0x3bd7ac34	0.0065818075
95	0x3d3088af	0.0430991
96	0xbcb8be80	-0.022551775
97	0xbc916c14	-0.017751731
98	0xbd603dd8	-0.05474648
99	0xbd883ae0	-0.066518545
100	0xbd7c5085	-0.061600227
101	0x3a0d24ea	0.0005384224
102	0x3b60c4e5	0.0034297046
103	0xbd42d01f	-0.04756176
104	0xbd46bf56	-0.048522316
105	0x3c506708	0.012719877
106	0x3d4609e0	0.04834926
107	0xbd1b5c9a	-0.03793011
108	0x3d2074fb	0.03917406
109	0xbd2c6e25	-0.04209723
110	0x3bd51930	0.0065032467
111	0xbd22f507	-0.039784458
112	0x3d1c5a45	0.038172025
113	0x3cf3fd4c	0.029783867
114	0x3cf1f3af	0.029535143
115	0x3d3c2df5	0.045942266
116	0x3c718e88	0.014743455
117	0x3d702508	0.058629066
118	0x3d0dd266	0.03462448
119	0xbcee9ad0	-0.029126555
120	0x3d1d262e	0.03836649
121	0xbb8ff863	-0.0043936237
122	0xbd608b89	-0.05482057
123	0x3d20fe88	0.03930524
124	0xbd49ca33	-0.049265098
125	0x3ce76ddb	0.028250625
126	0x3d61e0eb	0.05514614
127	0x3c87ce3d	0.016577834
128	0x3d557b33	0.052119445
129	0xbd420ec5	-0.047377367
130	0xbbff0208	-0.0077822246
131	0x3d21e633	0.039526176
132	0xbd13f66f	-0.03612369
133	0x3d2491e7	0.040178206
134	0x3cc2b101	0.023766043
135	0x3b182c92	0.0023219925
136	0xba99902f	-0.0011715944
137	0x3ca21b94	0.01978854
138	0x3d7aae26	0.061201237
139	0x3cae9a0d	0.021313692
140	0xbd007ade	-0.031367175
141	0xbd83b688	-0.064312994
142	0x3cdd02c2	0.026978854
143	0xbd66b6c4	-0.056326643
144	0xbd852e16	-0.06502931
145	0xbcc9cd4c	-0.024634026
146	0xbd171e9d	-0.03689443
147	0x3bf2ff58	0.0074156933
148	0xbd4cba9a	-0.049982645
149	0xbd3c22b1	-0.04593152
150	0xbd7f8c3b	-0.062389594
151	0x3c45f886	0.012083178
152	0xbc105bc9	-0.008810946
153	0xbc447b7e	-0.011992333
154	0xbd6ba893	-0.05753381
155	0xbd7eb693	-0.062185835
156	0xbc584cdd	-0.013201919
157	0x3d081522	0.03322328
158	0x3caa0350	0.020753533
159	0xbc154c62	-0.009112449
160	0x3c6a6323	0.014305863
161	0xbb6d1c75	-0.0036180292
162	0x3d7d4a42	0.061838396
163	0x3d451a17	0.048120584
164	0xbd28e6d8	-0.041235775
165	0x3d25c4f6	0.04047104
166	0xbcf25f3a	-0.029586423
167	0xbca21eec	-0.019790135
168	0x3d38ebca	0.04514674
169	0x3d429fce	0.047515683
170	0x3c87d2f8	0.01658009
171	0xbb2f6870	-0.002676513
172	0xbd2a8598	-0.04163131
173	0xbd84d747	-0.064863734
174	0xbd061241	-0.032732252
175	0xbd57e36a	-0.052707113
176	0x3c253067	0.010082341
177	0x3b1741a2	0.0023079892
178	0x3d1a933c	0.03773807
179	0xbce96ef1	-0.028495284
180	0xbc97f0d9	-0.018547462
181	0x3d10191d	0.0351802
182	0x3d41e082	0.047333248
183	0xbc1b0702	-0.00946212
184	0xbd3f0f26	-0.046645306
185	0x3d7a0d74	0.061047986
186	0xbb150762	-0.0022739996
187	0x3cc72875	0.024311284
188	0xba0d8dc0	-0.00053998455
189	0x3b877882	0.0041342387
190	0xbd0ce442	-0.03439737
191	0xbce8f971	-0.028439255
192	0xbb37f5a0	-0.0028069988
193	0xbd231b5c	-0.039821014
194	0x3d7e84c0	0.06213832
195	0xbd4024f5	-0.046910245
196	0x3d68947e	0.05678224
197	0x3d2e919d	0.042619336
198	0xbc345155	-0.011005719
199	0xbd88c813	-0.06678786
200	0xbc227f53	-0.009918052
201	0xbd26cac5	-0.04072072
202	0xbbfe7b50	-0.007766165
203	0xbd50e54a	-0.050999917
204	0xbd6f7fee	-0.058471613
205	0x3c7e89ef	0.015535816
206	0x3cc446b6	0.023959499
207	0x3ccdb653	0.025111353
208	0x3c215cfa	0.0098488275
209	0x3cf36131	0.02970943
210	0x3d561986	0.052270435
211	0x3a556697	0.0008140592
212	0xbc86873b	-0.016421905
213	0xbd62aafb	-0.05533884
214	0xbb048ae0	-0.0020224378
215	0xbd1d6faa	-0.03843657
216	0xbd51916d	-0.05116408
217	0x3bb6153d	0.005556731
218	0x3d03097a	0.03199146
219	0x3bec6650	0.007214345
220	0xbc87ce53	-0.016577875
221	0x3cc19a88	0.023633257
222	0xbd3ae7d5	-0.04563125
223	0x3ca33a8a	0.019925375
224	0x3d2c395a	0.042046882
225	0xbd5df112	-0.05418498
226	0x3c8bbdc9	0.01705827
227	0x3d384012	0.044982977
228	0x3cd730d4	0.0262684
229	0xbd29d6fc	-0.04146479
230	0x3c9f76a3	0.01946575
231	0xbd871018	-0.065948665
232	0x3c9a5b60	0.0188424
233	0x3d08d921	0.033410195
234	0x3d0bc0d9	0.03411946
235	0xbb0f0e58	-0.0021828618
236	0xbd531bfd	-0.051540364
237	0xbd80dc40	-0.06292009
238	0x3d31f79d	0.043449033
239	0x3cf4fa92	0.029904637
240	0x3d1d241b	0.03836451
241	0xbd0e81f6	-0.03479191
242	0xbd477b5e	-0.048701636
243	0x3d37b928	0.044854313
244	0x3c24c76b	0.010057311
245	0x3cd92ac8	0.026509658
246	0xbd2d2513	-0.042271685
247	0x3d3834a5	0.04497208
248	0xbc832423	-0.016008442
249	0x3d1a4426	0.037662648
250	0x3d0c15c0	0.03420043
251	0x3b760f91	0.00375459
252	0xbd50e7bf	-0.05100226
253	0x3b383291	0.0028106312
254	0xbd472ee4	-0.048628703
255	0xbd569dc9	-0.05239657

extractor.net.2.bias f4 [128]
0	0x3c231da5	0.009955798
1	0x3e0028ac	0.12515515
2	0x3dc4c5da	0.0960805
3	0x3e83b538	0.25724196
4	0x3d072ae3	0.032999884
5	0x3e1eebf3	0.15519695
6	0xbc34f1d3	-0.0110439835
7	0xbb14ce9e	-0.0022706161
8	0x3d4665d0	0.04843694
9	0x3dffed07	0.12496381
10	0xbc553679	-0.013013476
11	0xbd443dda	-0.04791055
12	0x3cd0519d	0.025429541
13	0x3cd4ecc3	0.025991803
14	0xbd4c8307	-0.049929645
15	0xbdc21d5d	-0.09478257
16	0x3d079f6b	0.033111017
17	0x3d894750	0.06703055
18	0x3e8219ea	0.25410396
19	0xbc85edf0	-0.016348809
20	0xbccce93d	-0.02501356
21	0x3e88538d	0.26626244
22	0xbc43b6a8	-0.011945404
23	0x3e1162a1	0.1419778
24	0xbd569650	-0.052389443
25	0x3e1aef3d	0.15130325
26	0xbd0d5c59	-0.034511898
27	0x3e89ffff	0.26953122
28	0xbd7569a9	-0.05991522
29	0x3e3289cb	0.17435376
30	0x3d581ff5	0.05276485
31	0xbd52a42a	-0.05142609
32	0xbd0f53bc	-0.034991965
33	0xbd8e8b36	-0.06960146
34	0x3bfa1b4b	0.007632648
35	0x3c01cc01	0.0079221735
36	0x3dc823f4	0.097724825
37	0x3e222f03	0.15838246
38	0x3c3ee501	0.0116512785
39	0x3db235ce	0.08701669
40	0xbbb5a14b	-0.0055429093
41	0xbc533b6f	-0.012892588
42	0xbd54be77	-0.051939454
43	0x3b5a795b	0.0033336494
44	0x3d295f6e	0.041350774
45	0x3de18fb2	0.11013736
46	0xbe305830	-0.17221141
47	0x3e3a25af	0.18178438
48	0x3e01560a	0.12630478
49	0x3b9638d7	0.0045844126
50	0x3d813c4b	0.06310328
51	0xbdbda033	-0.09259071
52	0xbc95d100	-0.018288136
53	0xbc034473	-0.008011925
54	0x3d43019d	0.04760896
55	0xbd3157ee	-0.043296747
56	0x3a7c1640	0.00096163526
57	0x3c8e8861	0.017399015
58	0x3d87713a	0.06613393
59	0x3e807a0b	0.2509311
60	0xbd694ddd	-0.05695902
61	0x3d1562db	0.03647123
62	0x3d21ec9b	0.039532285
63	0xbd84a87a	-0.06477447
64	0x384672a9	4.7313664e-05
65	0xbd5d00a9	-0.053955708
66	0x3ce43935	0.02785931
67	0xbdbea13b	-0.09308096
68	0xbd90e794	-0.0707542
69	0xbd7b6569	-0.06137601
70	0x3e56fa36	0.20993885
71	0xbd1764e0	-0.036961436
72	0x3df84e00	0.12124252
73	0xbbd6a3ab	-0.0065502725
74	0x3c3d4cc3	0.011553946
75	0xbd34df78	-0.04415843
76	0x3d2fc0c4	0.042908445
77	0x3e857945	0.26069084
78	0x3dd867b2	0.10566653
79	0x3d0074ba	0.03136132
80	0xbd4f12cd	-0.05055504
81	0x3bc8efc0	0.006132096
82	0x3e697ae6	0.22800788
83	0x3dc5677d	0.096388794
84	0xbd870574	-0.06592837
85	0x3da619d0	0.08110392
86	0x3c3ed212	0.011646764
87	0x3e152328	0.14564192
88	0xbc9ad6d1	-0.01890126
89	0x3d1a7b30	0.037715137
90	0x3e2c59ac	0.16831082
91	0x3df1f4ea	0.11814292
92	0x3e824c04	0.2544862
93	0x3db07c12	0.086174145
94	0xbd2175d9	-0.03941903
95	0x3c9d0d65	0.019171426
96	0xbbb035c7	-0.0053775045
97	0xbd85fa7f	-0.06541919
98	0xbd96dd2d	-0.07366405
99	0x3dff551d	0.12467406
100	0x3c5a8bcc	0.013338994
101	0x3e3ee17e	0.18640706
102	0x3c85633a	0.016282666
103	0xbcfc4b5a	-0.03079765
104	0x3e8bd004	0.2730714
105	0x3ca14a29	0.019688683
106	0x3dd2d3b3	0.10294285
107	0x3c28616f	0.010277136
108	0x3b71e366	0.0036909222
109	0xbd770503	-0.060307514
110	0xbce3290e	-0.027729537
111	0xbcd8a4d0	-0.026445776
112	0x3dda3eff	0.10656547
113	0xbce9b9df	-0.028531013
114	0xbc5cf6d6	-0.013486585
115	0x3c8e1787	0.017345203
116	0xbd13c986	-0.03608086
117	0xbd656b3c	-0.05601047
118	0x3c396e13	0.011317748
119	0x3e138c2c	0.1440894
120	0x3d1ba7dc	0.03800188
121	0x3e094daa	0.13408533
122	0xba3926d3	-0.0007062975
123	0x3c2e5404	0.010640148
124	0x3c704278	0.014664285
125	0x3e5332c4	0.20624834
126	0x3d3a466e	0.045477323
127	0x3e5915f6	0.21199784

value.0.weight f4 [128, 128]
0	0xbcd93c93	-0.026518142
1	0x3bf42d58	0.0074516945
2	0x3df877cf	0.12132227
3	0x3e5773d4	0.21040279
4	0xbd460dfc	-0.04835318
5	0x3e28b77d	0.16476245
6	0x3bf90fd3	0.0076007633
7	0x3ce46912	0.027882133
8	0xbc552da3	-0.013011369
9	0xbc9b2c2c	-0.018941961
10	0x3d82fda5	0.06396035
11	0xbd797585	-0.06090309
12	0xbd81d184	-0.0633879
13	0x3dcb1845	0.099167384
14	0x3a27fb4b	0.000640799
15	0x3d4097c6	0.047019742
16	0x3dac5fdb	0.084167205
17	0x3dc03b40	0.09386301
18	0x3e180983	0.14847378
19	0xbd890048	-0.06689507
20	0xbd57e931	-0.052712623
21	0x3e2fe4b7	0.17177092
22	0xbcfe9306	-0.031075966
23	0x3d058cb8	0.032604903
24	0x3d805163	0.06265523
25	0x3db15daf	0.08660447
26	0xbd3b4e8b	-0.0457292
27	0x3e7cfdc7	0.24706183
28	0x3d2667e2	0.040626414
29	0x3dae6186	0.08514695
30	0x3d4962af	0.049166378
31	0x3e124933	0.14285736
32	0xbd70db82	-0.05880309
33	0xbd147880	-0.03624773
34	0x3bdcfa8a	0.006743734
35	0xbcacfd6a	-0.021116931
36	0xbd8d0abb	-0.06886812
37	0x3dc77465	0.09738997
38	0x3da2e907	0.07954603
39	0x3cc04a53	0.02347294
40	0x3dcd745e	0.10031961
41	0xbd9b3fde	-0.07580541
42	0x3d25e1b3	0.040498447
43	0xbc56708b	-0.013088356
44	0x3d8245ce	0.063609704
45	0x3c4c2429	0.012459793
46	0x3d8ea408	0.0696488
47	0x3e3fb4b0	0.1872127
48	0x3dfa6ffe	0.12228392
49	0x3d1ac8ad	0.037789036
50	0x3cfa7ff0	0.030578583
51	0xbd126a2d	-0.03574579
52	0x3c676864	0.01412401
53	0xbda80b85	-0.08205322
54	0x3d8003da	0.062507346
55	0x3c3d5e81	0.011558176
56	0xbc8b85f0	-0.01703164
57	0xbdc66208	-0.09686667
58	0xbc97e127	-0.018539978
59	0x3e3b340a	0.1828157
60	0x3c8b4f5e	0.017005619
61	0xbd41f552	-0.047353096
62	0x3d03c12c	0.032166645
63	0xbd164b8f	-0.036693152
64	0xbcf24b19	-0.029576825
65	0x3ba7885c	0.005112691
66	0xbd95b519	-0.07309932
67	0xbd7cc645	-0.061712522
68	0xbd5d6f5a	-0.05406127
69	0x3da50369	0.08057291
70	0x3dd842b0	0.10559595
71	0xbc1b7da8	-0.009490408
72	0x3e045226	0.12921962
73	0xbd170ec4	-0.036879316
74	0xbd231b1c	-0.039820775
75	0xbc83dfa8	-0.016097859
76	0x3da84661	0.08216549
77	0x3db2bc2c	0.08727297
78	0xbc8b567b	-0.01700901
79	0xbcd5a776	-0.026080828
80	0x3d875894	0.06608692
81	0xbceb14d1	-0.02869645
82	0x3d940c92	0.0722896
83	0x3df37b92	0.118888035
84	0xbd948843	-0.07252552
85	0x3da0aeda	0.0784585
86	0xbd21defe	-0.039519303
87	0x3e025279	0.12726773
88	0x3d0c44ba	0.03424523
89	0xbbab6b59	-0.0052313027
90	0x3de133dc	0.109962195
91	0xbd67693c	-0.056496844
92	0x3e057b4d	0.13035317
93	0x3c8f541e	0.017496165
94	0x3c321208	0.010868557
95	0x3d616bfc	0.055034623
96	0xbd52dace	-0.0514782
97	0xbc0bb8ce	-0.008527948
98	0x3d80afce	0.06283532
99	0x3d7fb277	0.062426057
100	0xbd9194ad	-0.07108436
101	0x3e3f5ae4	0.18687016
102	0x3d3d36ff	0.046195026
103	0x3ca51da6	0.020155739
104	0x3e709194	0.23493034
105	0x3d93e5c3	0.07221558
106	0xbd324105	-0.04351904
107	0xbdbcc4c3	-0.09217217
108	0xbd9e4976	-0.07728855
109	0x3d5d5324	0.054034367
110	0x3ca7bce1	0.020475807
111	0x3d7036ce	0.058646016
112	0xbd303c61	-0.04302633
113	0x3cc1a9d0	0.023640543
114	0xbc9b9e96	-0.018996518
115	0x3ba3a91e	0.0049945256
116	0x3be86f4f	0.007093347
117	0xbcce942e	-0.025217142
118	0xbd15e64b	-0.036596578
119	0xbd57ecb1	-0.05271596
120	0xbd327dd5	-0.043577034
121	0x3da24ed6	0.07925193
122	0x3d9938d6	0.07481544
123	0x3baa14e6	0.0051904796
124	0x3dc34549	0.095346995
125	0x3e6a394a	0.22873417
126	0x3d3c912d	0.046036888
127	0x3da614dc	0.08109447
128	0xbbfedcff	-0.0077778096
129	0xbed839ee	-0.42231697
130	0xbd44f28b	-0.04808287
131	0xbead01b7	-0.3379037
132	0xbd03df31	-0.032195274
133	0xbf053f29	-0.520495
134	0xbcbbe58a	-0.022936601
135	0xbc3c58a0	-0.011495739
136	0xbf8321b2	-1.0244658
137	0xbc815e46	-0.015792023
138	0x3e2daa72	0.16959551
139	0xbda2e6bd	-0.07954166
140	0x3bd32aa4	0.006444292
141	0xbd8d68a5	-0.06904725
142	0xbd6e7217	-0.058214273
143	0xbd81229b	-0.063054286
144	0xbc4967a8	-0.01229278
145	0xbce009f6	-0.0273485
146	0x3dc5efd4	0.09664884
147	0xbbd0a426	-0.0063672243
148	0xbeadb974	-0.33930552
149	0xbe0c50a3	-0.13702635
150	0xbd9d09cd	-0.07667885
151	0xbe532f0e	-0.20623419
152	0xbd93710d	-0.07199297
153	0xbe0e89de	-0.1391978
154	0x3d5baff6	0.053634606
155	0x3e5d46c7	0.2160903
156	0x3d8a9041	0.067657955
157	0x3f2a3d00	0.6649933
158	0xbe9c1892	-0.30487496
159	0xbe866b62	-0.26253802
160	0xba76f8c6	-0.00094212254
161	0x3c6881e3	0.014191124
162	0x3da30b01	0.07961083
163	0x3db5ea96	0.08882634
164	0xbdfc7441	-0.12326861
165	0xbebe6072	-0.37182957
166	0x3da0729d	0.07834361
167	0x3e0f52a3	0.13996367
168	0x3e09d18a	0.13458839
169	0x3dc1510d	0.09439287
170	0xbd956c92	-0.07296099
171	0x3d7c611c	0.06161605
172	0x3da25960	0.07927203
173	0x3eb2d2f4	0.3492657
174	0xbe2d0682	-0.16897014
175	0xbeca5c78	-0.39523673
176	0xbeeb3628	-0.45939755
177	0xbecbc3f8	-0.3979795
178	0xbe61501a	-0.22003213
179	0x3d29e8be	0.041481726
180	0x3d6b741a	0.05748377
181	0xbc246da9	-0.010035911
182	0x3c6b4af5	0.014361133
183	0xbd46a446	-0.048496507
184	0x3b507e6f	0.0031813642
185	0x3c9c7392	0.019098077
186	0x3e868cc3	0.26279268
187	0xbe8606c6	-0.26177043
188	0x3d862f1b	0.065519534
189	0x3d9452fc	0.072423905
190	0xbc1638aa	-0.009168783
191	0xbcd9ae69	-0.026572423
192	0xbcedff26	-0.029052328
193	0x3d4dd599	0.05025253
194	0x3daa8846	0.08326773
195	0x3ad44980	0.0016196221
196	0x3cc2da56	0.023785751
197	0x3d341585	0.043965835
198	0x3d341d10	0.04397303
199	0xbd69ade8	-0.057050616
200	0xbdc01f63	-0.093809865
201	0xbcaa1955	-0.020764032
202	0x3dbb342a	0.09140809
203	0xbabc1eaa	-0.00143524
204	0xbd4ce813	-0.05002601
205	0xbe388bdf	-0.18022107
206	0xbce9a4dc	-0.028520994
207	0xbd86ea47	-0.065876536
208	0xbc237a93	-0.009977954
209	0xbc53aff1	-0.012920366
210	0xbdc61e9c	-0.09673807
211	0x3e7e6e46	0.24846753
212	0x3ba2c3a4	0.00496717
213	0x3ef91f70	0.48656797
214	0x3d351795	0.044211943
215	0xbed5d737	-0.41765758
216	0x3c6dc368	0.0145119205
217	0xbd953764	-0.072859555
218	0xbe039e41	-0.12853338
219	0xbec6f53e	-0.3885898
220	0x3ddc1a0c	0.107471555
221	0xbf1b27f7	-0.60607857
222	0x3ca997a0	0.020702183
223	0x3d0d4c5a	0.034496643
224	0x3da26c51	0.07930816
225	0x3db2c93f	0.08729791
226	0xbd662b95	-0.056193907
227	0x3d9bb93a	0.076036885
228	0xbaf64480	-0.0018788725
229	0x3df39b3d	0.11894844
230	0xbc90742d	-0.017633522
231	0x3d087d39	0.033322547
232	0xbd0401d2	-0.0322283
233	0x3db3f5bb	0.08787104
234	0xbee217dd	-0.4415883
235	0xbc903fd9	-0.01760857
236	0xbd08bc72	-0.03338284
237	0x3d58818b	0.052857917
238	0xbccb967b	-0.024852028
239	0x3d543621	0.051809434
240	0xbf328e4e	-0.6974839
241	0xbcd70c6d	-0.026251042
242	0x3dcaf8a7	0.09910708
243	0xbd67d29d	-0.05659734
244	0x3d400efa	0.046889283
245	0x3d232562	0.039830573
246	0x3c4a5c72	0.012351142
247	0xbf098a69	-0.5372682
248	0xbc2e7620	-0.01064828
249	0x3db4c330	0.088262916
250	0xbd18ed00	-0.037335396
251	0xbc83cd2c	-0.016089045
252	0xbd4a1c08	-0.04934314
253	0x3cc229de	0.023701604
254	0x3e941c7a	0.28927976
255	0x3e9b0ed8	0.30284762

value.0.bias f4 [128]
0	0x3ec10db9	0.37705782
1	0x3e2d913e	0.16949937
2	0xbd5d945c	-0.054096565
3	0x3d305037	0.04304525
4	0x3d5e4ebd	0.05427431
5	0x3d421783	0.047385704
6	0x3e968db6	0.29404992
7	0x3ccd168b	0.025035163
8	0xba8a6e6e	-0.0010561475
9	0x3ecd5b12	0.40108544
10	0x3d4bdd05	0.049771328
11	0xbd6e9287	-0.058245208
12	0xbe030b85	-0.12797363
13	0x3d096690	0.033545077
14	0x3d9a50e1	0.07534958
15	0xbdaac6b8	-0.08338684
16	0xbded1caa	-0.11577733
17	0xbc83b105	-0.01607562
18	0xbd964679	-0.0733766
19	0x3c180bb8	0.009280138
20	0xbde426e8	-0.11140233
21	0x3ecd3e71	0.40086702
22	0x3be7ecdb	0.007077796
23	0x3d27ecdd	0.040997375
24	0xbc0a78fd	-0.008451697
25	0x3ce22c8f	0.027609138
26	0x3cae6e4f	0.021292834
27	0x3ea7770b	0.3270801
28	0x3e00aacb	0.12565152
29	0xbd2668a1	-0.040627126
30	0x3ebcbc4b	0.36862406
31	0xbd4fb0a8	-0.050705582
32	0x3e9bda8d	0.3044018
33	0xbcc241a9	-0.02371295
34	0x3d834cde	0.06411146
35	0x3ea1369b	0.31486973
36	0x3e4a1b71	0.1973703
37	0xbda64857	-0.081192665
38	0x3ea5231d	0.32253352
39	0x3ebb7127	0.36609766
40	0x3eaa312f	0.3324065
41	0xbdf2ad45	-0.11849455
42	0x3e1c4425	0.1526037
43	0x3e0d0e2a	0.13774934
44	0x3d9ecd4a	0.077539995
45	0x3eabc092	0.33545357
46	0xbcdad30a	-0.02671196
47	0x3ec1f11b	0.3787926
48	0x3e1bd0f8	0.15216434
49	0x3db6eb94	0.08931652
50	0x3d5bfaab	0.053705852
51	0x3cc510f5	0.024055937
52	0xbc65caf4	-0.014025439
53	0x3ebca88e	0.36847347
54	0xbdaa2001	-0.083068855
55	0x3d2a376c	0.04155676
56	0xbd20fab5	-0.039301593
57	0xbdd39de2	-0.10332848
58	0x3d8173b2	0.06320895
59	0xbd3e7270	-0.046495855
60	0x3e03d599	0.1287445
61	0x3def411a	0.11682339
62	0x3e483903	0.19552998
63	0xbd6b5d57	-0.057462063
64	0xbd67c8ec	-0.0565881
65	0x3ec3e4bb	0.38260445
66	0xbd2823bb	-0.0410497
67	0xbcc3766d	-0.02386018
68	0xbdd9a0ad	-0.106263496
69	0x3ec2295d	0.37922183
70	0xbdc3a28a	-0.09552486
71	0x3e13a8a5	0.14419802
72	0xbd96356b	-0.073344074
73	0xbdbc346a	-0.09189685
74	0xbc6b69b9	-0.014368468
75	0x3eafeba1	0.34359458
76	0x3d3891e1	0.045060996
77	0xbce2c18b	-0.02768018
78	0x3e88a451	0.26687863
79	0x3d29b5e1	0.04143322
80	0x3d16dd7d	0.03683232
81	0x3d706b6a	0.058696188
82	0xbd1f2e70	-0.038862646
83	0xbe021ba1	-0.12705852
84	0xbce468eb	-0.02788206
85	0xbc05d2ce	-0.008167936
86	0x3d04943e	0.032367937
87	0x3eb54b55	0.35409036
88	0x3ec492d0	0.3839326
89	0x3ea96ecf	0.33092353
90	0x3ce65010	0.028114349
91	0x3bc38fcd	0.00596807
92	0x3c4026bd	0.011727986
93	0xbb9c819b	-0.0047761924
94	0x3d84a202	0.06476213
95	0xbe062281	-0.130991
96	0xbd276f68	-0.04087773
97	0x3e17c684	0.14821821
98	0x3d1ef93d	0.03881191
99	0xbd7832c8	-0.060595304
100	0x3ecc264e	0.39872974
101	0xbcbceb44	-0.023061402
102	0x3d866578	0.065623224
103	0xbda715fa	-0.081584886
104	0x3eb42cda	0.3519047
105	0xb8d4a939	-0.00010140468
106	0xbd9ff778	-0.07810873
107	0xbd884592	-0.066538945
108	0xbcb9d64e	-0.022685196
109	0x3d4425b4	0.04788752
110	0x3cad7b5b	0.021176985
111	0x3dbf5e9a	0.09344216
112	0x3d2fa70a	0.04288391
113	0x39829084	0.00024903205
114	0x3e6a49a0	0.22879648
115	0x3d162ea2	0.036665566
116	0x3d465cdb	0.048428398
117	0x3e6bb96d	0.23019953
118	0x3eae7a14	0.34077513
119	0x3ea3fbee	0.32028145
120	0xbd76e14f	-0.060273465
121	0xbdaec206	-0.08533101
122	0x3c5b7b22	0.013396056
123	0x3d239865	0.039940257
124	0x3e648b94	0.2231887
125	0xbd9fbbe4	-0.07799509
126	0xbd3df094	-0.04637201
127	0xbc32887c	-0.010896798

value.2.weight f4 [1, 128]
0	0x3e2aa926	0.16666088
1	0xbf442873	-0.7662422
2	0x3ce3e638	0.027819738
3	0xbd27329e	-0.040819757
4	0x3b000113	0.001953189
5	0xbda8e484	-0.08246711
6	0x3d5f5767	0.054526713
7	0xbeab6cf3	-0.3348156
8	0x3c1d8c39	0.009615951
9	0x3e246545	0.16054256
10	0xbc89a818	-0.016803786
11	0x3c8248f1	0.015903922
12	0x3c4b3d41	0.012404741
13	0x3bfcccf1	0.0077148606
14	0x3c7c4aa7	0.015398658
15	0xbc3a9ceb	-0.011389951
16	0xbd3e06f0	-0.046393335
17	0xbc1e5501	-0.009663821
18	0xbca9847b	-0.020693054
19	0x3cd917fc	0.026500694
20	0x3d24ef40	0.04026723
21	0x3e30b361	0.17255928
22	0x3d111754	0.035422638
23	0xbd6b9d6b	-0.057523172
24	0x3c2fe4d2	0.010735707
25	0xbd38c563	-0.045110118
26	0xba4e5b7f	-0.00078719103
27	0x3db27d0c	0.08715257
28	0x3eb4b521	0.3529444
29	0xbca4b838	-0.020107374
30	0x3e323429	0.1740271
31	0x3c890b0d	0.016728902
32	0x3db61662	0.08890988
33	0x3a055af4	0.00050871004
34	0xbd84a2d7	-0.06476372
35	0x3da35222	0.0797465
36	0x3ce6dd9c	0.028181843
37	0xbd1f1a89	-0.038843665
38	0xbf872a84	-1.055985
39	0x3dbd2252	0.09235062
40	0x3def5b76	0.11687367
41	0x3c681d4a	0.014167139
42	0x3eb4ec12	0.35336357
43	0xbeefffda	-0.46874887
44	0xbd893031	-0.06698645
45	0x3d7cfe6d	0.061766077
46	0x3c03d081	0.008045317
47	0x3df4f8f3	0.11961546
48	0xbecf99ea	-0.40547115
49	0xbee030d2	-0.43787247
50	0x3b05ba24	0.0020405138
51	0x3cb1867d	0.021670574
52	0xbf0845aa	-0.532313
53	0x3e0aff4e	0.13573954
54	0x3cfa082a	0.030521471
55	0xbceed979	-0.029156433
56	0x3d0bc213	0.03412063
57	0xbc05780a	-0.008146295
58	0xbcbabd94	-0.022795476
59	0x3cbca91d	0.023029858
60	0x3ad5bae1	0.0016306305
61	0xbf9fb3b7	-1.247672
62	0xbf5a979d	-0.85387594
63	0x3c6a024f	0.014282777
64	0x3e20d4cf	0.1570618
65	0x3e2e7d08	0.17039883
66	0x3d6c4a4c	0.057688043
67	0xbd38e4b5	-0.045139987
68	0xbe271a95	-0.16318734
69	0x3e0ac4a4	0.13551575
70	0xbc65a46d	-0.014016253
71	0xbf39062d	-0.7227505
72	0xbbd8055b	-0.0065924353
73	0x39ea04ce	0.00044635538
74	0xbbc52480	-0.006016314
75	0x3e2253ab	0.1585223
76	0x3c10d469	0.008839705
77	0xbb088c67	-0.002083564
78	0x3dbcb0bd	0.09213398
79	0xbcaba6a8	-0.020953491
80	0xbd31bdb1	-0.043393794
81	0xbc75a2a9	-0.0149923945
82	0xbba5b606	-0.0050570993
83	0xbca60e27	-0.02027042
84	0xbc6f969e	-0.014623312
85	0xbca42426	-0.020036768
86	0xbd233fad	-0.039855648
87	0x3e25c531	0.16188504
88	0x3e1e6379	0.15467633
89	0x3e0539c0	0.13010311
90	0x3c8f4808	0.017490402
91	0xbd895477	-0.067055635
92	0xbd127495	-0.035755713
93	0x3c25d1e8	0.010120846
94	0xbd1e2ef3	-0.038618993
95	0xbcac9001	-0.02106476
96	0x3df5337a	0.11972709
97	0x3f2d5720	0.6771107
98	0x3b550ebe	0.0032510008
99	0x3c5155c9	0.0127768
100	0x3e03659b	0.12831728
101	0xbf019b45	-0.5062755
102	0xbd69093b	-0.05689357
103	0xbc935fdb	-0.017990043
104	0x3e0e780b	0.1391298
105	0x3b8b31e0	0.004247889
106	0x3abe1e6b	0.0014504915
107	0x3d19ed46	0.037579797
108	0xbd8385f4	-0.06422034
109	0xbea409b9	-0.32038668
110	0x3c5e6d9c	0.013575938
111	0xbefcc6cc	-0.4937042
112	0xbf00add2	-0.5026523
113	0xbf28d2d1	-0.6594668
114	0x3d9ce017	0.07659929
115	0xbd54c30a	-0.051943816
116	0xbbb8c169	-0.0056382907
117	0x3dd11995	0.102099575
118	0x3dfa38cb	0.12217864
119	0x3e1f0d15	0.15532334
120	0xbd9906dc	-0.074720114
121	0x3ca60fe7	0.020271255
122	0xba72f246	-0.0009267669
123	0xbf7c21af	-0.984889
124	0xbf32b95c	-0.69814086
125	0xbad2e03d	-0.0016088557
126	0x3bbb993a	0.005725053
127	0x3aabd1cc	0.0013108789

advantage.0.weight f4 [128, 128]
0	0xbc3aabe2	-0.011393519
1	0xbdf01179	-0.11722083
2	0x3a2e9946	0.0006660413
3	0xbe14f51f	-0.14546631
4	0xbd3dac8b	-0.046307128
5	0x3d017d32	0.031613536
6	0x3bc9f36f	0.0061630527
7	0x3d19f59a	0.03758774
8	0x3d00e01b	0.031463724
9	0xbc904be3	-0.01761431
10	0xbd126010	-0.035736144
11	0x3a36021e	0.00069430645
12	0x3db1d9b6	0.08684103
13	0xbc8088a8	-0.015690163
14	0xbc861e61	-0.016371908
15	0xbd6fc5bf	-0.058538195
16	0x396bc000	0.00022482872
17	0xbc5e0492	-0.013550894
18	0xbcb1e367	-0.02171488
19	0xbda5f7eb	-0.08103927
20	0xbe028593	-0.12746267
21	0xbd84fe48	-0.06493813
22	0xbdb2aa03	-0.087238334
23	0xbe07d682	-0.13265422
24	0x3d340b1a	0.0439559
25	0xbdc6d1e5	-0.09708003
26	0xbd89cb41	-0.06728221
27	0xbd3ac762	-0.045600303
28	0xbc23a5b6	-0.009988239
29	0xbd597fb3	-0.0531003
30	0xbdd4a9d7	-0.10383957
31	0xbdc426d9	-0.09577722
32	0xbd90dab6	-0.07072966
33	0x3c4d61ca	0.012535522
34	0xbadc96e4	-0.0016829637
35	0x3d8b073f	0.067884915
36	0xbd84f994	-0.06492916
37	0xbd851579	-0.06498236
38	0xbd39a4ab	-0.045323055
39	0xbdbbbc3d	-0.09166763
40	0xbd9911f0	-0.074741244
41	0xbd7322d6	-0.059359394
42	0xbdaee652	-0.08540024
43	0xbdc4acf6	-0.09603302
44	0xbd62cbba	-0.05537007
45	0xbd398d6d	-0.04530089
46	0x3db4aadc	0.08821651
47	0x3cd9944d	0.026559973
48	0xbde188f5	-0.110124506
49	0x3ba5f1d0	0.0050642267
50	0x3d44900e	0.047988944
51	0xbbcffbd0	-0.006347157
52	0x3cb79a84	0.022412546
53	0x3ba797e6	0.0051145433
54	0x3a6bcc6b	0.0008994999
55	0xbc806fdc	-0.015678339
56	0x3d63352b	0.055470627
57	0xbd5da48d	-0.054112006
58	0xbda93afa	-0.08263202
59	0xbba80642	-0.005127699
60	0x3d5ef73a	0.054434992
61	0x3c747e54	0.014922697
62	0x3ce7c30f	0.028291253
63	0x3d768e77	0.06019446
64	0x3d86b9a9	0.065783806
65	0x3da14167	0.07873803
66	0xbc5158e4	-0.012777541
67	0xbd431fae	-0.047637634
68	0x3a877632	0.0010334908
69	0x3d1ae8bf	0.03781962
70	0xbdca53b7	-0.098792486
71	0xbc254bc8	-0.010088868
72	0xbd8900bc	-0.06689593
73	0xbd09c452	-0.03363449
74	0xbd6bdfee	-0.057586603
75	0x3d86a19d	0.06573794
76	0x3d566a6f	0.052347597
77	0xbda635aa	-0.08115704
78	0xbddfd623	-0.10929515
79	0x3cd14b83	0.025548702
80	0x3d7e02de	0.062014453
81	0xbd07b7ba	-0.0331342
82	0x3c6091b9	0.013706618
83	0xbd9b5759	-0.075850196
84	0xbd96de68	-0.073666394
85	0xbe34bbd8	-0.17649782
86	0xbc8b362c	-0.016993605
87	0x3ca9a5f1	0.02070901
88	0x3d80d5ab	0.06290754
89	0x3c92abbb	0.017904153
90	0xbd561aa9	-0.05227152
91	0xbbdefc55	-0.0068049827
92	0xbdb76efc	-0.089567155
93	0xbdcda4d4	-0.10041204
94	0x3d1ad06a	0.037796415
95	0xbd018106	-0.031617187
96	0xbdaf6016	-0.08563249
97	0xbcbff2f4	-0.023431279
98	0x3ce9f0e7	0.028557254
99	0xbdca9fdb	-0.09893771
100	0xbda17ebe	-0.07885502
101	0x3cd97919	0.026547002
102	0xbd746c55	-0.059673626
103	0x3d177f62	0.036986716
104	0x3cf631e1	0.030053081
105	0x3d27fd3a	0.04101298
106	0xbdd69f38	-0.10479587
107	0xbd57d665	-0.052694697
108	0x3d6699ac	0.056298897
109	0x3d4784f0	0.048710763
110	0xbd9d806a	-0.07690509
111	0x3d6bd74d	0.057578374
112	0xbd8ab921	-0.06773592
113	0x3d7e88a1	0.06214202
114	0xbd4cc0f4	-0.049988702
115	0x3b6e375e	0.003634892
116	0x3d252aec	0.040324137
117	0xbd7bfa17	-0.0615178
118	0xbad1f0ea	-0.0016017233
119	0xbd34ef69	-0.04417363
120	0xbc6c1d46	-0.014411276
121	0xbe0e15f9	-0.1387557
122	0x3b213560	0.0024598464
123	0x3c5e900c	0.013584148
124	0x3d20bb85	0.039241333
125	0xbe17cc8e	-0.14824125
126	0xbda1cb53	-0.07900109
127	0xbc86e755	-0.01646773
128	0x3c9f76b6	0.019465785
129	0xbf38e8f7	-0.72230476
130	0x3c01dca0	0.007926136
131	0xbee4a041	-0.44653514
132	0xbc6276ee	-0.0138223
133	0xbeed6753	-0.46367893
134	0xbd976c75	-0.073937334
135	0x3c5d5278	0.013508432
136	0xbd6d5191	-0.057939116
137	0xbe9a79ad	-0.30170956
138	0xbece3e41	-0.4028187
139	0xbb414d1c	-0.0029495424
140	0x3cbdcbf9	0.02316855
141	0x3c2ac961	0.010423989
142	0xbd9a1769	-0.075239964
143	0x3d208a27	0.039194252
144	0xbd900956	-0.07033031
145	0xbd8b7eba	-0.068112805
146	0xbf16207e	-0.5864333
147	0x3c9b73e1	0.018976154
148	0xbd6300d0	-0.055420697
149	0x3d9aab1e	0.07552169
150	0xbd897061	-0.06710888
151	0xbe2c8310	-0.16846871
152	0x3d1e55c2	0.038656004
153	0xbc6825a0	-0.014169127
154	0x3d90310b	0.07040604
155	0x3e0abca1	0.13548519
156	0x3d3b4785	0.045722503
157	0xbd9f1b04	-0.07768825
158	0xbe545c2c	-0.20738286
159	0xbee81bee	-0.4533381
160	0x3bf8e229	0.0075953198
161	0xbd6d25db	-0.05789743
162	0xbd873440	-0.06601763
163	0x3c02b6d8	0.007978164
164	0x3d9d23f9	0.07672877
165	0xbcf13fc4	-0.029449351
166	0xbcf16b37	-0.02947007
167	0x3e359030	0.17730784
168	0x3dc4083f	0.09571885
169	0x3d888b65	0.066672124
170	0x3d4d1f02	0.0500784
171	0x3c195c67	0.009360409
172	0xbd415a13	-0.047205042
173	0xbf3d5780	-0.7396164
174	0xbd8b3d37	-0.06798785
175	0xbe4f1424	-0.20222527
176	0x3ca1c5af	0.019747583
177	0x3d3ea566	0.046544455
178	0xbea18686	-0.31547946
179	0x3d733e8a	0.059385814
180	0x3da998e3	0.08281114
181	0x3cef13f5	0.029184321
182	0x3cb4385c	0.02199953
183	0xbcf3b89f	-0.02975112
184	0xba9329c8	-0.0011227662
185	0x3cb75710	0.022380382
186	0x3e980288	0.2968943
187	0xbe66a5df	-0.22524212
188	0x3dacc403	0.08435824
189	0xbdb00502	-0.08594705
190	0xbda189b4	-0.07887593
191	0xbc9c8fc9	-0.01911153
192	0x3d9d6619	0.07685489
193	0x3c1936ff	0.009351491
194	0xbd4bdc92	-0.0497709
195	0x3d16a40a	0.036777534
196	0xba5e5354	-0.0008481045
197	0xbd277d45	-0.04089095
198	0xbe5044bf	-0.20338725
199	0xbdb1235b	-0.08649322
200	0x3e333fad	0.17504759
201	0xbd0ccc77	-0.03437468
202	0x3ce31d05	0.027723799
203	0x3d9b888a	0.07594402
204	0x3cfd73cd	0.030939007
205	0xbe860e82	-0.26182944
206	0xbd948b0b	-0.07253083
207	0xbd3b6b5d	-0.045756686
208	0xbc8a03c6	-0.016847502
209	0xbd37f62b	-0.0449125
210	0xbed0a310	-0.40749407
211	0x3e0038cb	0.12521665
212	0xbd85930d	-0.06522188
213	0xbe92e1d0	-0.28687906
214	0x3cdce63f	0.026965259
215	0xbf185b25	-0.59514076
216	0x3da02dfb	0.0782127
217	0xbf42ba9f	-0.7606601
218	0xbd937f80	-0.07202053
219	0xbe9884ac	-0.2978872
220	0xbda79ce1	-0.08184219
221	0xbb38c1a3	-0.0028191588
222	0xbd772df2	-0.06034655
223	0x3d8d693b	0.06904837
224	0xbda3d1bb	-0.07998987
225	0xbd944b8a	-0.072409704
226	0x3dfe6c2e	0.124229774
227	0xbf1551f7	-0.58328193
228	0xbb0578e0	-0.0020366237
229	0xbec73805	-0.38909927
230	0xbd5a10f4	-0.053238824
231	0x3d1007af	0.035163578
232	0xbf24660d	-0.6421822
233	0x3bba579e	0.0056867143
234	0xbefd3400	-0.49453735
235	0xbc96358c	-0.01833608
236	0x3da562ac	0.08075461
237	0x3d7a12fb	0.061053257
238	0xbd82e2f3	-0.063909434
239	0xbd9d25e8	-0.07673246
240	0xbe7f30aa	-0.24920908
241	0xbd63e6fe	-0.055640213
242	0xbb207ae2	-0.0024487306
243	0xbcf575de	-0.02996343
244	0xbd89afe2	-0.06723
245	0x3d5372b7	0.051623072
246	0xbd82ad6d	-0.063807346
247	0xbdb8c070	-0.090210795
248	0x3d9a6a53	0.07539811
249	0xbcb1c764	-0.021701522
250	0xbd6be962	-0.057595618
251	0x3d8705f5	0.06592933
252	0x3d3c85f4	0.046026185
253	0x3d19cb16	0.037547193
254	0x3e788704	0.24270254
255	0xbe6275a1	-0.22115184

advantage.0.bias f4 [128]
0	0x3ceaf518	0.028681323
1	0x3ceeaa28	0.029133871
2	0xbc8ee3d3	-0.01744262
3	0xbd9be8c4	-0.07612756
4	0x3db09085	0.08621315
5	0xbdf3170e	-0.11869632
6	0xbd6a0e6f	-0.05714267
7	0xbd84a32b	-0.06476434
8	0xbda431a8	-0.08017284
9	0xbe1b739e	-0.15180823
10	0x3d196f8d	0.0374599
11	0xbe4cdbc5	-0.2000571
12	0x3def7b56	0.11693446
13	0xbb21f908	-0.0024715085
14	0xbdd74317	-0.10510843
15	0xbd38a9e6	-0.045083903
16	0x3e0b7a34	0.13620836
17	0xbda16757	-0.07881039
18	0xbb45b5a9	-0.0030168092
19	0x3d513f44	0.051085725
20	0xbdb08280	-0.08618641
21	0xbcf637db	-0.03005593
22	0xbc62268e	-0.0138031375
23	0xbd9cb86e	-0.07652365
24	0xbd1022c6	-0.035189413
25	0xbddd083a	-0.10792585
26	0xbcc07008	-0.02349092
27	0x3cffcb14	0.031224765
28	0xbd841a2b	-0.06450304
29	0x3d5c3820	0.053764462
30	0xbdf38f85	-0.118926086
31	0x3c841128	0.016121462
32	0xbdfcc4fa	-0.12342258
33	0xbd13bb08	-0.03606704
34	0xbd05aa59	-0.03263316
35	0x3c95d15f	0.018288312
36	0xbb9e2b7b	-0.0048269606
37	0x3d00db37	0.03145906
38	0xbc267d9f	-0.010161786
39	0x3d933dc1	0.07189513
40	0xbca4a594	-0.020098485
41	0x3e16012d	0.14648886
42	0x3d57b6e2	0.052664645
43	0xbde895b8	-0.113566816
44	0x392ba190	0.00016368018
45	0xbbc40d62	-0.0059830407
46	0x3d6786ed	0.05652516
47	0x3cb0c7e4	0.02157969
48	0xbdb693bd	-0.089148976
49	0x3ca81fd3	0.020522987
50	0xbdcb60cc	-0.09930572
51	0x3d0dd668	0.0346283
52	0xbdbb79be	-0.0915408
53	0xbde3a3e0	-0.11115241
54	0x3d00eae5	0.031474013
55	0xbd81232a	-0.06305535
56	0xbbe96415	-0.0071225264
57	0x3b921119	0.0044576046
58	0x3d697c01	0.057003025
59	0x3cef0c85	0.029180774
60	0xbe049f2f	-0.12951349
61	0xbcb8767a	-0.022517432
62	0x3e471c63	0.19444422
63	0x3d8819cd	0.06645546
64	0x3d21c520	0.039494634
65	0xbde24c52	-0.11049713
66	0xbdd300bf	-0.10302877
67	0xbd855234	-0.065098196
68	0xbcaeb751	-0.021327646
69	0x3d990930	0.074724555
70	0x3dd6b5c2	0.10483886
71	0xbd9db14a	-0.07699831
72	0x3d784f9d	0.0606228
73	0x3c580cfd	0.01318669
74	0xbd31d911	-0.0434199
75	0x3e2e7bb1	0.17039372
76	0xbe07e2be	-0.13270089
77	0x3d67bad7	0.05657467
78	0xbdcc7ac1	-0.09984351
79	0x3ce9573e	0.028483983
80	0x3d6b1848	0.057396203
81	0x3da103b5	0.07862035
82	0x3d77b5b1	0.06047601
83	0xbaaf215b	-0.0013361381
84	0xbd1eaab7	-0.038737025
85	0x3d962495	0.07331196
86	0xbd1e9d0f	-0.038724
87	0xbc28ae8f	-0.010295524
88	0xbd564934	-0.052315906
89	0xbb76581b	-0.0037589136
90	0xbdbe8848	-0.09303337
91	0xbdaa067e	-0.083020195
92	0xbc02a025	-0.007972752
93	0xbdcf7167	-0.10129052
94	0xbd80450c	-0.0626317
95	0x3d914585	0.07093338
96	0x3e5a3e6c	0.21312875
97	0xbd00268b	-0.031286757
98	0xbdeedf27	-0.11663657
99	0x3d0b18b4	0.033959106
100	0x3d80dfa5	0.06292657
101	0x3e68d053	0.2273572
102	0xbdb6ee10	-0.089321256
103	0xbd9ffe54	-0.07812181
104	0xbda9cd7c	-0.08291146
105	0x3dd04d43	0.101709865
106	0x3d0c6a4b	0.034281056
107	0xbca4a1b4	-0.020096637
108	0xbd9a05f3	-0.07520666
109	0x3e5ce114	0.21570235
110	0xbd65a0b0	-0.056061447
111	0xbd54b600	-0.05193138
112	0x3d6e6a61	0.05820692
113	0x3d20a8e9	0.039223585
114	0x3e0d461a	0.13796273
115	0x3d4bb4bc	0.04973291
116	0x3d864e22	0.065578714
117	0xbdd640c8	-0.10461575
118	0xbd02d023	-0.031936776
119	0xbde22956	-0.110430405
120	0xbca82ff0	-0.02053067
121	0x3da632fa	0.08115192
122	0xbd80fc97	-0.06298178
123	0x3e258762	0.16164926
124	0xbd803ca8	-0.06261569
125	0xbd8e0c5a	-0.069359496
126	0xbcd0b789	-0.025478141
127	0xbda303a1	-0.079596765
