test_for_cleanRL/models/dueling.pt (torch, 273215 bytes, 11 tensors)

extractor.net.0.weight f4 [256, 2]
00000000: 2ba4 2d3f aee9 6940 4fc6 dcbe d3cc 6a40
00000010: d1f8 20be b3f1 60be 586c 4e3f e490 b540
00000020: f008 b53d b3b3 9d40 5b28 1bbf ee28 04c1
00000030: 1bff 11be cbd3 72be 3e4c 8c3d 9264 3f40
00000040: 5021 7d3e e0c5 67c0 07af 043f 9c43 b840
00000050: ce43 ec3e c089 4fbe 038e 173e ea7a 86c0
00000060: cb2a 5bbe 6f7c b4bf 6163 45bf b8f4 6a40
00000070: ecb4 273e 709d f7be cfa8 3cbe c26c 6bc0
00000080: f104 b83b 5d6b 7740 1d7a 4b3e 4f4c c4c0
00000090: 9815 143f 1c9c 8e40 d2ff f03e ff33 1e3f
000000a0: baa1 8cbe 4531 c43d 624d 82be d8ac c4bd
000000b0: 8e80 b83e 75e7 163f 6b86 85bd e31a fa40
000000c0: b12b bd3d b11f 9a40 48ca 883e 6063 3b3d
000000d0: 4221 17bf 9d2f 66c0 8c4b 63be 4b31 24bd
000000e0: c1ab 99be 8af2 18bf ad24 b6be 0945 a9c0
000000f0: 531f 043f a840 93bd bb2c 19be cc22 973d
00000100: 07d0 213f b2c9 8e3e b4cf 8e3e bf1e 7a40
00000110: 80b2 2a3f 031d 6a3f db50 2c3f 36b0 d7bf
00000120: c5ff 573f 689a 0c3f 9860 33be 2837 623e
00000130: 78ab e43d 0c16 803e 1e38 12bf a877 28c0
00000140: 7a83 da3e 4443 0bbe 621b 8dbd de70 1f40
00000150: bf73 e5be d930 8bc0 00a8 a1b9 3e3c eabe
00000160: fa64 453f fb9b 7b40 cdb5 debe 67dd 9d3e
00000170: 62a4 babe 548f 65c0 1291 e53e 503e 2ebf
00000180: 98fa f7bd e2d1 6bbe 9e53 12bf 0224 35c0
00000190: fccc ffbe ac7b 263f 20ca 853f 0503 4e40
000001a0: fa50 0f3f 4858 8740 6ca9 29be 45e0 2f3f
000001b0: b481 dfbe 675c 0ec1 72c6 863d 1d59 5dbf
000001c0: 1fff a3be 4e61 d8c0 8ac4 e6be c568 333f
000001d0: 5d54 90be 2f88 5dbf 32b8 3c3f 4055 12be
000001e0: 87f6 863e 5dc7 1a40 d092 2ebe 00b7 d6bd
000001f0: 5998 02bf 79bb 213f ac16 163e 226f 8740
00000200: c3b8 21bf e7dc 38c0 474c 533e b35e f93e
00000210: 5081 2cbd eac9 dc3e 4d59 2ebf 7fa1 acbf
00000220: 6eef 36be ac08 a33e 101b 08be d071 ce3d
00000230: e184 5ebe b3c4 7e40 bafe ab3e 8343 f5be
00000240: 5f1b 0fbe b36c c2c0 0c00 0fbe 3432 433e
00000250: 324e 973f d002 0040 5471 f63e 5f56 7740
00000260: 2e85 a7be b087 84be 9792 013e 36a9 ea3e
00000270: 80d8 d0be a948 89bf 6324 f3be c2ec 353e
00000280: fab5 d63d 3f0a be40 e4a9 3c3e 0e48 ad40
00000290: bf92 51be 9abb 5f3e 6c9f 033e aa1f fbbe
000002a0: a70b 2f3f 3392 193f 38e2 d23e b4b9 a33f
000002b0: 7bd8 c23e e4b5 a440 532f cb3d 0f3c 9940
000002c0: 7ce2 363e c0a2 fa3d a6d5 46be d0a1 8c40
000002d0: 3364 97be b2a8 dcc0 6b64 ddbd 3897 c940
000002e0: b0e1 b93d f4d2 2cbf 0bf7 16bf ae4d 24bf
000002f0: 81a7 06bf ad29 9cbf f986 263f dfc6 ce40
00000300: b954 2a3f 15fc be40 f5c2 123e 7ce6 babe
00000310: 2a08 05bf 2b47 4540 525e 5dbe d059 9b3e
00000320: 3540 4ebe 9e5a 24be afbe b7bc aabe 15bd
00000330: 2bbe ecbe 0c98 c5bf 8289 f33e 7127 8dbe
00000340: 2a98 633d 8181 ab3f 813d cd3e e1c7 8240
00000350: 9b2b 14bd 8c41 923f 47ba a13d c0b4 cb3e
00000360: a0cd a8bc 94c9 933e bef0 f3be b4e5 84c0
00000370: 909f debd 4874 9c3d 4e84 993e da22 c03e
00000380: 49ac 09bf 1b61 b1bf 40b8 37be 5656 b2be
00000390: 1da2 ccbe f87f 353f fb92 88bf 81d4 e23e
000003a0: 2078 83bc 11f5 31bf 68ab febd 805a 893b
000003b0: 5c84 043f 3e1c 6540 0093 72bd ce8d fdbe
000003c0: b774 083f 918e 0b3f f6c7 8a3e f0ff c53d
000003d0: 969e d43e f04c 7e3d 9ad7 1d3f 05df a440
000003e0: 661d 2f3f da34 823f 7202 acbe f047 523d
000003f0: 5e82 943e 1121 013f aa22 de3e 28bf b8bd
0.67828625 3.6548877 -0.43120047 3.6687515 -0.15719916 -0.21967201 0.8063407 5.673937
0.08839595 4.928186 -0.6060845 -8.259993 -0.14257471 -0.23713605 0.068504795 2.9905133
0.24719739 -3.6214523 0.5182957 5.758253 0.4614548 -0.20267391 0.14800267 -4.202504
-0.21403043 -1.4100474 -0.77104765 3.6711864 0.1637761 -0.48362303 -0.1842377 -3.678513
0.0056158234 3.865928 0.19870801 -6.134315 0.5784545 4.4565563 0.47070175 0.6179809
-0.27467138 0.0957971 -0.25449663 -0.0960328 0.3603558 0.58946925 -0.06519779 7.815782
0.09236849 4.8163686 0.26716828 0.04574907 -0.5903512 -3.596656 -0.22196788 -0.040086072
-0.3001385 -0.59745085 -0.35574856 -5.289677 0.51610297 -0.071900666 -0.1495847 0.07379684
0.6320805 0.27888256 0.2789284 3.9081266 0.6667862 0.9145052 0.67310876 -1.685065
0.8437465 0.54923105 -0.17517316 0.22091353 0.111655176 0.2501682 -0.5711688 -2.6323032
0.42678434 -0.13599879 -0.068899885 2.4912639 -0.4481487 -4.349713 -0.00030833483 -0.45749086
0.77107203 3.9313953 -0.43498078 0.3083298 -0.3645354 -3.586873 0.44837242 -0.6806383
-0.12108344 -0.23029283 -0.5715884 -2.8303227 -0.49961078 0.6503246 1.0452309 3.2189343
0.55982935 4.2295265 -0.16568536 0.68701583 -0.43653643 -8.897559 0.06580819 -0.864641
-0.3203058 -6.761878 -0.45071822 0.7008174 -0.28189364 -0.86535925 0.7371856 -0.14290333
0.2635996 2.4184182 -0.17048192 -0.10484123 -0.51013714 0.63176686 0.14657086 4.232316
-0.6317255 -2.8884828 0.20634566 0.48705062 -0.04211551 0.43122798 -0.6810501 -1.3486785
-0.17864773 0.31842554 -0.13291574 0.10080302 -0.21730377 3.9807556 0.33592778 -0.4790307
-0.13975285 -6.075769 -0.13964862 0.1906212 1.1820738 2.0001717 0.48133337 3.8646467
-0.32718796 -0.2588477 0.12653576 0.45832223 -0.40790176 -1.0725299 -0.47488698 0.17766097
0.10483928 5.9387507 0.18424183 5.4150457 -0.20466135 0.21848908 0.12853783 -0.49047595
0.68377155 0.5998871 0.41188216 1.2791047 0.38055786 5.1472034 0.09921136 4.7885814
0.17859834 0.12238073 -0.19417438 4.3947525 -0.29568633 -6.8955927 -0.10810169 6.2997093
0.090762496 -0.6750939 -0.5897071 -0.6418103 -0.5259934 -1.2200218 0.650497 6.4617763
0.66535527 5.9682717 0.14332183 -0.3650397 -0.5196558 3.0824687 -0.21618012 0.3034196
-0.2014168 -0.16050193 -0.022429792 -0.036558785 -0.46238837 -1.5437026 0.47565848 -0.27569154
0.055565037 1.3398896 0.40085986 4.0868993 -0.036174398 1.1426253 0.07896858 0.3978634
-0.020605862 0.2886473 -0.4764461 -4.15304 -0.10870278 0.076393664 0.29983753 0.3752659
-0.5377851 -1.3857759 -0.1794138 -0.34831494 -0.39967433 0.7089839 -1.0669855 0.44302753
-0.016048491 -0.69514567 -0.12435037 0.0041916966 0.51764464 3.5798488 -0.05922222 -0.4952225
0.5330309 0.54514414 0.27105683 0.09667957 0.4152724 0.062085092 0.61657107 5.152224
0.68404233 1.0172379 -0.33595616 0.051338136 0.29005712 0.5044108 0.43385822 -0.09020835

extractor.net.0.bias f4 [256]
00000000: 5a7c 073e bca7 82be c75d 103f bdbe 16be
00000010: 6e3c 0bbd 025d 67be 1d37 db3e 1b4f 8cbc
00000020: a6f8 a33e 88b1 e33e 13e0 1ebf b4e2 e13d
00000030: d2f3 813e 23ba aabe dd77 d1be cdb0 253d
00000040: 1504 86bd eba8 b33c a455 243f ed14 24bf
00000050: 91d3 a8be 68ee af3e dc27 c93e 6555 24be
00000060: 1d36 393e c946 2cbf 498f 0ebe 085f e03d
00000070: 4efa 31bf b1c5 a239 354c d1be a28a 0f3f
00000080: 3ee6 1abf 1aff 223d 3eac 9f3e 26a9 a03e
00000090: c0c4 93bd 2bbf 9fbe b5bf dcbe 7817 41bf
000000a0: 6614 1fbf e186 673d f946 00bf 9ecd 2ebf
000000b0: 2c44 5b3e 1ded 203f 7ac1 eebc 56b0 cebe
000000c0: 1aa2 bcbe df2f 8abe 2f62 26bf a7e9 1b3e
000000d0: 7c9f 4e3e 1ea9 81be d21a 5cbe 9364 2c3e
000000e0: dad3 04be e2fa 8fbe 0afd b43e c16c a23e
000000f0: 8db5 b13e efb8 9fbe 80be 29bf 82b4 7c3e
00000100: 229b 40be 2896 b83e d84e f4bd 5e34 cebe
00000110: 5227 0a3e c67a 1dbf 6257 1bbe 3fc5 bebe
00000120: 9f47 de3d 5e6d 66be e248 dc3e 0130 d93c
00000130: 9272 8b3e 39ce f23e 30e0 aa3c a96d 4ebe
00000140: 3f14 0f3e 4872 afbd 5da2 063e 4d32 18bf
00000150: 32fc fcbe 1ef6 ea3e b6cc 96bd cf9d 4ebd
00000160: d0de 51be 81b6 12bc d122 f8bd fa2b 35be
00000170: 5b9d 16bf 70f4 c43e b17a c43e a0bc 663e
00000180: bf02 eb3d 0cdd dbbd 8f5f 8bbe 27fa 8cbe
00000190: b90f b63e 377c cd3e 1f0b 323d 1790 d3be
000001a0: 17d0 b33e a804 d63e 4043 063f b5aa a3bd
000001b0: e4b4 04bf eba9 09bf 58bc 87be a36c e6be
000001c0: 7300 fb3c 2442 32bf cbda fd3e 4361 ecbe
000001d0: 7263 d5be f500 d1be 669d f33e 7c85 a1be
000001e0: 900f 09bf 156c d8be ad05 bcbe 4de0 b43e
000001f0: 38ca a33e 6423 2fbf f4b3 b2be c4c9 26bf
00000200: 8797 ffbe 4978 cd3d 9f1b b3be 2a19 f5be
00000210: 376b d9be ce97 04bf 4f81 923e 330c 3fbe
00000220: 7abd 64bd e21c 903e ec6e c13e 1aa8 ee3e
00000230: eab6 f3be 7bef 123f 1594 08bf f0bb 0bbf
00000240: 2d1f b73d f3e4 dfbe 028d 263e 6cb5 a93d
00000250: 344e b53e 59a5 2ebe 1259 aa3e 1a71 7a3e
00000260: 6bbc 12bf 61e8 19be 1732 8abc 7bc9 40bd
00000270: 6d7f 72be 119b c8be 7329 8d3e f2f0 92be
00000280: 782a 2ebf 38d9 f7be 4333 12bd 62c1 a2be
00000290: fdca 23bf 442f a4be 42b9 833e bcdb 993e
000002a0: d99e 93be 32e6 323c 2385 9bbe 8258 753e
000002b0: 0acd 223f 3ac9 95bd 98e5 503e 551a d23e
000002c0: 4b98 11bf b70b 263e 7ccc 0bbf c29d 503e
000002d0: 46f5 24bf c1ce febe c134 8a3e 985d 0bbf
000002e0: 5335 26be cd17 0b3f 1b16 b3bd cf88 f3bd
000002f0: d0f8 edbd a883 edbe d734 473c 1f0a 55be
00000300: 0c61 45be e714 9abe ae38 1bbd a926 c53e
00000310: 92b1 47bf d0d3 f4bd 4bad 5ebd faa4 1b3e
00000320: ca73 623e 5f99 883e c124 fabe fa27 ab3e
00000330: 42ff c83e ba45 cbbc 7bac 1fbe f371 933e
00000340: deaf 25bf b51d 213f 8ec9 afbe 978b d23e
00000350: 4814 9bbe 25b5 c2bd 533e 003f c462 763e
00000360: 122a 00bf b417 efbe aedc 49bd a36c 15be
00000370: a269 b13e 1ced 9f3e e233 1d3e 72c9 653e
00000380: 5e03 21bf 6db8 dabe c3f4 a3be 2f27 293e
00000390: c577 20bf 9eb1 90bd d1a8 3b3e a2a5 d63d
000003a0: 249a 84be ca43 83be 3009 e0be 88cb f7be
000003b0: 0a6f 63be 964f 1fbc a800 033e 7564 2abf
000003c0: bac2 fbbe ffb1 d8be e4c3 08be 1fab 81be
000003d0: 5d1b 30be 1aff 77bb 549b bebd cce6 2cbf
000003e0: 728d c3be f9c9 0dbf f4ed ce3d cfa0 bdbd
000003f0: 5a77 c9be ec08 af3e b33f 0cbe 4d9f b23e
0.1323103 -0.25518596 0.5639309 -0.14721198 -0.033993177 -0.22594073 0.42815486 -0.017127564
0.3202564 0.44471383 -0.6206066 0.11029568 0.25381333 -0.33345136 -0.4091176 0.040451813
-0.06543747 0.021931132 0.6419318 -0.6409443 -0.32973912 0.34361577 0.39288223 -0.160482
0.18087049 -0.6729551 -0.13921846 0.10955626 -0.6952256 0.0003104634 -0.40878454 0.5607091
-0.6050757 0.039794065 0.31186098 0.3137905 -0.072152615 -0.31200537 -0.4311501 -0.75426435
-0.621405 0.056525115 -0.50108296 -0.68282497 0.21412724 0.62861806 -0.029144991 -0.4036891
-0.36842424 -0.26989648 -0.64993566 0.1522585 0.20178026 -0.2532434 -0.21494606 0.16835241
-0.1297144 -0.28121096 0.35349303 0.31723598 0.34708825 -0.3119578 -0.66306305 0.24678233
-0.18809178 0.3605206 -0.11929101 -0.40274328 0.13491562 -0.6151546 -0.15170053 -0.37259862
0.108535044 -0.22502658 0.43024355 0.026512148 0.27235848 0.4742296 0.020858854 -0.2015902
0.13972567 -0.08566719 0.13147874 -0.5945175 -0.4941116 0.45890898 -0.07363264 -0.050443467
-0.20495152 -0.008954645 -0.12116016 -0.17692557 -0.58833855 0.3846774 0.38374856 0.22532892
0.11475133 -0.10735521 -0.27221343 -0.275346 0.3555887 0.4013383 0.043467637 -0.4132087
0.35119697 0.41800427 0.52446365 -0.07991544 -0.5183852 -0.537749 -0.26510882 -0.45004758
0.030639863 -0.6963217 0.49580988 -0.46167955 -0.41677433 -0.40821043 0.47581023 -0.31547153
-0.5353937 -0.4226996 -0.3672308 0.35327378 0.31990218 -0.68413377 -0.34902918 -0.6515162
-0.49920294 0.10032708 -0.3498201 -0.4787076 -0.4246461 -0.51794136 0.2861428 -0.18656997
-0.05584476 0.28147036 0.3777994 0.46612626 -0.4760049 0.5739667 -0.53350955 -0.54583645
0.08941493 -0.43729362 0.16264728 0.082865566 0.35411227 -0.17055263 0.3327108 0.24457207
-0.57318753 -0.15030052 -0.016869588 -0.047067147 -0.23681422 -0.39180806 0.27570686 -0.28699452
-0.6803355 -0.48407912 -0.03569342 -0.31788164 -0.6398161 -0.3206731 0.25727278 0.30050457
-0.2883213 0.010919141 -0.30375013 0.23959544 0.63594115 -0.073137715 0.20400083 0.41035715
-0.56873006 0.16215406 -0.54608893 0.2037268 -0.6443676 -0.49767116 0.26993373 -0.5443969
-0.16231279 0.5433319 -0.08744451 -0.118913285 -0.11619723 -0.46389508 0.012158594 -0.20804642
-0.19275302 -0.30094072 -0.03789585 0.38506058 -0.78005326 -0.119544625 -0.054364484 0.15199652
0.22114483 0.26679513 -0.48856166 0.33428937 0.39257246 -0.024813522 -0.1559314 0.28797874
-0.6472148 0.62935954 -0.34333462 0.41122124 -0.3028891 -0.09507207 0.500951 0.24061114
-0.50064194 -0.46697772 -0.049282722 -0.14592223 0.34650904 0.31235588 0.15351823 0.22440127
-0.6289576 -0.4271883 -0.32022676 0.16518854 -0.62682754 -0.07065128 0.18326117 0.10480811
-0.2589885 -0.25637656 -0.4375701 -0.4839747 -0.22210327 -0.009723565 0.12793219 -0.66559535
-0.49172002 -0.423233 -0.13355976 -0.25325868 -0.17197938 -0.0037841261 -0.0930697 -0.6753967
-0.38193852 -0.5538631 0.1010398 -0.092591874 -0.3934887 0.34186494 -0.13696174 0.34887162

extractor.net.2.weight f4 [128, 256]
00000000: 286f f7bc d62a 7dbd 7b33 babd f8e3 3b3c
00000010: 4ab5 15bd 2cf7 f03c 6766 1abd 9872 853c
00000020: 3062 14bc 56b5 05bd 00c6 793c 7ef0 533c
00000030: 36de afbd a18f e33c 4c38 883c 09b5 433c
00000040: 7606 4cbd 1957 b73c bc96 bebc fabb 32bd
00000050: f71f 76bd 044e 76bd def4 11bd 0027 063a
00000060: 642d 99bd 40b8 163c 947e bebd 45a9 2ebd
00000070: 0043 9e3a 32be 95bd 56e1 023d b0f0 0c3c
00000080: 3880 693c 9c6f d9bc 04ed 2dbd 1da5 8ebd
00000090: f6dc 53bd 061c 5c3d c6aa 693d c5d9 77bd
000000a0: 6028 7abb f080 ab3c 13bc 74bc 803d fb3a
000000b0: 60bc 01bb 9bc6 a8bd 8405 7bbd 08c7 813c
000000c0: b03c 6a3d a65b 443c fc87 b33c 5074 993c
000000d0: f889 1fbd 3c60 a6bc c2b2 d6bb 3598 3fbd
000000e0: 5ef9 43bd a268 89bc ae49 bbbd 687a 6e3d
000000f0: 85e9 b13c d834 23bc 643a 3e3d f015 023d
00000100: ae31 7cbd 3c39 96bd d87b c93c 5252 b4bd
00000110: d554 883b 285d 4c3d 6ee5 723d 765c 273d
00000120: 8c0f 73bc ae60 113d 2250 413d 8235 79bd
00000130: b63c 37bd a72d 8abd 5272 fb3c 29dc 29bd
00000140: a0a8 973c 0009 d2b9 b9d1 9cbd 00d1 643c
00000150: 4037 fd3a fb76 a9bd ecf8 32bd 14f2 87bc
00000160: 7ec2 1a3d 3f18 66bd 2c65 f23c ba5b 2fbd
00000170: 5edf 58bd 19c9 16bd f354 61bd c04b 03bb
00000180: 58fa 77bd 3cc1 39bd 22a4 5cbd b6a2 163d
00000190: 9659 3bbd c9bc 52bd 9ffd 12bd e42c 913c
000001a0: a31a 9dbd 946f 8f3c 1eca 5bbd 2c78 62bd
000001b0: 3041 9f3b 6d60 82bd e8c5 00bd 58d8 b23c
000001c0: 08e0 3b3a b44c bc3c 96ab 9cbd 7d4c 84bc
000001d0: 1c9e 8a3c 201e a13c 6846 2b3c 24a6 203d
000001e0: 4847 2a3c f06d acbb 60e7 0c3d b0c3 fe3b
000001f0: dc8a 82bd 607c 963c d8ee 67bd 1ccd 4d3d
00000200: 5067 c93c b4f2 643d 886e 66bc d094 be3b
00000210: fad0 04bd 68ec 703c 600b abbc 6066 97bc
00000220: 10fc 4d3d 8852 223c 5d6b 32bd 0e97 1ebd
00000230: 8080 0a3a 1dd8 24ba 28c0 4b3d 042a 22bd
00000240: 69a2 94bd 45f3 85bb daab 93bd d361 8dbb
00000250: d2ba 51bd a8cc 07bc fe94 403b a336 16bd
00000260: 720b 013d 6cac a1bd 8f95 30bb 0faa 43bb
00000270: 30e6 4ebd 7cec 1c3d 3d95 b13c 3ec5 563d
00000280: c8e4 063c d0ac 08bd 928a 6abd 604d 53bb
00000290: a6a4 24bd 0601 01bd 1cf1 9c3c 6bc4 fd3b
000002a0: f211 4d3d 3c6c dabc a47a 54bd b239 33bd
000002b0: 807b 553c 56d4 4ebd 50d8 603c f97a 233c
000002c0: a0d0 afbb 3c71 b63c fa64 3c3d 742f 0dbd
000002d0: 022a 423d 046e 93bc dcf5 5c3d 1065 5e3d
000002e0: db21 523c 9f2f a9bd 30b9 8dbb b26f 93bc
000002f0: e8cf 50bc 5063 4b3d a989 29bb 9426 59bc
00000300: f23a 05bd e63b 70bd 487c 3cbd e670 69bd
00000310: 39e2 6dbd 4011 f4bc 68ff 7fbc 1a44 aebc
00000320: 509c 4b3c e7f7 18bd 103b bb3c 166c 1ebd
00000330: a2e0 3c3d deed 243d 6045 863c 582d d73c
00000340: 50f5 fc3b 4280 0fbb 8036 1eba c01f 83bc
00000350: 6df1 19bc f429 79bd 006a c6bc 3a26 a0bd
00000360: d1f0 6dbc c847 4dbd daee cc3c dc29 b93c
00000370: 8c34 11bd c1aa 513c 09c6 4ebc 4471 53bd
00000380: 4649 32bd 60ea 0b3c f281 f0bb 4cc9 1bbd
00000390: acb1 7c3d 7111 b13c a69a 27bd 59a0 26bd
000003a0: 587c c7bc 247f 9dbc e0eb 96bb 8401 04bd
000003b0: 52fc 6fbd ea2c 2b3d 4a14 c1bc 9659 72bd
000003c0: 902c 33bc 4c0c f8bc 04f9 1fbd 92b7 03bd
000003d0: bc62 423d 90ef cd3c 1546 ecb9 1ec2 78bd
000003e0: 0069 653a 84a4 33bd 008e a5bd 60e8 293c
000003f0: e089 81bc 9a3a 5e3d 793a 9bbd 45aa 5abc
-0.03020437 -0.06180843 -0.0909185 0.011467926 -0.036549844 0.029414736 -0.037695315 0.016289994
-0.009056613 -0.03264364 0.015244961 0.012935756 -0.08587305 0.027778449 0.016628407 0.011945018
-0.04981085 0.022380399 -0.023265235 -0.0436363 -0.060089078 -0.060132995 -0.035633914 0.0005117506
-0.07479361 0.009199202 -0.093014866 -0.042641897 0.0012074411 -0.073116675 0.03195318 0.008602306
0.014251761 -0.026542477 -0.042462364 -0.069650866 -0.051724397 0.053737663 0.057047628 -0.060510416
-0.0038171038 0.020935506 -0.0149374185 0.0019168109 -0.0019796118 -0.08241006 -0.061284557 0.015841976
0.057186782 0.011984741 0.021915428 0.01873222 -0.038949937 -0.02030956 -0.0065520713 -0.046776015
-0.047845237 -0.016773526 -0.09144913 0.058222204 0.021717796 -0.009961329 0.046442404 0.031759202
-0.061570816 -0.07335135 0.024595186 -0.08804764 0.0041605034 0.04989353 0.059300832 0.040859662
-0.01483525 0.03549259 0.04719556 -0.060842045 -0.044735633 -0.06746989 0.03069416 -0.041469727
0.018513024 -0.00040061027 -0.07657189 0.013965845 0.0019318834 -0.08274647 -0.04369442 -0.016594924
0.03778314 -0.056175467 0.029589258 -0.042812087 -0.052947395 -0.036812875 -0.055012655 -0.0020034164
-0.06054148 -0.0453503 -0.053867467 0.036776267 -0.045739733 -0.05144957 -0.035886403 0.0177216
-0.07671096 0.01750926 -0.05365955 -0.055290386 0.004860066 -0.06366048 -0.031438738 0.021831676
0.0007166867 0.022985794 -0.07649915 -0.016149754 0.016921096 0.019667685 0.010453798 0.039220944
0.010392971 -0.005262129 0.034400344 0.0077747926 -0.063741416 0.018369853 -0.056624264 0.050244436
0.024585396 0.055895522 -0.014064439 0.0058160797 -0.032425858 0.014704801 -0.020879447 -0.018481433
0.050289214 0.009907372 -0.04355942 -0.038718276 0.000528343 -0.0006288307 0.0497438 -0.03959085
-0.0725754 -0.004087838 -0.072105125 -0.00431464 -0.051203556 -0.00828854 0.0029385681 -0.0366732
0.031505056 -0.07894215 -0.0026944613 -0.0029856001 -0.050512493 0.038311467 0.021677608 0.0524342
0.008233257 -0.03336793 -0.057261057 -0.0032242164 -0.040196083 -0.031495117 0.019157939 0.007744362
0.050065942 -0.026662938 -0.05187477 -0.043756194 0.013029933 -0.050495468 0.013723448 0.009978049
-0.005365446 0.022270791 0.045994736 -0.034469083 0.047403343 -0.017996795 0.053945407 0.0542956
0.012825455 -0.08261036 -0.0043250546 -0.017997596 -0.012744881 0.04965526 -0.0025869405 -0.013253827
-0.032526918 -0.058650874 -0.04601696 -0.056992434 -0.05807707 -0.029793382 -0.015624858 -0.021272708
0.0124274045 -0.037345793 0.022855312 -0.038677298 0.046112664 0.04026591 0.016390502 0.026266739
0.007719673 -0.0021896516 -0.0006035343 -0.01600635 -0.009395939 -0.060831025 -0.024220467 -0.07819791
-0.014522747 -0.050117284 0.025016237 0.022602968 -0.035450503 0.012797059 -0.012620457 -0.05162169
-0.04352691 0.008539766 -0.0073397094 -0.03803377 0.06169288 0.021614762 -0.04091897 -0.040680263
-0.024351284 -0.019225664 -0.004605755 -0.032228008 -0.05859024 0.04179088 -0.023569245 -0.059167467
-0.0109359175 -0.030279301 -0.03905584 -0.03215749 0.04745744 0.025138646 -0.00045065643 -0.060732
0.0008751303 -0.043858066 -0.08083725 0.010370344 -0.015812814 0.054255106 -0.07579512 -0.0133462595

extractor.net.2.bias f4 [128]
00000000: 8c70 cfbc cca1 4eba fed3 59bd 0188 f03c
00000010: 80cc 20bc c388 aabd 8d75 94bd 9975 4fbd
00000020: d4ad 74bc 92b1 3d3d 5f90 7f39 e661 1cbd
00000030: 1f20 f43d e969 7d3e e7d5 79bd 41d5 ee3c
00000040: e2d6 77bd 1e06 723c 8d87 b63c fed9 7bbd
00000050: 7097 c9bc 3f4b 6dbd d73f aebc b1c9 13bb
00000060: 46ab b1bd 9637 6cbd 70bc c4bc 07be 1cbd
00000070: 51c6 a73c f4c9 9ebb e7e3 693d ff8d e0bc
00000080: 50a8 863b 2c03 2bbd fae6 adbd 0557 a03d
00000090: aa3b 1c3d 4685 60bd 6202 3cbd a274 cfbc
000000a0: 8798 c7bc 7964 74bd 165e 683d b280 68bd
000000b0: f14d 1dbd 9792 3bbd d034 9a3c 3a7d 75bd
000000c0: 790e f9bc f1d9 833e 7bce c03c 9bc2 8abd
000000d0: f33a 693c a6f6 d0bc 9cfc 69bd 50ec d13b
000000e0: 7a86 8cbd c0b7 18bd 14c7 623c f614 903c
000000f0: 9269 193d c2fd bc3d 1b27 0a3a 0c58 583d
00000100: 1524 59bd 58e2 1abd 9f1b 353c 3fd1 88bd
00000110: 7fac 99bd 48a8 073c a4a9 bbbd c10e 68bd
00000120: c1f4 42b9 5f30 fabb f0cb ca3b 48b4 fd3c
00000130: 8c2a 993e 5683 18bd e60a b73d 0f83 34bc
00000140: e6a5 fb3c 1fdc 7a3c 12d6 1abd 1673 2d3d
00000150: 1e2d 43bd 2262 02bd 1b7f fb3c a25e 62bd
00000160: dcf8 ab3c 29ba d3bd 7a7e e6bd bcfa db3c
00000170: c5be 34bc c829 60bd 7bea 1ebd 1d11 8abd
00000180: 7c45 5c3c bd28 0f3d 8cf6 0bbd 2028 50bd
00000190: 2bf1 8d3c 6bd8 1d3d 8812 49bc af26 113e
000001a0: cc71 84bc 9287 40bc b121 6bbd c04a 2f3d
000001b0: 262d 45bc d178 c0bc f671 dd3d dcf9 5f3d
000001c0: 87a2 cebc f442 123d 760d 203d bf82 2a3c
000001d0: e8f9 72bd 7203 493c 021f 0f3e f3b8 753d
000001e0: 8187 09bd a3d7 86bd e576 a7bd f576 7c3c
000001f0: c762 bfbd 7c65 44bc 44f1 6e3e 0d7c 743c
-0.025322221 -0.0007882386 -0.053180687 0.029361727 -0.009814382 -0.083268665 -0.072489835 -0.05064926
-0.014934022 0.046311922 0.00024372477 -0.0381793 0.11920189 0.24747433 -0.06099501 0.029154422
-0.060507663 0.014771966 0.022281433 -0.06148719 -0.024608344 -0.05793309 -0.021270676 -0.0022550637
-0.08675246 -0.0576702 -0.024015635 -0.03826716 0.020480307 -0.004845852 0.05710211 -0.027411459
0.00410942 -0.04175107 -0.08491321 0.07829098 0.038142838 -0.0548146 -0.04590071 -0.02532417
-0.024364723 -0.05966613 0.056730352 -0.05676336 -0.03840441 -0.045794096 0.018824011 -0.05993388
-0.030402409 0.25752214 0.023535958 -0.06775399 0.014235246 -0.025508236 -0.057125673 0.0064063445
-0.06861587 -0.037284613 0.013841409 0.01758812 0.037454195 0.09228088 0.00052701094 0.052818343
-0.053012926 -0.037813514 0.011053949 -0.066805355 -0.07503604 0.0082798675 -0.09163216 -0.056654695
-0.0001859246 -0.007635161 0.006188862 0.030969754 0.29915273 -0.037234627 0.089376256 -0.011017575
0.030718755 0.01531127 -0.03780181 0.042346083 -0.04765045 -0.031831868 0.030700257 -0.05526603
0.020992689 -0.103382416 -0.11254592 0.026852958 -0.011031811 -0.054727346 -0.038797837 -0.06741545
0.013444301 0.03495096 -0.034170672 -0.050819516 0.017326912 0.03853647 -0.012272485 0.14174913
-0.016167544 -0.0117510725 -0.057405178 0.042795897 -0.01203469 -0.02349511 0.10812752 0.054681644
-0.025223983 0.035708383 0.039075337 0.010407149 -0.05932036 0.012268888 0.13976672 0.059990834
-0.033576492 -0.06584098 -0.08176974 0.015409221 -0.09345012 -0.011987086 0.23334223 0.014922154

value.0.weight f4 [128, 128]
00000000: 9588 8c3d 386a 20bd dbcf 88bd 383d 40bc
00000010: 0238 0e3d 0054 bfbc 2989 a43d aef2 9abd
00000020: b89c a8bc 2c5c 21bd 60a2 9fbd 60b9 7ebc
00000030: 32eb 2c3d 6e25 89bd d491 e53c f2da 57bd
00000040: 34e3 ebbc 3dea 70bd abac a3bd 816c 883d
00000050: efa0 13bd f938 a5bd 62b6 79bd 5aba 713d
00000060: c37c 37bd c853 c5bc 6260 38bd 13fa 9d3d
00000070: 6789 11bd 72ad 14bd 1f32 64bd 14bb 923c
00000080: 5c45 4dbd fbaa a2bd 8624 95bd 3296 133d
00000090: 5fa8 b33d 608f 6d3c b285 a7bd c240 e5bc
000000a0: 4b5c 19bd e8d8 133d 61e2 a83d 6e89 163d
000000b0: ce34 7f3d f08f 963b 1435 aabd 6057 61bc
000000c0: 00a0 51b8 b8d5 03bc ccff 81bd ccc3 94bd
000000d0: 247b 9e3c 2c53 cfbc 8711 6fbd d61a 603d
000000e0: f5ff 9a3d b02e cebc ca51 1c3d 605a 3dbc
000000f0: 1e5b 343d 1638 273d 2ead 653d 3707 94bd
00000100: f5c4 8c3d 4412 96bc 189b 8dbc a4a7 95bc
00000110: f206 3cbd 55ed 8abd 8ed3 493d 10c4 83bc
00000120: 88c4 7cbd bd9f 42bd c5b5 973d c806 043c
00000130: 78b2 80bc 008a 50bc c485 fabc 18a0 023c
00000140: 0a19 5cbd 759d 17bd 14fe b03c 2434 7abd
00000150: a096 f93b 6198 923d 112f 0dbd 2488 a2bd
00000160: 23c3 29bd c05f 87bd ffed 91bd ba1d 8ebd
00000170: da8c 273d a393 903d f869 28bd e238 7bbd
00000180: 726c e9bc 3096 783c 4a6d 4c3d c8c6 d3bc
00000190: c5f2 9c3d 006f 6a3a 2b08 87bd a038 cfbb
000001a0: 54cb bf3c 4e02 783d 33f1 6cbd 3646 033d
000001b0: ca0d 6f3d 604f c2bb 385a f13c 607c 4cbb
000001c0: 8017 1dbb fa10 25bd f017 66bc 8db1 5bbd
000001d0: 814a 0ebd 3ae0 7b3d 8894 b63c e0fd 153c
000001e0: 701b a43c a288 14bd 8282 7b3d f8a4 023d
000001f0: c214 1f3d 1cef d73c 1078 8cbd 30de cdbc
00000200: f99c 21bd f8dd 58bc aa88 573d 0054 cd3b
00000210: 661a 423d 5a82 4c3d 7003 febc 40ff 6fbd
00000220: 4753 8a3d d90d 9d3d caeb 69bd 6a92 3f3d
00000230: 421d 143d b8bb 4fbd e0b3 3ebb 34d2 b2bc
00000240: b1d2 2cbd e919 0ebd 616d 59bd 9de0 973d
00000250: dada 0b3d 5453 d2bc c0dd 8ebb f52d 213d
00000260: dc5b bebc 5838 00bc 04b6 923c 7110 61bd
00000270: 0041 803c 54c6 883d 4130 a5bd c7fe 713d
00000280: c01c cfba 0e89 473d a1d3 36bd 03c6 113d
00000290: 4d95 9d3d 2d7e 0dbc b729 84bd 6e14 c6bc
000002a0: 112c 373d f2a7 49bd 2853 5ebc acb4 f3bc
000002b0: a0e1 c73b 489b b4bd 8cab b7bb bca8 a8bc
000002c0: d48f 2c3d 318e c33c 2558 953d daa3 19bd
000002d0: c088 8b3b cdac a1bd b1c6 963d 0e13 5f3d
000002e0: e821 8a3c e271 64bd f258 a5bd 2506 8abd
000002f0: 0272 043d 27c3 b2bd 46af 483d ae77 99bd
00000300: 1d0b 2fbd cc5e 81bc 1a5c 66bd d98c 42ba
00000310: 284b 123d 592b 913d 4545 0a3d 186b e93c
00000320: 0767 873d a23b 013c c9a2 94bd cb29 a33d
00000330: f1ec 0bbc c13c 29bd 3095 b4bd 423e f2bc
00000340: d45f e8bc 9c5f f93c 8d4e a9bd 6c8a 963c
00000350: 8afc d4bc 1079 c8bc ce07 7a3d 900b 91bc
00000360: 4ca1 c53c cc4d a3bd ee2a 33bd 7d02 79bd
00000370: ef79 ac3d 22cc c73c 3e71 183c e3a8 33bd
00000380: 0f8d 4bbd b20e 40bc 28b7 9cbd 82ae 503d
00000390: f60f 503d c284 053d f08a 1bbc e2e6 4ebd
000003a0: 5378 45bd 8832 8d3c a70e 253d 15f1 37bc
000003b0: 5c4a a9bd 50a3 3d3c a63f 9dbd ef50 983d
000003c0: 9dc7 32bd d77f 30bd 4e7d 133d c5fe a13d
000003d0: cc3b d13c 6499 193d 0623 ca3c 60c1 c83a
000003e0: de11 32bc a5d7 0ebd d402 853d 1035 373d
000003f0: a6c6 79bd 42be 14bc c7ae b1bd 00ae 93bb
0.068619885 -0.039163798 -0.0668027 -0.011733346 0.034721382 -0.023355484 0.08033974 -0.07565819
-0.020582542 -0.039394543 -0.077946424 -0.0155471265 0.042216487 -0.06696592 0.028023638 -0.052699037
-0.028794862 -0.058817137 -0.07991918 0.066613205 -0.03604215 -0.08067507 -0.06096495 0.05901561
-0.044796716 -0.024087802 -0.045013793 0.077137135 -0.035531428 -0.036298223 -0.05571186 0.017911471
-0.050114974 -0.07942768 -0.07282357 0.03603191 0.087723486 0.014499515 -0.08179797 -0.02798498
-0.037441533 0.03609553 0.08246303 0.036752157 0.062306218 0.0045947954 -0.08310905 -0.013753742
-4.9978495e-05 -0.00804656 -0.063476175 -0.07263908 0.019345827 -0.025308214 -0.058366325 0.054713093
0.07568351 -0.025168747 0.038163938 -0.011557192 0.04403221 0.040824972 0.05607336 -0.072279386
0.06873504 -0.018319257 -0.017285869 -0.018268414 -0.04590506 -0.06783549 0.04927402 -0.0160847
-0.061710864 -0.04751562 0.07407717 0.008058257 -0.0157101 -0.012728214 -0.030581363 0.00797274
-0.053734817 -0.037015397 0.021605529 -0.06108488 0.007616833 0.0715797 -0.034468714 -0.07936123
-0.041445863 -0.0661006 -0.07125472 -0.06939264 0.04090581 0.070594095 -0.041116685 -0.061333545
-0.028494094 0.015172526 0.049908914 -0.025851622 0.07663492 0.0008942932 -0.06593355 -0.006323889
0.023412384 0.060549073 -0.057847213 0.03204938 0.05836276 -0.0059298724 0.029461965 -0.0031202063
-0.0023970306 -0.040299393 -0.014043793 -0.053636122 -0.03473902 0.061493136 0.022287622 0.009154767
0.020032614 -0.036263116 0.06140376 0.031895608 0.038838156 0.026359133 -0.068588376 -0.025130361
-0.03945634 -0.013236515 0.052620567 0.006266117 0.047388457 0.049929 -0.031007499 -0.058593035
0.06754165 0.07668657 -0.05710963 0.04677049 0.036160715 -0.050716132 -0.0029098913 -0.021828748
-0.04219312 -0.03469268 -0.053082827 0.074158885 0.03414426 -0.0256745 -0.0043599308 0.03935047
-0.023237161 -0.007825933 0.017909057 -0.05494732 0.015655994 0.06678453 -0.08065844 0.059080865
-0.0015801415 0.04871469 -0.04463542 0.03558923 0.076944925 -0.00863604 -0.06453269 -0.024179664
0.04471976 -0.04923243 -0.013569631 -0.029749237 0.0060998946 -0.0881868 -0.005605167 -0.020588271
0.042129353 0.023871513 0.07292203 -0.037509777 0.004258245 -0.07894287 0.07362116 0.05446153
0.01686187 -0.05577267 -0.080736056 -0.06739453 0.03233529 -0.087286286 0.04899528 -0.0749353
-0.042735208 -0.015792273 -0.05624018 -0.00074215006 0.035716206 0.07088346 0.033757467 0.02849345
0.06611448 0.007887753 -0.07257611 0.07966956 -0.008540378 -0.041317705 -0.08817518 -0.029570702
-0.028366007 0.030441098 -0.082669355 0.018376552 -0.025999326 -0.02447179 0.0610426 -0.017705709
0.024124764 -0.07973823 -0.043742113 -0.06079339 0.084216945 0.02438933 0.009304343 -0.043862235
-0.04969507 -0.011722254 -0.07652122 0.050947674 0.05079647 0.03259731 -0.0094935745 -0.050513156
-0.048210453 0.01723601 0.040297177 -0.011226912 -0.08266136 0.011574581 -0.076781556 0.07437312
-0.043647397 -0.043090668 0.03600817 0.079099216 0.025541209 0.0374998 0.024674904 0.0015316419
-0.010868518 -0.034873623 0.0649468 0.04472834 -0.06098046 -0.009078564 -0.08675914 -0.0045068264

value.0.bias f4 [128]
00000000: d654 6f3d 1c43 3b3d 9760 ae3c 943e 29bd
00000010: 68b2 47bd 802f bfbd a7a6 82bd ede7 433e
00000020: 74f3 59bd 8314 063f feb6 c23e 72a2 063d
00000030: b98e c9bd 1bf6 abbd 9f25 4b3d 97b8 ccbc
00000040: 8fa4 ac3e 0d7f 653d f44c b2bb 9eef b73e
00000050: f369 5b3d b3a7 f53c 3df8 36bd a1a1 84bd
00000060: e913 5bbd ebcf 4fbd 7ceb 0e3f 9590 e83e
00000070: 7f83 b0bd 8d2b e6bd 5089 91bb 49dd b5bd
00000080: edba 9bbc 3e3f e03e 6ace afbd 0430 b2bd
00000090: 7fb8 d33e 803d 8abd 4b59 09bd fa91 ca3c
000000a0: 9fe6 dc3e 38d1 fdbd 9822 20bc 5ac3 b93e
000000b0: 2336 873e cf8f c2bd ee75 0f3d 2a13 24bd
000000c0: 8d0f 893e 45a6 dfbd df7f 81bd d157 cd3c
000000d0: 82ca 403b 28da a7bc a5c2 8f3d de30 af3e
000000e0: 6fd4 76bd 4264 eb3e 6fc7 9d3e fc1d b8bd
000000f0: 6563 d8bd a86b e43e 7eb2 d9bd a447 473d
00000100: 925b 28bd 1566 73ba a03d bd3e 338f b1bb
00000110: fcd8 f2bd 1a18 603e 507b d13c 8126 d7bd
00000120: 5b20 82bd a837 dd3a 1995 a33e f6d9 a63c
00000130: 8e85 ffbd 41b7 30bd 13bb 02bb 7eeb 7e3e
00000140: 77f9 b73e 85b8 703d 6601 cf3e 3e53 00be
00000150: 486c f53c 59e3 b03d 4a1a 923e 4b15 bb3e
00000160: b5e2 12bd 8347 283e a505 cfbc 188e 1e3a
00000170: 807d 9c3e 3f7a f2bd 064b f43b dc85 93bd
00000180: 0a77 16be eeb2 dd3e 9596 89bd 439f b33e
00000190: 6d68 c03e c7bc 033d 86f9 72bd fddc b2bd
000001a0: a1f4 0c3f b3ac f9bd 5fb1 f9bd d857 6abd
000001b0: a267 bf3e 7daf 2a3c 7f6d ab3e d6f9 d5bc
000001c0: 2d1b 83bd abfa 2fbd c9d8 813e 44d7 c63e
000001d0: fa04 90bd 5212 77bc d5aa a3bd ec13 13bd
000001e0: a248 a1bd 253c 12be 56f5 e9bd 61b9 e13e
000001f0: e028 693e a8c5 d0bd 3061 bdbb 486d b73b
0.058430515 0.045718297 0.021286292 -0.041319445 -0.048754126 -0.09335232 -0.06379443 0.19131441
-0.05321069 0.5237505 0.38030237 0.032869764 -0.09841675 -0.0839655 0.049596425 -0.024990363
0.33719298 0.05602937 -0.0054413024 0.35925 0.053567838 0.029987192 -0.044670332 -0.06476141
-0.053485785 -0.050735395 0.5582807 0.45422807 -0.08618831 -0.112387754 -0.0044414178 -0.088800974
-0.019010032 0.4379825 -0.08584292 -0.087005645 0.41351697 -0.067500114 -0.033532422 0.02472781
0.431447 -0.12393421 -0.009773873 0.36281854 0.2640849 -0.095000856 0.035024576 -0.04005734
0.26769677 -0.10920385 -0.063232176 0.025066288 0.002941758 -0.020489767 0.070195474 0.3421697
-0.060261186 0.45974928 0.30816218 -0.08990094 -0.10565833 0.44613385 -0.10629748 0.048652306
-0.041102953 -0.0009284926 0.3696108 -0.005418682 -0.11857793 0.21884194 0.025571495 -0.10505391
-0.063538276 0.0016877549 0.3194969 0.020367604 -0.124766454 -0.043143515 -0.001994793 0.2489452
0.35932514 0.05876972 0.40430754 -0.12531754 0.02995886 0.08637113 0.28535682 0.36539683
-0.035860736 0.1643353 -0.025271246 0.00060483953 0.305645 -0.11839723 0.0074552326 -0.07203266
-0.14693847 0.43300575 -0.06718174 0.35082445 0.3757967 0.032162454 -0.059319995 -0.087335564
0.55060774 -0.12191143 -0.12192034 -0.05721268 0.37383753 0.010417816 0.33481976 -0.026120108
-0.06401668 -0.042963665 0.25360706 0.3883611 -0.07032199 -0.0150800515 -0.07991568 -0.03590767
-0.07875182 -0.14280756 -0.11423747 0.44086745 0.22769499 -0.1019395 -0.005779408 0.005597744

value.2.weight f4 [1, 128]
00000000: d0dd cb3c a87c 633c 1786 b63b cafc 193b
00000010: ba93 563d eea8 ae3c 9459 7fbd f8be 0340
00000020: db67 fc3c 7298 8fbe ace2 54be c753 0d3d
00000030: b38b 30bd d106 583d a9d3 d4bc 22a4 4fbc
00000040: a4b6 73be 8857 c13c 450d 193d 6857 a3bf
00000050: 1e16 8abb a311 9bbc e033 573c f185 a23b
00000060: ff45 a0bd 67bd 32bb e25b abbe 55f6 95be
00000070: 0386 0abd 8f8d f53c e73d 133d 5f60 b0bc
00000080: 6525 e2bb 311f a1be 4212 37bc d8f1 b63c
00000090: 4c36 7abe 5ff8 933d be82 b93a b44d 823d
000000a0: 042f 05bf 7364 bf3c 1097 bb3c 54c3 58be
000000b0: b753 f7be fe74 7d3b 7f90 26bc 8b3d 76bc
000000c0: 1f3e f2be 6890 cdbc daeb b4bc ab7d 73ba
000000d0: 3c78 c83b 4a95 20bd 95cd 7cbd 7185 89be
000000e0: 8294 343c ffe5 8dbe e064 93be 4ecf 823d
000000f0: 7fba 203c a9d7 87be c9da 8a3b 938d 8e3f
00000100: 6a69 3d3d c4e9 83ba 71c3 82be f282 463d
00000110: ab6e fbbc cbfb 81bf 2f6f 9e3c 80fa ffba
00000120: 89fb 573d 1724 383d faf3 7ebe c657 343d
00000130: 1ad8 0a3c f9e8 5abb 3750 8f3d 4963 4ebe
00000140: 37cd 9bbe c414 34bc bdee 7fbe c72d 693b
00000150: 4766 76bd d090 a03f 2575 60be 7570 6ebe
00000160: 9f41 cf3b f5f6 9a3f a127 cbbc ee66 e4bc
00000170: d1b3 80be bc9a 7cbc 906a e6bc 5280 3fbc
00000180: a2ab be3f c5b5 4abe fefa 893d b376 8bbe
00000190: 9fee 9dbe 8ade 9f3c d5f7 29bc 466a ffbc
000001a0: 6b52 97be 6212 da38 8edd 0cbd 9272 443c
000001b0: 3b14 47be 05fd c2bc 3beb 7cbe e8e0 c6bc
000001c0: 12ea 01bd a768 763d 2987 40be 3153 65be
000001d0: 8462 af3a 75e1 3fbd c207 803f d392 f33b
000001e0: a604 993c da40 023b 6ec5 5dbb c0c5 0fbf
000001f0: 101e adbd 3ec4 9c3f 4eeb 303d bb1c a83d
0.024886042 0.013884701 0.005570184 0.0023496621 0.052386977 0.021320786 -0.062341288 2.0585308
0.03081124 -0.28045994 -0.20789593 0.034503724 -0.043101978 0.052740876 -0.025979834 -0.01267341
-0.2380014 0.023601308 0.03736617 -1.2761049 -0.0042140624 -0.018929308 0.013134927 0.0049598147
-0.07825851 -0.0027273537 -0.3346854 -0.292895 -0.03381921 0.029974727 0.035947707 -0.021530328
-0.0069014304 -0.3146911 -0.011173787 0.022332117 -0.24434775 0.072251074 0.0014153344 0.06362477
-0.52024865 0.023363328 0.02289918 -0.21168262 -0.48306057 0.003867447 -0.0101662865 -0.015029321
-0.4731302 -0.025093272 -0.022085119 -0.00092884403 0.0061178487 -0.039204873 -0.061719496 -0.2685962
0.011021735 -0.27714536 -0.287879 0.063871965 0.009810089 -0.26531723 0.004237507 1.1136955
0.04624311 -0.0010064174 -0.25539735 0.048464723 -0.030692419 -1.0154966 0.019340126 -0.0019529611
0.052730117 0.044956293 -0.24897757 0.04402902 0.008474374 -0.0033403023 0.06997722 -0.20155062
-0.30430004 -0.010991279 -0.24993415 0.0035580264 -0.060156133 1.2544193 -0.21919687 -0.23285086
0.0063249613 1.2106615 -0.02479917 -0.027881112 -0.2513719 -0.015417751 -0.028126985 -0.011688309
1.4896128 -0.19795902 0.06737326 -0.27238998 -0.30846116 0.019515295 -0.010374029 -0.031178605
-0.29555067 0.00010398474 -0.03439098 0.011990206 -0.19441311 -0.02380229 -0.24699108 -0.024277166
-0.031717367 0.060158398 -0.1880156 -0.22395016 0.00133808 -0.046845872 1.0002367 0.0074332743
0.018678974 0.001987508 -0.00338396 -0.5616112 -0.084529996 1.2247388 0.043193154 0.08208605

advantage.0.weight f4 [128, 128]
00000000: 02d0 a8bd ee5c 4f3d 8681 11bd 5aa9 6b3d
00000010: 80f4 233c 340a c7bc 2a59 1bbd a6c0 50bd
00000020: 2aa3 b33c 0015 46bd c1be ef3c c0e6 26bc
00000030: e940 f0bd 44f7 98bd 0015 dbbb f8c2 27bc
00000040: 9a43 773d e0e3 01bd 73a0 0bbd c28c 80bd
00000050: 8439 d23c 2484 a7bd 7abf a3bd 4081 f2bb
00000060: e885 8cbc 4a39 083d b47a d63c 97ad aabd
00000070: f397 aa3d 0487 f9bc 0527 bc3c 9775 a6bd
00000080: 3066 283c 80ea c8bc 0891 08bc 5ea7 b5bd
00000090: d088 ed3b 4abc b3bd d11f 29bc ea75 1ebc
000000a0: 261f 1abd 9b7b 333d 94c8 ab3c d576 73bd
000000b0: 8b06 13bd bfba 69bd 1031 803c 344d 2bbd
000000c0: 4408 31bd 7a49 ffbd e7f1 8b3d 8d3d bc3c
000000d0: 343f 8ebc 9ccd 3a3d e071 933c 32e1 fbbc
000000e0: 0c1a 8dbd 08af 313c 0543 343c 8171 fcbc
000000f0: 3e69 dd3c 3453 f13c f966 9cbc 30d3 b33c
00000100: 128d 5abd dc53 cdbc 06f9 68bd 283c 9cbd
00000110: 803e 19bc 8a41 6abd 9375 0cbd 8397 79bd
00000120: 713a 66bd 6de6 57bd 00d7 7fbc 534f a43d
00000130: 45f5 4ebd 6884 d53c 6ad3 b93c e813 37bc
00000140: 60b2 8d3b bfe3 aabd c550 8abb 823b 303d
00000150: 202c 5cbd c019 c43a 6275 793d 4cb3 a8bd
00000160: 12ce 4f3d ba20 4d3d 27b1 12bc b1da 62bd
00000170: 5477 a1bd 5148 aebd 7a82 b63b a8ad a23c
00000180: 6058 ecba 8264 e0bc 9153 a83d ed9e b03c
00000190: 5b1d 873d 6e22 e8bc 0aec 743d 7505 c83c
000001a0: a44e 6abd e286 a3bd 859d 943b fa32 4d3d
000001b0: 48b2 b83c e087 a1bc f137 8bbd a727 0c3d
000001c0: ea09 9e3d 3fce 75bd f7be 9ebd 7a3e 57bd
000001d0: 2062 33bb bb18 afbd 38d3 c13c c38f 30bc
000001e0: 1241 c0bd 0873 9ebc 4a1f f4bc 518f dabb
000001f0: c6b5 41bd d64d 053d bb49 263d 0ce1 6abd
00000200: 544d 37bd ea3c 203d 0823 0d3c ccdd c1bc
00000210: 9436 9bbc cf39 b0bd 936c afba 4d78 a33d
00000220: 3492 a73d 66f4 5f3d 4c6d 18bd fc0d d03c
00000230: 6039 823d 6c14 3ebd d612 70bd b491 b3bd
00000240: 9024 0e3d eaaf babd ef45 c33b de80 4e3d
00000250: 7852 5c3c ec73 ea3c be57 6b3d a0c7 edbc
00000260: a278 153d 3106 3abc 603f 043c 627e 6cbd
00000270: bc3e 28bd 3821 8ebd 4eef 863d 6288 9c3d
00000280: 82ab 4cbd d09a c53c ed0e 953d 8571 763b
00000290: 8627 7a3d b304 2f3d 14a7 36bd e824 103d
000002a0: c5f4 64bd e11f 673d feaa 30bd f4be f33c
000002b0: a33e 8b3d 34d7 8ebd e36d 3bbc 8ac5 733d
000002c0: c884 8f3c 6894 8b3d b871 82bc 23d5 c5bd
000002d0: fa85 233d c320 883d 93c7 8b3d 3672 203d
000002e0: 6b90 6a3d f95c 873d 15ae f53c c559 143d
000002f0: 3948 a13c 3c89 363d 74cc 653d cd56 6bbd
00000300: bbae 16bd 6063 253b 6f57 8a3d 0d39 aabd
00000310: fe03 4bbd 13e7 b23d 9ddb 85bd 4b30 06bd
00000320: 6cee db3c 9691 673d a3d0 afbd 504d cb3c
00000330: 6171 73bd 7bad 66bd f5f3 9fbc a4e9 af37
00000340: 5441 f2bc acd2 f43c 8da1 39bd 4297 183d
00000350: 287a 1d39 76a2 463d 259b b33d 3b78 33bd
00000360: 7c21 9bbc bca6 5f3d 6436 d3bd 3a51 2b3c
00000370: 7cd3 23bd 2a45 3c3c 90c9 86bd ae80 70bd
00000380: c395 fe3c 18ce 363c ea6b 363d 10e8 84bd
00000390: 602c f8bb bcd0 61bc ccde acbd 5f49 bebd
000003a0: a126 863d 3858 4d3c fffe 96bd fbad 7c3a
000003b0: 208f 1c3d a168 903d f5e2 713c 4c5f 5abc
000003c0: 210c 413d 157b d339 66f6 a53d 429f a93d
000003d0: f60f 793d 534f 58bd 527b 183d 9e30 84bc
000003e0: af47 9ebd 80a4 d7bc df98 e4bc 2f37 613d
000003f0: 10dd df3c 0b35 333d 5225 b5bd f178 aa3d
-0.08242799 0.050625734 -0.035523914 0.057534553 0.010007024 -0.024296857 -0.03792683 -0.050964974
0.021928389 -0.04835987 0.029265763 -0.010186851 -0.11731131 -0.07469037 -0.006685853 -0.010239355
0.060367204 -0.03171146 -0.034088563 -0.062768474 0.025662191 -0.08179501 -0.07995506 -0.0074006617
-0.017153695 0.03325776 0.026181556 -0.08333891 0.08329763 -0.030459888 0.022967825 -0.08127897
0.01027827 -0.02452588 -0.008335359 -0.088698134 0.0072489753 -0.08776148 -0.010322527 -0.009671668
-0.03762736 0.04381905 0.020969667 -0.0594395 -0.03589491 -0.05706286 0.015648395 -0.041821674
-0.043220773 -0.124651864 0.068332486 0.022978568 -0.017364122 0.04560624 0.017998636 -0.03074703
-0.06889734 0.010844953 0.011002307 -0.030815842 0.027027722 0.02945862 -0.01909207 0.021951288
-0.05335719 -0.025064401 -0.056878112 -0.076286614 -0.00935328 -0.05719141 -0.034291815 -0.06093551
-0.056208078 -0.052709986 -0.015615225 0.080229424 -0.050526876 0.026064113 0.022683818 -0.01117418
0.0043242425 -0.0834422 -0.0042210543 0.0430255 -0.05375302 0.0014961287 0.06090296 -0.08237323
0.050733633 0.05008004 -0.008953369 -0.05538434 -0.07884088 -0.08509887 0.0055697532 0.019858196
-0.0018031709 -0.027391676 0.08219064 0.021560157 0.06597396 -0.02833673 0.059795417 0.024416665
-0.057203904 -0.07984711 0.0045353794 0.050097443 0.022545949 -0.01971811 -0.06797779 0.034217503
0.07716735 -0.060011145 -0.077512674 -0.052549817 -0.002737172 -0.08549639 0.023660287 -0.010776463
-0.09387411 -0.01934196 -0.029800076 -0.0066699167 -0.047292493 0.032544933 0.04059766 -0.057343528
-0.04475148 0.039120592 0.008614309 -0.023665331 -0.018946923 -0.08604776 -0.0013383798 0.0798193
0.08182183 0.054676436 -0.03721361 0.025397293 0.063586 -0.046406195 -0.058611713 -0.08768025
0.034702837 -0.09115584 0.0059592645 0.050415866 0.013447396 0.028619729 0.057456724 -0.029025853
0.036491998 -0.011354015 0.00807175 -0.057737716 -0.041075453 -0.0693993 0.065886125 0.076432005
-0.04996825 0.024121672 0.072782375 0.0037604284 0.06107285 0.04272909 -0.044592932 0.035191447
-0.055897493 0.056426886 -0.04313182 0.02975414 0.067990564 -0.069746405 -0.011439773 0.05951456
0.01751937 0.068154156 -0.015923366 -0.09659793 0.039922692 0.06646874 0.06825175 0.03917142
0.057266634 0.0660953 0.029990235 0.036218423 0.019687759 0.04456447 0.056103185 -0.057455827
-0.03678773 0.0025236234 0.06754958 -0.08311663 -0.049564354 0.0873548 -0.065360285 -0.0327609
0.026847087 0.056535326 -0.08584716 0.024817139 -0.0594343 -0.056317788 -0.019525507 2.0970423e-05
-0.029572167 0.029885612 -0.045320082 0.037253626 0.00015018194 0.04849478 0.08769826 -0.043815833
-0.018936865 0.05460237 -0.103131086 0.010456378 -0.03999661 0.011491099 -0.06581414 -0.05871647
0.031077271 0.011157535 0.04453651 -0.06489575 -0.0075736493 -0.013782676 -0.08440933 -0.09291338
0.06550337 0.01253324 -0.073728554 0.0009638962 0.038222432 0.070512064 0.014763583 -0.013328385
0.047130708 0.0004033676 0.081036374 0.08282329 0.060806237 -0.052810024 0.037226982 -0.016136464
-0.07728516 -0.026323557 -0.027904926 0.054984268 0.02732709 0.043751758 -0.08845009 0.08323849

advantage.0.bias f4 [128]
00000000: cbe6 26bb 3e2c 65bd 9d89 87bd fa4e 493d
00000010: 0007 6b3a f880 f7bc a8a8 9cbd 96e7 b2bd
00000020: ec82 fd3d 70d4 953a 4f3c d73c 6dae e3bd
00000030: 6eef a5bd 13fb cbbd 1930 d4be 4fe4 20bb
00000040: 4bee cfbb e660 f7bb 6e1d 07be d524 413d
00000050: 7bd5 ccbd 04c2 f5bd f2de 2c3c 90a9 7ebc
00000060: 16ce aabc f80a 50bd b2aa 8c3d 0455 023d
00000070: 6b5a 333c 93ff 773c 6873 50bd 25ce 02be
00000080: 7605 3bbd 60b8 88bd 21e2 00be 3f69 193d
00000090: caf2 d6bd a4ca 133b d49d 8c3d e71e afbd
000000a0: 40ec be3a 04ad b8bd ebcf 363d 2bde 13bd
000000b0: 7893 f5bd affb c8bc 7edf 72bd 9805 8e3c
000000c0: 0e4e 21be 229f a73c cada 023d 0d94 eb3c
000000d0: 4b98 d4bc ce3c 4c3d 1c81 4f3d c130 603d
000000e0: 8a85 583d 2d01 93bd b71b 0bbe e159 93bd
000000f0: c856 a0bc 91cd 973d 95cd a5bc 1838 02be
00000100: 06cc 11ba 5fb3 253d 7bd7 e7bb eb11 c0bc
00000110: 88b2 10bb 5ece 51bd f0d6 ea3c 9802 8dbd
00000120: 44d4 6f3d 61a1 9cbd 5d07 9bbd d60f 5fbc
00000130: 387e a93c d48c a23d 83bf 6b3c f729 91bc
00000140: 5ed5 f63c f24c 50bd 39ce 763b 2e5f 8abd
00000150: c38d bb3b c0f8 c6bc 8d37 1a3d 3b8f fabc
00000160: 5604 233e 9559 bebc baae 2cbd be22 5bbd
00000170: 7912 ae3c d1eb 0fbd b7a7 233d e46f d7bd
00000180: 4ec1 ae3c f360 86bd 1dba 883d d338 3abd
00000190: a73b da3c 2962 13be d29f 08bd 4bdd 9bbd
000001a0: 67b1 3cbd f799 4c3d aa34 063d e66b fcbd
000001b0: b491 8bbd 0c8c 1bbc 8eaf 7a3d bd96 3cbd
000001c0: add9 92bd 8af8 da3b 6aa9 37bd 655e 5f3c
000001d0: 1418 71bc 397d 8abc 203f 80bd 8041 71ba
000001e0: 8415 95bd a7d4 1fbd fcf6 6cbd 53da ebbc
000001f0: a21c aabd af52 b93c 874e 5cbd b710 79bd
-0.0025467153 -0.055950396 -0.066180445 0.049147584 0.00089655817 -0.030212864 -0.07649356 -0.08735578
0.12378487 0.0011431109 0.026273875 -0.111172535 -0.08102308 -0.09959998 -0.41442946 -0.0024550145
-0.0063455454 -0.007549393 -0.1319482 0.047154266 -0.10001656 -0.11999896 0.010551201 -0.015543357
-0.020850223 -0.05079171 0.06868495 0.03181936 0.01094685 0.015136617 -0.05089131 -0.1277395
-0.045659505 -0.06675792 -0.12586261 0.037453886 -0.10495527 0.0022551203 0.06866041 -0.08550816
0.0014566258 -0.09017375 0.04463188 -0.036100548 -0.11991018 -0.024534075 -0.05929517 0.017336652
-0.15752432 0.020461623 0.031946935 0.02875712 -0.025951525 0.049862675 0.050660238 0.054733995
0.052861728 -0.07177959 -0.13584791 -0.071948774 -0.01957263 0.074122556 -0.02023963 -0.1271671
-0.0005561713 0.040454265 -0.007075248 -0.023446044 -0.002207907 -0.051222198 0.028666943 -0.0688526
0.05855204 -0.07647968 -0.07569764 -0.013614615 0.020690069 0.07937017 0.014388922 -0.017720206
0.030131038 -0.05085463 0.003765954 -0.06756435 0.0057236864 -0.024288535 0.037650634 -0.030585876
0.15919623 -0.023236075 -0.04215882 -0.05349993 0.021249043 -0.035137 0.039954867 -0.10519388
0.02133241 -0.0656146 0.06676123 -0.045464348 0.026639773 -0.14392914 -0.03335554 -0.07610568
-0.04606762 0.04995152 0.032765068 -0.123252675 -0.068149 -0.009493839 0.06120258 -0.046042193
-0.071704246 0.00668246 -0.0448393 0.013633345 -0.014715213 -0.016905414 -0.0626204 -0.00092031807
-0.072794944 -0.03902116 -0.05785273 -0.028790629 -0.083062425 0.022622434 -0.053785827 -0.060806956
