test_for_cleanRL/models/vanilla.pt (torch, 140501 bytes, 6 tensors)

net.net.0.weight f4 [256, 4]
000000 85 7e ce 3d 53 cb 44 be 99 08 2b bc 7e d3 6d be
       0.100827254 -0.19218187 -0.010439062 -0.23225209
000010 2c 15 6e be 6d 28 82 be f9 2f 2e 3f 89 5b 17 be
       -0.23250264 -0.25421467 0.6804195 -0.14781012
000020 5e 66 32 be b8 7d 0a 3e dc 4e da 3f bb 4e 83 3e
       -0.17421862 0.1352452 1.7055316 0.25646004
000030 a9 ad 21 3f 5a 9e 65 3e c5 6a 48 3f f4 b9 8b 3e
       0.6315561 0.22423688 0.7828792 0.27290308
000040 36 aa bd 3d 91 7c 1b 3e 08 33 a6 be 10 fb cf 3d
       0.09260981 0.15184237 -0.3246081 0.10155308
000050 5e 5f b5 3b ce b5 b4 bb 6e 76 ee bf 5e f8 3c be
       0.0055350503 -0.005514837 -1.8629892 -0.1845412
000060 52 5f eb bd a5 0d e5 3d 55 be 40 3e 51 c4 0b bd
       -0.1149279 0.11184243 0.18822606 -0.03412277
000070 20 de e1 3e 2d e0 bb 3b 7d 98 9c bf ef c6 d6 bd
       0.4411478 0.005733511 -1.2234036 -0.10487162
000080 c7 1e 2d bb 66 ae 2e 3c 6a 19 d7 bf 17 9f 33 be
       -0.002641605 0.010661697 -1.6804631 -0.17541157
000090 12 7b 69 3d 4c 67 58 bd 07 71 f3 bf d6 76 83 be
       0.057002135 -0.052832887 -1.9018868 -0.25676602
0000a0 42 4a e4 3d f9 e6 39 be d7 c7 0f be 6d 65 b1 3c
       0.11146976 -0.18154515 -0.14041077 0.021654809
0000b0 71 22 9b be 5c 3e 73 3d dd c2 54 3f 0d 38 a0 be
       -0.30299714 0.059385642 0.8310984 -0.31292763
0000c0 51 1a f6 3e 70 3f c3 be 01 d2 69 be 7c 57 9f be
       0.48066953 -0.38134336 -0.22834016 -0.31121433
0000d0 84 08 98 be 0d 90 a7 3e 17 f7 1d bf 75 b9 b2 3e
       -0.29693997 0.3272709 -0.61705154 0.34907117
0000e0 68 19 65 bd 06 7c 23 3d ce 3e 52 bf 60 0e 66 be
       -0.055932432 0.0399132 -0.8212708 -0.22466421
0000f0 27 26 9c 3e e9 52 06 be d5 9e f9 bf 39 1d cf be
       0.30497858 -0.13117565 -1.9501597 -0.40451983
000100 2e 75 c0 3e 5f 12 54 be f6 be ab 3f 70 49 ba 3c
       0.375894 -0.20710133 1.3417652 0.022740096
000110 2b 64 9c bd a7 de 68 be 03 70 27 3f 23 02 7d be
       -0.07636293 -0.22741185 0.6540529 -0.24707846
000120 8e 3f b4 be e3 e3 3d 3d dd 28 56 bf ea ad 4e be
       -0.35204738 0.046359908 -0.836561 -0.2018353
000130 59 df c5 bd 42 ef 2a 3d eb 00 e9 3f 35 3b 4c 3e
       -0.09661741 0.04173208 1.8203405 0.1994446
000140 ea 21 8f bc 07 6c 97 3b 96 60 e0 bf 7c 81 2c be
       -0.017472226 0.004621032 -1.7529476 -0.1684627
000150 32 8e 25 bf 0c 80 28 3d 99 c8 97 be da 17 d5 bc
       -0.646701 0.04113774 -0.2964523 -0.02601235
000160 fb 96 fd bd fe bf 4f 3e d8 1b 4b bd 1a 1f 8b 3e
       -0.12382313 0.20288083 -0.0495871 0.27172166
000170 54 d6 98 be ff 7c 63 3e 23 31 8e be dd bf 6f be
       -0.2985102 0.22215651 -0.27771863 -0.23413034
000180 20 be b4 3e 1a 64 b6 be 8d bd da be 53 90 cd 3b
       0.35301304 -0.35623246 -0.4272274 0.0062733083
000190 da 8a 60 3c 1e ac af be 54 7a 9b bf 10 b8 a7 be
       0.01370498 -0.34311002 -1.2146707 -0.32757616
0001a0 91 d6 eb 3c ab f8 dc bc d7 c5 70 bc 8f 38 e3 bc
       0.028788837 -0.026974043 -0.014695606 -0.02773693
0001b0 21 43 41 3f 0b 50 1d 3e 60 88 8e bd fb 5d 6c bd
       0.75493056 0.15362565 -0.06959605 -0.057706814
0001c0 75 c4 43 bd b1 e9 2d 3d 06 2f 33 bf d5 88 56 3e
       -0.047794778 0.042459194 -0.6999363 0.20950635
0001d0 a0 35 5b 3e c3 13 82 3e 38 63 87 be 6f 1b 08 3e
       0.21407175 0.25405702 -0.26442885 0.13291715
0001e0 6c 49 50 3f 05 0e bd be 84 28 7b bf 16 26 be be
       0.8136203 -0.3692476 -0.98108697 -0.37138432
0001f0 1e 8c 25 bf fc 7f b5 3e d2 a9 a8 be ba 78 e4 bd
       -0.64666927 0.35449207 -0.32942063 -0.11155839
000200 4b 40 14 be 79 b1 f4 3d e4 06 10 bf 21 58 cc 3d
       -0.14477651 0.11947913 -0.56260514 0.09977747
000210 71 0f 3a be 94 33 0b be b7 56 86 3f ef 22 f4 bc
       -0.18169953 -0.13593894 1.0495213 -0.029801814
000220 f7 41 87 3e 82 a5 e9 be 0a 01 dc 3d 64 ba 10 3f
       0.26417515 -0.45634085 0.10742386 0.5653441
000230 33 a2 ef bd 78 49 1b be f8 69 a0 3d cd 75 ae bc
       -0.11700859 -0.15164745 0.07832712 -0.021296406
000240 89 44 24 be 3a 38 c6 3d b2 62 3b 3f 34 f7 36 be
       -0.16041769 0.09678693 0.7319747 -0.17867738
000250 3e a3 46 bf be aa 0e 3d 2b f9 2e 3f 81 d6 10 3e
       -0.7759284 0.0348308 0.6834895 0.14144327
000260 f9 95 03 3c ab 43 a2 be bc 85 8b 3c ab 37 4f be
       0.008031362 -0.31692252 0.017031543 -0.2023608
000270 29 1f 93 3b c7 64 18 3e 17 8f 24 be 40 de ac be
       0.0044897986 0.14882194 -0.1607021 -0.33763313
000280 5c 3c 80 be 5e 49 11 3e 0e 58 4e 3e ef 3c 05 be
       -0.2504605 0.14188144 0.20150778 -0.13011526
000290 2a 92 63 3e f7 ff b7 3e 2c 64 78 be 2b 3b c2 3d
       0.22223726 0.35937473 -0.24256963 0.09483942
0002a0 80 b6 a9 3e af dd 5f 3d 04 2b b0 3e 70 2d 91 bc
       0.3314705 0.054654773 0.34407818 -0.017721862
0002b0 36 d1 d3 be f6 76 be 3d ec 6a 80 3f 9f ff 32 3e
       -0.41370553 0.09300034 1.003263 0.17480324
0002c0 b4 83 aa bd f9 1a d0 3d b0 17 9c 3d 3d e5 95 3d
       -0.08325902 0.101613946 0.076217055 0.07319114
0002d0 b7 6e 8a 3d 26 9b 24 bd 3f 81 dd 3e 24 91 06 be
       0.067593984 -0.040187024 0.4326267 -0.13141304
0002e0 da 24 a1 be 20 eb a4 3e 13 4b 5c be 2c 13 c7 3e
       -0.31473428 0.32210636 -0.21513014 0.38881814
0002f0 5f b1 23 be f1 f2 12 3d 8c a6 24 3f f9 00 b7 bd
       -0.1598563 0.03587622 0.6431663 -0.089357324
000300 d2 28 08 3f a5 b3 00 3e 67 40 d0 bd d2 0b 74 3d
       0.53187287 0.12568529 -0.10168534 0.059581585
000310 1c 4c 82 3d 39 1b 54 3e 89 19 95 be 3f 92 21 bd
       0.06362173 0.2071351 -0.29121044 -0.03944611
000320 45 df 59 be ce d4 93 be 15 8a e3 3e a0 1d 65 be
       -0.21276577 -0.28873295 0.44441286 -0.22374582
000330 84 7d b1 3d 92 f0 8f bd 88 89 cb 3f 52 8d d9 3e
       0.08666518 -0.07028307 1.5901346 0.4249063
000340 4d 5f e3 3d 2f 32 05 be 8c 7d 35 3f 35 dc 1f be
       0.111021616 -0.13007425 0.70894694 -0.15611346
000350 40 12 60 be 76 19 14 3e a5 29 08 40 d5 b1 d4 3e
       -0.21881962 0.14462838 2.1275418 0.41541925
000360 3e f9 a2 3e d9 1a 50 be 1c e0 87 be 9b 98 34 3d
       0.31830782 -0.20322742 -0.2653817 0.04409085
000370 36 57 f1 3d ea c6 82 be 36 48 84 3f 98 01 cd bd
       0.11784212 -0.25542384 1.0334537 -0.100100696
000380 c6 f4 e9 bc 3e d8 fa be 5b db 70 bd 3c 8c c5 bd
       -0.0285591 -0.48993105 -0.058802944 -0.09645888
000390 ed 2e ec be 3f ee df 3d 4e 66 49 be bd b2 35 3e
       -0.46129552 0.10934114 -0.19667932 0.17743964
0003a0 c9 ec 95 bb 94 77 f8 bb 12 7c d1 3f 34 7c d2 3d
       -0.004575346 -0.007582614 1.6365988 0.10277596
0003b0 ce 85 03 bd e6 d6 a0 3b 78 79 f0 3f e5 8a 4f 3e
       -0.032110028 0.0049084304 1.8787069 0.20267828
0003c0 9d 35 87 bd 96 7d da 3d f9 ae 27 3f e7 8c 3e bf
       -0.06602023 0.10668485 0.6550136 -0.7443375
0003d0 71 42 05 3e 1c 3e 3f be 81 b5 7a be 9a b6 b7 be
       0.13013627 -0.18676037 -0.24483301 -0.358815
0003e0 b3 d5 e8 3e 91 aa cf bd 7a 90 a7 bf 80 aa 5e be
       0.4547554 -0.10139955 -1.3090966 -0.21744728
0003f0 70 ed 87 3d 58 d8 aa 3d dc 9e a2 be 74 68 42 be
       0.066370845 0.083420455 -0.31761825 -0.18985158

net.net.0.bias f4 [256]
000000 d1 bd 23 3e ad 9e ab be a9 13 c5 be 2d 32 e0 be
       0.15990378 -0.33519498 -0.38491562 -0.4378828
000010 53 cf 22 bd 61 73 bb be e0 27 f1 bd e6 a1 97 be
       -0.0397485 -0.36611465 -0.11775184 -0.29615706
000020 0d 0c a1 be cc 65 ca be f0 d4 81 3e 24 79 02 be
       -0.31454507 -0.3953079 0.2535777 -0.12741524
000030 a0 b2 ee 3e b1 ba 5b 3d ef 2c c6 be 1d 23 07 bf
       0.46620655 0.05364484 -0.38706157 -0.52787954
000040 7f ab 05 bf 0e d5 36 3d 79 2b 9a bd ab fe db be
       -0.5221481 0.04463678 -0.07527823 -0.42967734
000050 9e 1c af be 40 fc 8e be 86 a9 e4 3e 8e 8c e1 3e
       -0.3420152 -0.27926826 0.44660586 0.44052547
000060 67 7a 4f 3e 39 84 3a be 13 34 cf bd f2 71 f0 bc
       0.20261537 -0.18214501 -0.10117354 -0.029351208
000070 bf f6 c0 3d a7 ff c9 3e 81 02 c6 be f7 cc 83 be
       0.09422063 0.3945286 -0.38673785 -0.25742313
000080 52 f8 98 3e 54 b3 d7 bd 08 d7 40 bf b7 dc cd 3e
       0.29876953 -0.10532251 -0.7532811 0.40207455
000090 a0 4d 20 3e c4 90 8c be db 0f ae 3e 5c 77 c1 3e
       0.15654612 -0.27454197 0.33996472 0.37786376
0000a0 c0 3e ba 3e 70 fe 41 bf e5 52 5f 3e 07 65 9f be
       0.36376 -0.75778866 0.21808966 -0.31131765
0000b0 3e c1 15 be 16 7c 98 be e5 fd a1 3e 2d f3 0a 3e
       -0.14624497 -0.2978217 0.3163902 0.13569327
0000c0 10 2a 13 bf cd 49 a6 3e 56 d7 db 3d 1c b1 1d bf
       -0.5748606 0.3247818 0.107344314 -0.6159837
0000d0 bb fa 89 bc 73 bb 00 bf 69 c9 09 bf b4 82 10 3e
       -0.01684319 -0.50286025 -0.5382295 0.1411236
0000e0 18 64 05 bf 79 54 55 bd bf 8b ac be 86 c4 b7 be
       -0.52105856 -0.052082513 -0.33700368 -0.35892123
0000f0 7b ea a4 3a 3a 02 61 3e ac b1 09 bf 7a 44 d0 3e
       0.0012582088 0.21973506 -0.5378673 0.40677243
000100 03 3a b2 bd 41 d7 c2 be 54 e8 e1 3e cd fa e5 be
       -0.08702471 -0.3805485 0.44122565 -0.44917908
000110 71 dc 30 bf 3e 92 c1 3e d2 af 3e 3e e7 d0 2b bf
       -0.69086367 0.37806886 0.18621758 -0.67115635
000120 e7 3c 09 3f a6 53 16 bf c4 e3 ec 3e 42 29 f0 3e
       0.53608555 -0.5872139 0.4626752 0.46906477
000130 02 10 93 3e 11 8a ef 3e a2 80 da be f1 e3 59 bf
       0.2872315 0.46785024 -0.42676264 -0.85113436
000140 3a 8b 32 bf c0 25 d0 3e 0a a2 c4 3e 3a 4b 48 3d
       -0.6974369 0.406538 0.38404876 0.048899867
000150 c0 c1 2f bd ef f6 5e 3e 36 af ab be b2 3d ce be
       -0.042909384 0.21773885 -0.33532113 -0.40281445
000160 1e e4 bd be 17 2a 14 bf c7 48 e1 be ab 7e 4c bf
       -0.37088102 -0.57876724 -0.44000837 -0.7988078
000170 d0 7b ff be e5 e8 ec be 05 2d 9c bd 64 61 97 be
       -0.4989915 -0.46271434 -0.07625774 -0.2956649
000180 9b 2d 05 be c6 74 f6 be 15 53 13 bf 6a cf 91 3d
       -0.13005678 -0.48135966 -0.5754865 0.07119639
000190 b5 45 fe be 6f 5b 88 be 02 f7 b3 be 08 65 1a 3e
       -0.49662557 -0.26632258 -0.3514939 0.15077603
0001a0 9c 52 d1 3e 8e f6 f7 be d1 a7 1e 3e 6f c8 b8 be
       0.40883338 -0.48430294 0.15493704 -0.3609042
0001b0 15 3f ab be 27 50 ba bd 9f bf b1 be 14 b8 18 bb
       -0.33446565 -0.09097319 -0.34716508 -0.0023303078
0001c0 44 03 eb be f1 cd c5 be b9 51 9a 3e 7c cb 80 3e
       -0.4590093 -0.38633683 0.30140474 0.25155246
0001d0 ee a6 26 3e 46 c2 47 3e a4 10 24 bf b8 e2 a4 be
       0.16274616 0.19507703 -0.6408789 -0.32204223
0001e0 78 e0 29 bf 12 1d fd 3b 39 e0 cd 3e e6 7e a1 3e
       -0.6635814 0.0077244127 0.4021013 0.31542128
0001f0 79 ff 1a bf 69 86 a8 be 5d 75 a5 be c9 ae 21 3e
       -0.6054607 -0.32915047 -0.32316104 0.15789331
000200 aa c3 c9 bd d0 91 f0 3e 57 58 f6 3d 99 6b 4c bf
       -0.09851773 0.46986246 0.12028568 -0.7985168
000210 5d 05 c6 be ad df 43 be 9e c3 9d 3e e5 6c 0c bf
       -0.38675967 -0.19128294 0.30813307 -0.5485366
000220 4d a2 98 be 31 8a 02 bf 49 1b c0 3e c7 09 ed 3e
       -0.29811326 -0.50992113 0.37520817 0.46296522
000230 f0 e1 16 3e bf 40 2f bf c2 39 07 be e4 41 fc bd
       0.14734626 -0.6845817 -0.13205627 -0.12317255
000240 32 b6 96 be df eb 32 3e 82 88 1c bf 27 96 2c be
       -0.2943588 0.1747279 -0.61145794 -0.16854154
000250 36 12 20 be b0 60 fe be cb 75 c7 3e 5c b0 84 be
       -0.15631947 -0.49683142 0.38957056 -0.25915802
000260 11 c8 f5 3e 27 fb b9 be fc d8 05 bf b5 98 59 bf
       0.480042 -0.36324427 -0.52284217 -0.8499864
000270 3a 17 b3 be de 40 44 bf 77 45 04 bf 43 8d da 3d
       -0.34978658 -0.7666148 -0.51668495 0.10671475
000280 d2 b6 c8 bc f8 92 8c be 88 d4 1f bf 94 4b c1 be
       -0.024501238 -0.27455878 -0.6243367 -0.37752974
000290 3a 91 71 3d 9d 1b 91 be 7e 39 e4 3e d5 60 93 be
       0.05897639 -0.2834138 0.44575113 -0.28784814
0002a0 42 30 20 bf 80 bf 09 3f 11 1c b8 3d bd 50 d7 be
       -0.62573636 0.5380783 0.08989728 -0.42053786
0002b0 3b 10 02 3f b2 d0 4c bf 4e ae 9b bd 6a ce fb be
       0.50806016 -0.80005944 -0.07601605 -0.4918092
0002c0 3b c5 38 bf 1d 09 cb 3e 76 24 8c 3d 48 98 37 bf
       -0.7217595 0.3965539 0.06842892 -0.7171674
0002d0 d1 2c a6 3e 17 cd 41 3e b0 58 cc 3d 37 4d 85 3e
       0.32456067 0.18925892 0.09977853 0.26035473
0002e0 de a7 df 3e 60 57 15 bf 40 c1 3a be 72 fc 90 be
       0.4368276 -0.5833645 -0.18237782 -0.283176
0002f0 d6 e5 ae 3e c4 3c ae bd a1 d1 f0 be ba 73 c5 be
       0.34159726 -0.08507684 -0.47034934 -0.38564855
000300 75 64 06 3e 40 4b 7f be 2f 42 1b bf 01 a9 16 3d
       0.13124259 -0.2493105 -0.60647863 0.03678227
000310 ba 14 f5 be db af 5a be 63 bb c0 3e 8f e0 af 3c
       -0.47867376 -0.21356146 0.37642965 0.021469383
000320 23 fb 87 bd 17 3b 4f bf 6f 66 0b bf ce e1 07 bf
       -0.066396974 -0.8094954 -0.54453176 -0.53078926
000330 a5 cd 9c be a6 34 c7 3e 6d 9a a6 3e f4 b7 16 bd
       -0.30625644 0.38907355 0.32539693 -0.036796525
000340 01 33 f8 3e 54 4e 0c be 34 89 a2 3e fc 9d c7 3e
       0.48476413 -0.13701755 0.31745303 0.3898772
000350 5b 60 b1 be e1 18 53 bd 8b 90 68 bf 82 8c 66 be
       -0.34643826 -0.0515374 -0.90845555 -0.22514537
000360 e0 97 e5 3e 70 aa 00 3e a6 0b a0 be bf d7 95 bd
       0.44842434 0.12565017 -0.31258887 -0.07316541
000370 d4 aa 04 bf 53 d6 00 bc 5b 34 8b 3e 00 1a 58 3e
       -0.51823163 -0.007863599 0.27188382 0.21103668
000380 7e fa 12 3e 92 31 09 3d 93 d0 3c bf 3f b4 05 bf
       0.14353368 0.03349454 -0.7375576 -0.5222816
000390 3a ba e0 be e2 69 f9 be 10 9e da be 86 14 f3 be
       -0.4389208 -0.48713595 -0.42698717 -0.47476596
0003a0 ad 78 fb 3d 70 a7 40 3d dc 30 11 3d 43 8c 15 bf
       0.122788765 0.04703468 0.035446987 -0.5841715
0003b0 96 1e f5 bc 39 90 eb be 56 34 c4 be a4 f5 33 be
       -0.029921811 -0.4600847 -0.3832118 -0.17574173
0003c0 41 c7 f3 be 03 c8 cf be b7 cd fc 3d 03 5e d4 be
       -0.47612956 -0.40582284 0.123439245 -0.41477975
0003d0 70 00 d9 be d0 8f 3e bc a8 33 08 bf d4 95 df be
       -0.42383146 -0.011630967 -0.5320382 -0.43668997
0003e0 5e ee b3 3e 30 23 a3 3e c8 84 a5 be 8c 45 d5 3e
       0.35142797 0.31862783 -0.32327867 0.41654623
0003f0 b6 24 0c 3f f7 88 e3 bd 3d 10 a2 3c 3d fd f2 3d
       0.54743516 -0.11110108 0.019783134 0.118647076

net.net.2.weight f4 [128, 256]
000000 30 73 b1 bc 6c 7d 87 bc 38 c4 e3 3c 40 d6 14 bb
       -0.021661371 -0.016539298 0.027803525 -0.002271071
000010 5b 51 84 bd 4b 03 65 bd e3 b5 08 bc 4c b2 c3 3c
       -0.0646083 -0.055911344 -0.008344146 0.02388873
000020 c3 16 2b bd 67 2d 86 bd b7 99 92 bd 4c 2c bd 3c
       -0.041769754 -0.065516286 -0.07158225 0.023092411
000030 3f ad 48 bb b4 e2 93 bd 2b 6c 63 bd 13 e9 94 3c
       -0.003062084 -0.072209746 -0.05552308 0.018177545
000040 45 c7 1b 3d dc 4a 4d bc fb 55 2b 3d 8a d9 0e bd
       0.038031835 -0.012530055 0.041830044 -0.03487543
000050 98 d5 14 3d 89 e5 26 3c 8e ae 8f 3c 58 a8 df bb
       0.03633651 0.010186561 0.017539289 -0.006825488
000060 7a d6 8a bd 58 94 8b bd 61 58 06 3d f8 bc 6c 3c
       -0.067791894 -0.06815404 0.03279913 0.014449351
000070 0e d6 02 3d 67 4a 40 bd 98 ee 52 bd 20 06 3f 3c
       0.03194242 -0.046945956 -0.051497072 0.011659175
000080 4b 40 8c 3c fc 2a 10 bd 09 dd 21 bd db 02 e5 3c
       0.017120501 -0.035197243 -0.039517436 0.027955463
000090 c7 4d 88 3b af 1f 37 bd 4c 1d 01 3d d3 d6 d1 bc
       0.0041596624 -0.04470795 0.03152208 -0.025615131
0000a0 77 b2 d5 3c 36 f1 32 bd 2f ce 2a 3d 36 5e 6a 3d
       0.026086075 -0.043687068 0.04170054 0.057218753
0000b0 af f9 2c 3d e6 63 0e bd 27 b9 25 bd d7 7f 78 bb
       0.042230304 -0.03476324 -0.04045978 -0.0037917995
0000c0 82 4f 77 bd 6b c0 ce 3a 80 7f 20 b8 fa 43 41 3d
       -0.06037856 0.0015773898 -3.8265716e-05 0.047183968
0000d0 ff 71 34 3d 44 de 4a 3d 3c d1 06 bd 37 c9 25 bd
       0.044054028 0.049528375 -0.032914385 -0.040475097
0000e0 34 56 1a bd 0e 21 79 bc 81 a2 91 bd b0 5b 2e 3d
       -0.037679866 -0.015205635 -0.07111073 0.04256791
0000f0 a4 5e 59 bd 43 b6 06 3c 32 f7 dd bc d8 67 6a bd
       -0.053068772 0.0082221655 -0.027095411 -0.05722794
000100 ca 3e 47 bd 28 cd 30 bc 28 66 ee bc 5e 19 79 3d
       -0.048643865 -0.010791101 -0.029101446 0.060815208
000110 f6 90 86 bd e4 d2 08 bd c7 90 e9 bc e9 42 97 bd
       -0.06570618 -0.033404246 -0.028511418 -0.07385809
000120 75 99 23 bd 98 5c 48 bc 9b 8c 95 bc 49 b9 75 bc
       -0.03994127 -0.012229107 -0.018255522 -0.014997789
000130 8b fb 09 3d 8f ec 0f 3d e1 81 bc bc 58 76 74 bc
       0.033687156 0.03513771 -0.02301115 -0.0149207935
000140 df f4 c1 bc 83 10 a2 3c 35 be 53 3c 30 08 d3 3c
       -0.023676334 0.019783264 0.012923767 0.02576074
000150 d6 c1 d4 3c 02 d2 68 bc 46 66 4a bd 4a cc a4 3b
       0.025971334 -0.014210226 -0.04941394 0.005029236
000160 a3 e7 c7 3c 62 61 56 bd f2 f2 18 3d 3f 11 8b 3b
       0.024402445 -0.052338965 0.037341066 0.0042439993
000170 d8 51 09 bd 50 16 db bb ce 6e 20 3c c8 d9 81 bd
       -0.033525318 -0.0066860095 0.009792043 -0.063403666
000180 12 95 ad bc 14 7c f8 bc 65 bb 32 3d d8 8d 1d 3d
       -0.021189246 -0.030332603 0.043635745 0.03846535
000190 3c 01 52 3d c7 d7 f0 bb 96 b7 32 3d e0 40 8c bd
       0.05127071 -0.0073499414 0.043632112 -0.068483114
0001a0 91 60 f6 3c e9 d5 8e bd b1 10 31 bd ec 83 86 bc
       0.030075343 -0.06974394 -0.04322881 -0.016420327
0001b0 ee ee 05 bd bf dc 63 bd 77 a1 4e 3c 3c 56 2a bd
       -0.032698564 -0.05563044 0.012611738 -0.041586146
0001c0 c0 cc c9 bc 35 c4 5b bd e9 69 5b bd 6b 1d f6 bc
       -0.024633765 -0.053653914 -0.0535678 -0.030043324
0001d0 e5 be 34 3d 72 c8 25 3c b8 cc 54 3c d5 6e 2b 3d
       0.044127364 0.010118591 0.012988262 0.041853745
0001e0 f0 bf 5c 3d b1 10 68 bc 6d d9 9d bd e1 27 5d bc
       0.053893983 -0.014164136 -0.07707486 -0.013498277
0001f0 7b cb 1e 3d 05 7d 7f bb 5a 49 9b bd 9d 69 9a bd
       0.038768273 -0.003898443 -0.0758235 -0.075396754
000200 e1 e2 ad 3c b9 4c f4 3c 9c 0f 52 bd b5 8d 7c 3c
       0.021226348 0.02982174 -0.051284418 0.015414645
000210 7a db 0d bd 0a 04 40 3d 7f aa 8f 3c d0 42 1f 3d
       -0.034633137 0.046878852 0.017537354 0.038882077
000220 b0 42 bb bc 63 e8 11 bd e7 84 3b 3c 7c 38 97 3c
       -0.022858948 -0.035622012 0.011445261 0.018459551
000230 ba 01 03 3d 10 2a 7a 3d 1b d0 33 3c fe 86 b5 bb
       0.03198407 0.06107527 0.010974909 -0.005539774
000240 43 09 90 3a cf c1 f3 bc ed c7 aa bb 7b 91 73 bc
       0.0010989088 -0.029755501 -0.0052118213 -0.014866228
000250 18 75 c2 3b 26 2a 4e bd 0f 36 07 bd d6 0f 14 3d
       0.005934369 -0.050333165 -0.03301054 0.036147915
000260 07 af eb bc 70 b4 65 bd b0 7e 0f 3d 1c 2c 91 bc
       -0.028769983 -0.05608028 0.035032928 -0.017721228
000270 68 43 57 bd 8c ec 68 bd 84 44 ca bc 98 3b 96 bd
       -0.052554518 -0.056866214 -0.024690874 -0.07335585
000280 90 76 75 bd 48 b5 4b bd e0 9c b9 3c 30 0b 20 3d
       -0.059927523 -0.04973343 0.022657812 0.03907317
000290 77 e5 35 3d 90 f6 0d bd 15 b0 30 3d 0d 64 39 bd
       0.044408288 -0.03465897 0.043136675 -0.04526143
0002a0 0d a7 46 bd 1f d5 c2 bb ba 85 43 bd 70 09 d7 3c
       -0.048499156 -0.005945816 -0.047734953 0.026249617
0002b0 3f 28 1b bd f8 e9 2f 3d f0 b9 10 3d 4c c0 19 bd
       -0.03788018 0.04294774 0.035333574 -0.037536904
0002c0 47 0f fc bc bd ce 1e bd 63 ec 28 3d 9e c4 06 3d
       -0.030769004 -0.03877138 0.04124106 0.032902353
0002d0 8e 1c 2e 3d 5c 37 00 bd 35 42 96 3c 45 5e 35 3d
       0.0425077 -0.031302795 0.018342117 0.044279356
0002e0 6e 90 38 bd e4 24 24 3d 19 b0 40 3d e6 8c 4c 3c
       -0.045059614 0.040074244 0.04704294 0.012484765
0002f0 f1 91 1f 3d 50 d4 85 3b 44 35 b1 3c ec 21 f4 bb
       0.03895754 0.0040841475 0.021631844 -0.007450333
000300 be 2c 8e 3c f8 b6 7b bc cc d1 f6 bc 73 0a a4 3c
       0.01735532 -0.015363447 -0.030129336 0.020024514
000310 a8 ea 4b 3c 93 62 ad bb 16 dc 22 3d 2e e4 4b bd
       0.012446083 -0.005291292 0.03976067 -0.049778156
000320 97 28 04 3d ea b2 6d 3d ba 44 46 3d 18 87 8b bd
       0.032265272 0.058031954 0.048405387 -0.068128765
000330 54 ab e3 bc 2e a2 f1 3c 25 0c 9e bd 28 02 30 3d
       -0.027791657 0.029496279 -0.0771716 0.042970806
000340 31 14 b6 3c 6b 9b 65 bd a6 bc 4f 3c dc d3 08 bd
       0.022226425 -0.05605642 0.012679255 -0.03340517
000350 3c 3c f7 bc 68 3d db bc 10 b8 b3 3c 0d cf 84 3c
       -0.03018009 -0.02676268 0.021938354 0.01621201
000360 ff 1e ed bc 41 f2 e6 bc 8e 89 8b bd e8 c8 64 bd
       -0.028945444 -0.028191688 -0.06813346 -0.05585566
000370 8c 58 6e bc cc f6 60 bd db ef 82 bd 33 76 6d b9
       -0.014547478 -0.054922864 -0.06393405 -0.00022646114
000380 df ea 12 3d da 26 cd bc a6 21 41 3c a0 f0 b8 bc
       0.03586852 -0.02504294 0.011787808 -0.022575676
000390 48 09 02 bc 7c 45 62 bd fb 2b fe bc 32 18 26 ba
       -0.007936783 -0.055242047 -0.03102683 -0.0006336003
0003a0 d2 21 be bb 50 3a 05 3d 52 0e 39 3d 1e 90 2c 3a
       -0.0058023715 0.032526314 0.045179673 0.00065827544
0003b0 b9 d7 88 bd 52 85 f2 3c 99 50 51 bd 38 22 64 3c
       -0.06681771 0.029604588 -0.051102255 0.013924174
0003c0 fa f7 eb bc 32 ca 7b bc e4 98 c1 3c 24 73 76 3d
       -0.028804768 -0.015368031 0.023632474 0.0601684
0003d0 5e 78 a3 bc 64 c8 d0 3a f6 86 3d 3d 50 e3 13 3c
       -0.019954856 0.0015928862 0.046271287 0.0090263635
0003e0 1e ec ae bc 6f 98 99 bd 00 08 94 3c 1e 44 11 3d
       -0.021352824 -0.074997775 0.018070221 0.035465352
0003f0 59 68 16 bd c1 82 2c bd da 3a ba bc be 43 52 bd
       -0.036720607 -0.042116884 -0.02273314 -0.051334135

net.net.2.bias f4 [128]
000000 1f 8e c1 bc 99 c6 a8 bc fe b3 bd bc 9a 99 9f 3c
       -0.023627339 -0.020602511 -0.023157116 0.019482423
000010 28 2e 93 bd f8 45 95 bd e7 e2 63 bd 4c 3b 44 3e
       -0.07186538 -0.07288736 -0.055636313 0.19163245
000020 3a ea 2f 3e 81 ae 32 3d 1e 3c 78 bd 92 06 3e bd
       0.17179194 0.04362345 -0.060604207 -0.046392985
000030 8d 6a 8c bb 3f b2 a6 bd 5e a6 bf bb 6c da 85 3c
       -0.004285163 -0.081394665 -0.00584869 0.016339503
000040 1a 7f 3b bd 65 0c 83 bd 48 20 d8 3d f2 d9 a9 bc
       -0.04577551 -0.063988484 0.10553032 -0.020733807
000050 89 a2 a0 bd 1b d2 30 3e f7 bf 0d 3d 3d 46 1e 3e
       -0.07843501 0.17267649 0.0346069 0.15456481
000060 8d 3e 17 bc 13 26 98 3c 8f ab 4a 3e db 8e 66 3e
       -0.009231222 0.018572843 0.19792007 0.22515433
000070 a0 1d 30 3c 98 6b dc 3c ef a8 e8 3d 6c 64 0d bc
       0.010749251 0.026906773 0.113603465 -0.0086298995
000080 d9 31 45 3e 14 ea 81 bd b1 fd da 3d 44 90 2b 3e
       0.19257297 -0.06343475 0.10692919 0.16754252
000090 66 da 8d bd 3b 34 59 3e 8b 6a 2b 3d d6 9d 3b 3d
       -0.06926422 0.2121133 0.041849654 0.04580482
0000a0 aa c6 85 3e 02 bc 5d 3e 2c 21 71 3e 51 b3 b4 bd
       0.2612813 0.2165375 0.2354781 -0.088232644
0000b0 4d 30 1b bd 2f fe 3d 3e ed 28 0b 3c ee fd 34 3e
       -0.03788786 0.18553995 0.008493644 0.17674991
0000c0 a7 1c b5 3c d5 07 5d 3e 7c dc 34 bd d4 5a 5a 3e
       0.022108389 0.21585019 -0.044155583 0.2132371
0000d0 e4 ba a1 3c ce 18 0c bd 53 bf 69 3e 30 ce 08 bc
       0.019742437 -0.034203343 0.2282689 -0.00834994
0000e0 ab 8a 03 bc 67 98 d3 bc 10 71 2b 3e 85 b1 18 3e
       -0.0080286665 -0.025829507 0.16742349 0.14911468
0000f0 c7 7c c7 bd d2 77 8a bc 2a 95 23 3e 11 19 b0 bc
       -0.09740596 -0.016902838 0.1597487 -0.021496328
000100 a8 19 40 3e 57 1c 9c 3c e9 fe 41 3c 2f 2c 80 bd
       0.18759787 0.019056482 0.0118405605 -0.06258427
000110 5f 99 2e 3e 50 4d 4a bc 12 e7 b8 bd a2 2c a4 bd
       0.17050694 -0.012347534 -0.09028448 -0.080163255
000120 1d 76 9a bb 01 5e 6e bd 34 9e 2a bd 9a 96 4e 3e
       -0.004713787 -0.058195118 -0.04165478 0.20174637
000130 c1 db b4 3c 68 4d c9 3c d4 7a 14 3c 77 8f 5f bd
       0.022077443 0.024573043 0.009062488 -0.054580178
000140 b8 86 1e bd a7 0a 87 bd 7b d2 32 3d 43 fd 44 bd
       -0.038702697 -0.06593829 0.04365776 -0.04809309
000150 99 cb e9 bc 5d a8 25 bd 3b e7 2f 3e 4a ea 0e 3e
       -0.028539466 -0.040443767 0.17178051 0.13956562
000160 b7 6e 40 3d 1b b3 4c 3e 33 aa 0b bd 34 3e 3d bd
       0.046980586 0.19990198 -0.03409786 -0.0462019
000170 9f 82 8f 3c d3 70 56 bd 79 83 87 bc 55 7f 45 bb
       0.01751834 -0.05235369 -0.016542183 -0.003013571
000180 2e 1c 67 3e 88 a8 f1 bb fe be cf 3b d1 ba 2a 3d
       0.22569343 -0.007374827 0.0063399067 0.04168207
000190 7e 6c 84 bd f9 44 05 3e 29 42 43 bd 1f 41 23 bd
       -0.06466006 0.13014592 -0.047670517 -0.039857026
0001a0 2f 64 8a 3c c2 e3 a5 bc a7 3c 40 3e b0 6c 96 bd
       0.016893474 -0.020250205 0.18773137 -0.07344949
0001b0 31 db 59 bd ec 7f 22 3b b3 09 36 3e 61 3c 32 3d
       -0.053187553 0.0024795486 0.17777137 0.043514613
0001c0 c8 7c 0a bd f3 8f 8d bd 2c 56 36 bd 38 ec da 3a
       -0.033810407 -0.06912222 -0.044515774 0.0016702479
0001d0 3b 6f 63 bd 06 13 19 3d 56 f0 30 bd 8e b1 e2 bc
       -0.055526 0.037371658 -0.043197952 -0.027672555
0001e0 c0 73 d9 3c 84 e5 63 3e 89 ee 78 bd d9 bc e5 bd
       0.026544452 0.22255522 -0.06077436 -0.112176605
0001f0 f9 71 41 3d b4 9c 4d 3e 70 fa ae bd 7f b4 04 3e
       0.047227833 0.20079309 -0.08543861 0.12959479

head.weight f4 [2, 128]
000000 c4 d6 50 bd 34 a6 b0 bc 1c e4 19 3d c9 ca 3b 3c
       -0.050986066 -0.021563627 0.037571058 0.011461922
000010 fa 49 35 bd 94 18 08 bd 09 82 93 bd 7b bb ee 3e
       -0.044260003 -0.033226565 -0.072025366 0.4662741
000020 6f 3f ec 3e 01 37 d2 bb 80 60 74 3a 0a c7 72 3d
       0.46142146 -0.0064152484 0.0009322241 0.05927185
000030 d4 88 37 3d 46 5c 57 3d 10 8d 1f bb d4 c6 72 3b
       0.044808224 0.052578233 -0.0024345554 0.003704478
000040 d6 c0 47 bb 20 9b f7 bc fe 27 52 bf 08 39 98 bd
       -0.003047993 -0.030225337 -0.82092273 -0.07432753
000050 c3 54 80 3d de fd af bd 7c 56 23 bd 8a 06 20 3f
       0.06266167 -0.08593343 -0.0398774 0.6250998
000060 70 1d 10 bc d4 ac 89 3c 5d ed 85 bd 6f c4 92 be
       -0.008796081 0.016806044 -0.06539414 -0.28665492
000070 d4 5d ba 3b cb af 85 39 0a 07 4c bf 97 53 2d 3c
       0.0056874547 0.00025498713 -0.7969824 0.010579011
000080 23 47 ff 3e 82 41 93 bd 9b 0f ad 3e f7 6e 00 3f
       0.4985896 -0.07190229 0.3380097 0.5016932
000090 d0 55 80 3d 82 3f 39 3f b5 1f 11 3c fe 43 bb bc
       0.062663674 0.7236253 0.008857657 -0.02285957
0000a0 de 0c 18 3f b9 b6 2d 3f 2b fc 03 3f 5d 27 1c 3d
       0.59394634 0.6785694 0.5155665 0.038123477
0000b0 33 9a c6 3c 77 74 b1 be 8a 12 76 3d 3f 13 bf 3c
       0.02424345 -0.34659168 0.060076274 0.023324607
0000c0 73 9c 2c bd ba 50 07 3f c6 a2 4c bd 04 c7 f8 3e
       -0.04214139 0.52857554 -0.04995992 0.48589337
0000d0 6b 5a 9d bd fa 0b 72 3d 71 63 bd 3e 49 d2 c1 3c
       -0.076832615 0.059093453 0.3698993 0.023659842
0000e0 1b cc e6 bc c3 70 65 bd e2 6c 3c 3f 38 34 f2 3e
       -0.028173497 -0.05601574 0.7360364 0.47305465
0000f0 c4 47 61 3c ae bd 64 bd 6a e8 e7 3c b0 5c 8d bc
       0.01375002 -0.055844955 0.028309066 -0.01725611
000100 2f 70 1b 3f 1d 28 ab bc 8a c7 fd bc e0 d9 5e bc
       0.60718054 -0.020893151 -0.030978937 -0.01360175
000110 49 cb d8 3e 78 41 72 3b 0f 7a 8b bd 61 99 e2 3c
       0.42342594 0.0036965292 -0.0681039 0.027661027
000120 ac dd 8b bd 6e a1 2b 3c 58 2a ec bc 3f cc 2a 3f
       -0.0682939 0.0104755 -0.028828785 0.66717905
000130 21 9f 82 bd 8b 1f bf bc 91 a0 ae 3c 2a cb 83 3d
       -0.06378008 -0.02333047 0.021316798 0.06435235
000140 b7 61 40 bd 5b 26 cf bc 6b 83 83 bd 84 ca b5 bc
       -0.046968188 -0.025286844 -0.0642155 -0.022191294
000150 55 7f b4 bc 00 af b0 bc 7f 20 76 bd b3 d2 b6 3e
       -0.022033373 -0.021567822 -0.060089584 0.35707626
000160 dc 50 91 3d 4e 21 ca be bf 04 c0 bc af 0b 29 bd
       0.07095501 -0.39478534 -0.023439763 -0.041270908
000170 6f 75 08 bd 80 7a 18 bd 84 ed c8 bc 9b 3d 9d bc
       -0.03331512 -0.0372262 -0.024527319 -0.019194415
000180 2e f5 03 3f d2 08 46 3d 66 0a be 3c 2b 98 84 bd
       0.5154599 0.048348255 0.023198318 -0.06474336
000190 6d b2 25 bf 2a 85 fd 3e 35 09 86 3c 61 09 37 bc
       -0.6472538 0.4951566 0.016361812 -0.01117167
0001a0 d9 32 d3 3c 79 1a b7 3c a4 17 e9 3e a2 bd 26 3d
       0.025781082 0.02235149 0.4552585 0.04070819
0001b0 e3 77 7b 3c db 0f fc bb c8 00 e0 3e 40 53 29 bd
       0.015348407 -0.00769232 0.43750596 -0.04133916
0001c0 1d 44 ce bc 4e a3 8f ba be 71 cd bc 70 54 30 bc
       -0.025178963 -0.0010958703 -0.02507865 -0.010762319
0001d0 09 66 14 c0 48 67 9a bc 0f 73 15 3d 7e 1d 54 3d
       -2.3187277 -0.018848076 0.03648668 0.05178594
0001e0 de 1f 7e bd 2c 8c 09 3f e9 17 9f 3d d4 ed aa bc
       -0.06204211 0.5372951 0.077682324 -0.020865358
0001f0 37 ce 4f 3e f7 c8 24 3f 80 24 22 3d bc 9b ee 3e
       0.20293508 0.6436915 0.03958559 0.4660319
000200 2b 26 4c bd ef c1 bd bc 81 8c 30 bd 3e 21 5b bd
       -0.049841087 -0.023163764 -0.043102745 -0.0534985
000210 bf ef 54 3c b7 e2 33 bd 04 96 19 3d 71 c0 21 be
       0.012996613 -0.043917384 0.03749658 -0.15796067
000220 16 94 bb 3e 92 91 25 bb 50 7d e8 bb c9 f0 8f 3d
       0.36636418 -0.0025263769 -0.0070950165 0.07028348
000230 80 08 e5 bc d5 95 7c bb 63 a7 1d 3b 15 e9 8b bd
       -0.027958155 -0.0038541455 0.002405607 -0.06831566
000240 df 96 0c bb 39 65 da 3c 8b 1a 0f 3f 53 47 08 bc
       -0.002145223 0.026659595 0.55899876 -0.008317786
000250 55 50 07 3d c0 4d 5c 3f e2 1c 0a 3c 0a f1 e0 bd
       0.033035595 0.8605614 0.008429738 -0.109834746
000260 29 a7 7b 3c 80 d5 6b bc 08 a9 46 3f af 3f 0b 3f
       0.015359678 -0.014394164 0.7760167 0.5439405
000270 33 26 9e bd 91 ef 4c bd c3 d1 19 3f aa 93 6d 3d
       -0.0772213 -0.050033156 0.60085696 0.05800215
000280 df 06 df 3e 5c 7b 36 bd f9 ca 4a 3e c0 77 98 3d
       0.4355993 -0.04455124 0.1980399 0.074447155
000290 57 09 b4 3d b7 27 57 bf 75 77 5f bb 3e 5c eb bc
       0.08790844 -0.84044975 -0.0034098302 -0.028730508
0002a0 99 fa bc 3e 08 8b 26 3e 9f 03 8d 3e a6 65 db bb
       0.3690994 0.16263974 0.27541825 -0.006695467
0002b0 8a e7 ea bc ec c4 38 3f 86 76 16 bc 75 6c 19 3f
       -0.02867486 0.7217548 -0.009183532 0.5993112
0002c0 39 21 94 bd cc 0e fc 3e b7 e1 59 3c c2 a8 87 3e
       -0.07232899 0.4923004 0.0132984435 0.2649594
0002d0 6c 71 af ba d8 98 1d bd 23 a2 0d 3f 90 4b 85 bc
       -0.0013385243 -0.03847584 0.55325526 -0.016271383
0002e0 7b 86 82 bd fd a0 3a bd c7 f6 26 bf 7b 3d b2 3e
       -0.06373306 -0.045563687 -0.652203 0.3481253
0002f0 5f b2 e8 bc 78 a0 63 3d 8d 7b 11 3f 1c cb bd bc
       -0.028405366 0.055572957 0.5682915 -0.02316814
000300 da f8 95 3e 37 ea f4 bc 98 ef 5a 3d 3b a7 c1 3a
       0.2929142 -0.029896839 0.05345115 0.001477457
000310 0e f7 96 3e 81 02 78 bd 2d ba f2 b9 33 1f 19 bd
       0.29485363 -0.060549263 -0.0004629655 -0.03738327
000320 45 ac 4f bd 93 ba 5c bd 1a e3 a6 bb c7 b1 03 bf
       -0.0507014 -0.05388887 -0.0050929906 -0.5144314
000330 60 59 95 bc 07 1f d6 3c af 2e a4 bc 64 bf 95 bd
       -0.018231094 0.026137842 -0.020041792 -0.073118955
000340 07 dc 12 bd 22 91 33 3d 9b 65 3f 3c 5b 50 20 3d
       -0.035854366 0.04383958 0.0116819395 0.039139133
000350 dc 0f 3d c0 ca 62 20 3c 98 e1 21 3f 34 03 ae 3e
       -2.954093 0.009789178 0.63234854 0.3398682
000360 20 0c 97 bd ae a1 11 3f 93 52 91 3d 0c a7 8b 3d
       -0.073753595 0.5688733 0.07095828 0.06818971
000370 34 69 03 3d a4 8f 69 bd e5 59 17 3c a2 82 09 bc
       0.03208275 -0.057021752 0.009237741 -0.008392962
000380 3d fa 5d 3e be 46 f4 bc b8 5f 89 bd 28 41 45 3d
       0.2167749 -0.029818889 -0.0670771 0.04815784
000390 6a 92 13 3e 39 40 87 3e 05 cc 87 bd 90 22 c8 3b
       0.14411321 0.26416185 -0.066307105 0.006107636
0003a0 e7 1d 87 bb 13 19 54 3d 14 4c 57 3e f9 98 16 bd
       -0.0041234377 0.051781725 0.21025115 -0.03676698
0003b0 f8 03 4a bb 12 7a 94 3c ac 46 f2 3e c7 12 97 bc
       -0.003082512 0.018124614 0.47319543 -0.01844157
0003c0 c7 4c 22 3d 4a a8 8a bd 32 8c 86 bd 67 72 e1 bd
       0.039624 -0.0677038 -0.06569709 -0.11008149
0003d0 01 df 8b 3e 05 62 2b bd 77 19 0b bd d9 7f a2 bd
       0.27318576 -0.041841526 -0.033959832 -0.07934541
0003e0 87 ba 1d 3c 74 a8 f3 3e 49 0c 98 bc 24 24 44 3c
       0.009626991 0.47589457 -0.018560546 0.011971507
0003f0 40 85 ae 3d d8 7d 8b 3e 42 d6 12 3d 4b ee 97 3d
       0.08521509 0.2724445 0.035848863 0.07418498

head.bias f4 [2]
000000 4d 05 0f 3e a0 06 3d 3e
       0.13966866 0.18459558
