test_for_cleanRL/training_logs_jumping_ball/duelingCNN_fps10_lr0.0001_2025-05-19_20-53-36/dueling_cnn_final.pt (torch, 597077 bytes, 23 tensors)

cnn.cnn.0.weight f4 [32, 1, 3, 3]
0	0x3e8386eb	0.25688872
1	0x3e8e2f4d	0.27770463
2	0xbd9489b6	-0.07252829
3	0x3e9f1751	0.31072477
4	0xbd994ddf	-0.07485556
5	0x3d96b342	0.073584095
6	0xbe2c3f2a	-0.1682097
7	0x3e44fbdb	0.192367
8	0x3e930b99	0.28719786
9	0xbe7a67db	-0.2445368
10	0x3e950173	0.29102668
11	0x3d803b12	0.06261267
12	0x3e7b72cf	0.24555515
13	0x3d37cfab	0.044875782
14	0x3e23ae6c	0.15984505
15	0xbd3fda12	-0.046838827
16	0x3e8325a0	0.25614643
17	0x3d44762f	0.04796427
18	0xbe24cb8a	-0.16093269
19	0x3dc67ad5	0.09691397
20	0xbe1afa0e	-0.15134451
21	0xbd35eeef	-0.044417318
22	0xbe0f9160	-0.140203
23	0x3e607ee8	0.21923411
24	0xbe86b81c	-0.2631234
25	0xbe25d2fd	-0.16193767
26	0xbdbca8ae	-0.092118606
27	0xbe53822e	-0.20655128
28	0x3cbfaa81	0.023396732
29	0xbeabe33e	-0.3357181
30	0x3e999381	0.2999535
31	0xbe8c9156	-0.27454633
32	0x3e852eca	0.2601226
33	0x3d5ad438	0.053425044
34	0xbdd6f891	-0.10496629
35	0x3e4eacae	0.2018306
36	0x3d61ca05	0.0551243
37	0x3e888e1f	0.2667093
38	0x3cde4fd4	0.027137674
39	0xbdca2194	-0.09869686
40	0x3dbc2a00	0.09187698
41	0xbdc27ff0	-0.094970584
42	0x3e17bc0f	0.14817832
43	0x3e9af7b6	0.30267113
44	0x3e3df891	0.18551852
45	0xbe1538b8	-0.14572418
46	0x3e42d3f6	0.19026169
47	0x3d6b7274	0.057482198
48	0x3e2b211a	0.16711846
49	0xbe500b5e	-0.20316836
50	0xbeaa0cd7	-0.3321292
51	0xbe03e0b3	-0.12878685
52	0xbe82e7be	-0.2556743
53	0x3e8aeed1	0.27135327
54	0x3dc0ca3c	0.09413573
55	0x3e04e86a	0.12979284
56	0x3dd4a57e	0.10383128
57	0xbbb75f3b	-0.005596069
58	0x3e851614	0.25993407
59	0xbe726e49	-0.23674883
60	0x3cb3d4ab	0.021951994
61	0xbe6b3fc8	-0.2297355
62	0x3dda850a	0.106699064
63	0xbdf2abdc	-0.11849186
64	0x3dde8e95	0.10867039
65	0xbda2ed27	-0.079553895
66	0x3e8d2aed	0.27571812
67	0xbe4a5c46	-0.19761762
68	0xbe543596	-0.20723566
69	0xbe4e1456	-0.20124945
70	0x3e98f3ef	0.29873607
71	0x3dd4e77e	0.10395716
72	0x3ea13cb3	0.31491622
73	0xbe8c247a	-0.2737158
74	0xbea8a77e	-0.32940286
75	0xbe84bc2c	-0.25924814
76	0xbe605810	-0.21908593
77	0x3e0c999e	0.13730475
78	0x3df220b2	0.118226424
79	0x3e8d2a6f	0.27571437
80	0xbe2ff699	-0.17183913
81	0xbe666a2f	-0.22501443
82	0x3e37e5c1	0.17958738
83	0xbe0a99c1	-0.13535215
84	0x3e4de70d	0.2010767
85	0xbda93253	-0.08261552
86	0x3e419740	0.18905354
87	0xbe85d824	-0.26141465
88	0xbe32226a	-0.1739594
89	0x3dc54ab4	0.09633389
90	0x3da5803e	0.08081101
91	0xbd98a70c	-0.07453737
92	0x3e4f094e	0.20218393
93	0x3e6d6af2	0.23185328
94	0xbe75441c	-0.23951763
95	0xbe33c985	-0.17557342
96	0x3e995640	0.29948616
97	0xbdeb210b	-0.11480912
98	0xbdfec957	-0.12440746
99	0xbea522db	-0.32253155
100	0xbe4378b0	-0.19089007
101	0x3daa885c	0.0832679
102	0xbd3436f8	-0.043997735
103	0xbe77c4e3	-0.241962
104	0x3c001ae0	0.0078189075
105	0xbe692893	-0.22769384
106	0xbe90cb04	-0.2827989
107	0xbe3bf5a3	-0.18355422
108	0xbe96fb96	-0.2948882
109	0xbe63bedf	-0.2224078
110	0x3eac62d0	0.33669138
111	0x3d63f680	0.055655003
112	0x3dc76e53	0.097378395
113	0xbe9c7bdb	-0.30563244
114	0xbe6266bc	-0.22109503
115	0xbde2b676	-0.11069958
116	0x3d677640	0.056509256
117	0xbe962c5a	-0.29330713
118	0xbe131243	-0.14362435
119	0xbe4c5876	-0.1995562
120	0x3a722800	0.0009237528
121	0xbdfe05c0	-0.124034405
122	0xbcbd3940	-0.023098588
123	0xbe674c30	-0.22587657
124	0xbe6a4a20	-0.22879839
125	0xbe47226e	-0.19446728
126	0xbde87e0c	-0.113521665
127	0xbe853ca8	-0.2602284
128	0x3e8d98bc	0.2765559
129	0xbd890d72	-0.066920176
130	0x3e933064	0.28747857
131	0x3dce810e	0.10083209
132	0xbe8f243a	-0.27957326
133	0x3e766ad2	0.24064186
134	0xbdc35cca	-0.095391825
135	0xbe02d78b	-0.12777536
136	0xbe8daa56	-0.27669019
137	0xbea9ab8b	-0.3313869
138	0x3dc9d8cb	0.09855803
139	0xbda47318	-0.08029765
140	0x3e08273e	0.1329622
141	0xbe8c0f56	-0.2735545
142	0x3e771d1e	0.24132201
143	0xbe7a8e98	-0.24468458
144	0xbd512775	-0.05106302
145	0x3d9b7fc0	0.07592726
146	0x3e33997b	0.17539017
147	0x3e8bc63f	0.27299687
148	0x3e9cc795	0.3062102
149	0xbe85fb32	-0.2616821
150	0x3db189ac	0.08668837
151	0xbe0f5469	-0.13997044
152	0xbd0b6ab0	-0.034037292
153	0xbe802e50	-0.25035334
154	0x3e991263	0.2989684
155	0xbe7d2550	-0.24721265
156	0x3e38a1a7	0.18030415
157	0x3df870da	0.121309
158	0x3ddfe656	0.10932605
159	0xbe3a997e	-0.18222615
160	0x3e9aaa46	0.30208033
161	0x3d95217f	0.072817795
162	0x3d39a209	0.045320544
163	0xbe9b44ec	-0.3032602
164	0x3e0df433	0.13862686
165	0xbd3cfcd6	-0.04613956
166	0xbe1b60bb	-0.15173618
167	0x3e959d56	0.292216
168	0x3d92d5aa	0.071696594
169	0xbe3c8e34	-0.18413621
170	0xbe289599	-0.16463317
171	0xbcd8db7c	-0.026471846
172	0x3e4bc4e7	0.19899331
173	0xbdb425e2	-0.08796288
174	0xbe4da988	-0.20084202
175	0xbddbbd8e	-0.10729514
176	0xbe760daf	-0.24028657
177	0x3de06a73	0.109578036
178	0x3e829564	0.255046
179	0xbea4adcf	-0.32163855
180	0x3d9cdfa6	0.07659845
181	0x3e30e00f	0.17272972
182	0x3d6983d9	0.057010505
183	0xbdf5ee92	-0.12008394
184	0x3e30c9dd	0.17264505
185	0x3e31c9c0	0.17362118
186	0x3dffecc7	0.124963336
187	0xbd8045b5	-0.062632956
188	0xbdb7e842	-0.089798465
189	0x3d10d18d	0.035356093
190	0xbd71480b	-0.058906596
191	0xbdcd178e	-0.10014258
192	0x3e5a7d42	0.21336845
193	0x3e92a6dd	0.28642932
194	0xbd10da78	-0.035364598
195	0xbd975a5c	-0.073902816
196	0x3bbdc78e	0.005791611
197	0xbca0959d	-0.019602591
198	0x3d9c84ee	0.07642542
199	0x3dbd6b08	0.0924893
200	0xbe9dfecc	-0.30858457
201	0xbe01ab27	-0.12662946
202	0x3e8cb138	0.27478957
203	0x3dfd0a05	0.12355427
204	0xbcb24546	-0.021761548
205	0xbe4f7310	-0.20258737
206	0xbe541a81	-0.20713235
207	0xbe9b1108	-0.3028643
208	0xbdf0bdee	-0.11754976
209	0x3ddf07c6	0.108901545
210	0x3e5304b6	0.20607266
211	0x3e1602f0	0.14649558
212	0xbe9a50e4	-0.3013984
213	0xbe537dc9	-0.20653452
214	0xbd74ded4	-0.059782818
215	0x3ea162ab	0.3152059
216	0x3d43ae78	0.04777381
217	0xbdb968c2	-0.09053184
218	0x3e11e938	0.14249122
219	0xbdffe292	-0.12494387
220	0xbe5cee10	-0.21575189
221	0x3e7dd4c0	0.24788189
222	0xbe1b3473	-0.15156727
223	0xbd88da1c	-0.06682226
224	0xbea9c7aa	-0.33160144
225	0x3e63c913	0.22244672
226	0x3e804225	0.25050464
227	0x3dfc4695	0.1231815
228	0xbe68a3ff	-0.2271881
229	0xbea62417	-0.3244941
230	0xbe89f14c	-0.26941907
231	0x3e82a3c6	0.25515574
232	0x3e2698aa	0.16269174
233	0x3e92d4a7	0.28677866
234	0x3e2c524d	0.1682827
235	0x3dae2686	0.085034415
236	0xb993307e	-0.00028074154
237	0xbe817d9b	-0.25291142
238	0xbe92e0e2	-0.28687197
239	0xbe9c92a5	-0.3058063
240	0x3e0f29a3	0.13980727
241	0xbe269bbc	-0.16270345
242	0xbd8e9cd1	-0.06963504
243	0xbe406563	-0.18788676
244	0xbd83590c	-0.06413469
245	0xbe712a24	-0.23551232
246	0xbe60166a	-0.2188355
247	0x3dd84f6c	0.105620235
248	0xbdc0d703	-0.0941601
249	0x3e52c24c	0.20581931
250	0xbdeb2517	-0.11481684
251	0xbe816184	-0.2526971
252	0xbd744798	-0.05963859
253	0xbe26f9e2	-0.1630626
254	0xbdd6c57c	-0.10486886
255	0xbea319fb	-0.3185576

cnn.cnn.0.bias f4 [32]
0	0x3e8f1017	0.27941963
1	0xbd300cb9	-0.042980883
2	0xbcece042	-0.028915528
3	0xbe0bd4ab	-0.13655345
4	0xbe98e76e	-0.29864067
5	0xbea73068	-0.3265412
6	0x3dfff80e	0.124984846
7	0xbe3499fc	-0.17636865
8	0xbe60bfa1	-0.219481
9	0xbca70420	-0.02038771
10	0xbdcc3896	-0.099717304
11	0xbddcdb5c	-0.10784027
12	0x3c19a50a	0.009377727
13	0xbd90cd54	-0.07070413
14	0xbdecea4d	-0.11568127
15	0xbe202b08	-0.15641415
16	0xbe88c0a8	-0.26709485
17	0x3e914931	0.28376153
18	0xbe066b45	-0.13126858
19	0x3d98e302	0.07465173
20	0xbdef0b03	-0.11672022
21	0x3d0c5a40	0.034265757
22	0x3e9cfb13	0.30660304
23	0x3e1db514	0.15401107
24	0xbe918d32	-0.28428036
25	0x3e1021d9	0.14075412
26	0x3ea71842	0.32635695
27	0x3da8097c	0.08204934
28	0x3e62d4f8	0.22151554
29	0x3ea4f554	0.3221842
30	0xbd3c6f37	-0.0460045
31	0x3d81b82c	0.06333956

cnn.cnn.2.weight f4 [32]
0	0x3f7ec21a	0.99514925
1	0x3f7f0f25	0.99632484
2	0x3f810363	1.0079159
3	0x3f7fd58d	0.9993523
4	0x3f7f8848	0.99817324
5	0x3f7f82bd	0.99808866
6	0x3f7ece21	0.9953328
7	0x3f80e78b	1.0070661
8	0x3f7c6027	0.98584217
9	0x3f80e09c	1.0068545
10	0x3f7ed157	0.9953818
11	0x3f800000	1.0
12	0x3f805cee	1.002836
13	0x3f800000	1.0
14	0x3f7fce63	0.99924296
15	0x3f807c3d	1.0037915
16	0x3f7ea8dd	0.99476415
17	0x3f7f3105	0.9968417
18	0x3f808327	1.0040025
19	0x3f80febe	1.0077741
20	0x3f7f549a	0.99738467
21	0x3f7e8b3a	0.9943119
22	0x3f7e4004	0.9931643
23	0x3f7fc6b8	0.99912596
24	0x3f808d55	1.0043131
25	0x3f7efd3e	0.99605167
26	0x3f7f98bc	0.9984243
27	0x3f8044fc	1.0021052
28	0x3f8030d7	1.0014905
29	0x3f7f30a1	0.99683577
30	0x3f7f7aa3	0.99796504
31	0x3f80b523	1.0055279

cnn.cnn.2.bias f4 [32]
0	0xbbc40138	-0.0059815906
1	0x3b880a51	0.0041516204
2	0xba82194b	-0.0009925751
3	0xbb915295	-0.0044348934
4	0xbb5f17ae	-0.0034041214
5	0xbbb4e15f	-0.0055200304
6	0xb6b4e9a0	-5.3916156e-06
7	0x3b4db844	0.0031390348
8	0x3b11fbe6	0.0022275387
9	0xbb597ad5	-0.0033184786
10	0x3b809fe4	0.0039253104
11	0xbbb9277a	-0.005650458
12	0xbbb6ee35	-0.0055825957
13	0x3a945909	0.0011318038
14	0xbc0137cf	-0.007886841
15	0xbb48dd16	-0.0030649356
16	0xbb87cf0b	-0.0041445545
17	0xbb793d50	-0.003803093
18	0x3afc7ffe	0.0019264219
19	0xbc05757d	-0.008145687
20	0x3bfc64e9	0.007702459
21	0xbbcab9db	-0.0061867065
22	0xba226086	-0.00061941927
23	0xbadf15a0	-0.0017019995
24	0xbb951eee	-0.0045508062
25	0x3bbaeab4	0.0057042483
26	0xbabe18b0	-0.0014503207
27	0x3af2739f	0.0018497593
28	0x3b9181d8	0.0044405274
29	0x3b0a4815	0.0021100093
30	0xbb86e2bb	-0.004116384
31	0xba62258e	-0.0008626812

cnn.cnn.2.running_mean f4 [32]
0	0x3f846022	1.0341837
1	0x3f0e3be0	0.5556011
2	0x3a28548b	0.0006421289
3	0x3c973176	0.018456202
4	0x3ebfbf4d	0.37450638
5	0x335c5998	5.1304227e-08
6	0x3e951ede	0.29125112
7	0x39db863c	0.00041870947
8	0x39400351	0.00018311782
9	0x3c3210b1	0.010868237
10	0x3bde82ef	0.006790511
11	0x00000000	0.0
12	0x3b569fa1	0.0032748955
13	0x00000000	0.0
14	0x3cdbd6d6	0.02683584
15	0x380bf68e	3.3369804e-05
16	0x3de365f3	0.1110343
17	0x3f16d0b3	0.589122
18	0x3b068eff	0.002053201
19	0x3ca006c6	0.01953448
20	0x3e89acfc	0.2688979
21	0x3e6df768	0.23238909
22	0x3df1f8c4	0.118150264
23	0x3d7a96e6	0.061179064
24	0x39cb7584	0.00038806733
25	0x3ed9c171	0.42530397
26	0x3da29eb7	0.07940429
27	0x3c93fb5f	0.018064199
28	0x3e0780e9	0.13232769
29	0x3e7e9ecb	0.24865262
30	0x3eb2ed99	0.34946898
31	0x3c6335d6	0.013867816

cnn.cnn.2.running_var f4 [32]
0	0x3e4b2660	0.19838858
1	0x3dd486de	0.103772864
2	0x388e5b25	6.788065e-05
3	0x3ba29648	0.0049617626
4	0x3d8ed90c	0.06974992
5	0x30b478f3	1.31311e-09
6	0x3c8b3d19	0.016996907
7	0x37e7a5c8	2.7614544e-05
8	0x37774550	1.4738485e-05
9	0x3ad632d4	0.0016342052
10	0x3b02ca8d	0.0019957155
11	0x282175ea	8.962864e-15
12	0x39956f6f	0.0002850252
13	0x282175ea	8.962864e-15
14	0x3bdc1e7b	0.0067175007
15	0x364e1783	3.0710078e-06
16	0x3bf271c9	0.007398818
17	0x3d221172	0.03956742
18	0x39ec60d7	0.0004508558
19	0x3ac51186	0.001503513
20	0x3cf2a401	0.029619219
21	0x3c7c77ad	0.015409392
22	0x3cc11572	0.023569796
23	0x3c074cab	0.008258025
24	0x38179958	3.6144018e-05
25	0x3d80ea05	0.06294636
26	0x3c9e258d	0.019305015
27	0x3a98d39b	0.0011659743
28	0x3c543b3d	0.012953577
29	0x3c5be8ca	0.0134222
30	0x3d2a63d3	0.041599106
31	0x3a36a80d	0.00069677905

cnn.cnn.3.weight f4 [64, 32, 3, 3]
0	0xbd26048e	-0.040531687
1	0xbc3e5b6c	-0.011618476
2	0x3d3e1d3b	0.046414595
3	0x3cf9684f	0.030445246
4	0xbd113dab	-0.0354592
5	0xbd3b039a	-0.04565773
6	0xbd15009c	-0.036377534
7	0xbd6bf9df	-0.057611343
8	0xbd361722	-0.044455655
9	0xbc6f4175	-0.0146030085
10	0x3d27db1a	0.040980436
11	0x3c532c23	0.012888941
12	0xbd2b5612	-0.04183013
13	0xbd373092	-0.044724055
14	0x3d00808c	0.03137259
15	0xbd283744	-0.04106833
16	0xbbbfdb86	-0.0058550267
17	0x3cebc673	0.028781151
18	0xbc975190	-0.01847151
19	0x38985a19	7.264707e-05
20	0xbbdb6253	-0.006695071
21	0xbc86ffdd	-0.016479427
22	0xbd0666fc	-0.032813057
23	0xbd2f328c	-0.042772815
24	0xbd64e601	-0.05588341
25	0xbcea4b0f	-0.028600244
26	0x3d6f851f	0.058476564
27	0xbd016da7	-0.031598713
28	0xbd2ce0c1	-0.04220653
29	0x3c4de96a	0.012567857
30	0x3cbade0f	0.022810964
31	0x3d17e87d	0.037086952
32	0x3d4386c3	0.04773594
33	0x3cf1c46b	0.029512605
34	0xbd697a14	-0.05700119
35	0x3bcb51cc	0.0062048193
36	0x3d0bfed4	0.03417857
37	0xbbc42c9d	-0.0059867636
38	0xbd08636b	-0.033297937
39	0x3d700f40	0.058608294
40	0xbcaef44a	-0.02135672
41	0xbd04f7c9	-0.03246287
42	0xbd5008b0	-0.050789535
43	0x3b82b1fe	0.0039885035
44	0x3cd9f6b5	0.026606897
45	0x3c5c0037	0.013427786
46	0x3c43a651	0.011941508
47	0xbd35dc28	-0.04439941
48	0xbd5f720c	-0.054552123
49	0x3adfc75b	0.0017072962
50	0x3d5de0c2	0.054169424
51	0x3d0d33b1	0.034473125
52	0xbd0abaa4	-0.0338694
53	0xbbec41b9	-0.007209983
54	0xbd2c18f2	-0.042015977
55	0xbce1e77e	-0.027576204
56	0x3c6d187f	0.014471172
57	0x3cf2be8d	0.029631877
58	0x3d3d8979	0.046273682
59	0xbd5c1670	-0.053732336
60	0x3d314cba	0.043286063
61	0xbd2b79f5	-0.041864354
62	0x3cb4ba6c	0.02206155
63	0x3d4c16fa	0.0498266
64	0xb9fbee86	-0.00048052164
65	0x3d5bbd58	0.05364737
66	0xbd288c12	-0.041149206
67	0xbce81772	-0.028331492
68	0x3d188cb4	0.03724356
69	0xbae1e00c	-0.0017232909
70	0xbbb9b5e6	-0.005667436
71	0xbcc3222d	-0.023820007
72	0x3d079078	0.03309676
73	0x3cd90eb3	0.026496267
74	0x3c8c3131	0.0171133
75	0xbd10e9eb	-0.03537933
76	0xbd555d25	-0.052090783
77	0x39e615bb	0.0004388521
78	0x3c7e622e	0.015526338
79	0xbd0090b1	-0.03138799
80	0xbc550d19	-0.013003611
81	0x3d470749	0.048590932
82	0x3c33aaec	0.010966044
83	0x3c659edc	0.014014926
84	0xbc92ce19	-0.01792054
85	0xbd56bd97	-0.0524269
86	0xbd621abe	-0.055201285
87	0xbcd1fa14	-0.025631942
88	0xbcf26259	-0.029587911
89	0x3caf61bc	0.021408908
90	0xbc82e953	-0.015980398
91	0xbd031d39	-0.03201029
92	0x3d6053a4	0.054767266
93	0x3cbda946	0.023152005
94	0x3d1d13b4	0.03834887
95	0xbcb8aa6e	-0.022542205
96	0xbcaeef27	-0.021354271
97	0x3cb6b53f	0.022303222
98	0xbd0f3c5a	-0.034969665
99	0xbd1d0939	-0.038338874
100	0xbb37bf63	-0.002803766
101	0xbcb03676	-0.021510344
102	0xbd33d557	-0.04390463
103	0x3d0fe997	0.035134878
104	0x3d42d715	0.0475684
105	0x3c2107b1	0.009828494
106	0xbc251a5a	-0.0100770835
107	0xbd5ed0f8	-0.054398507
108	0xbcd4a95c	-0.025959663
109	0x3c99d25e	0.018777069
110	0x3cd9b5bd	0.026575917
111	0xbabf15b1	-0.0014578608
112	0xbcc63086	-0.02419306
113	0x3d32acd0	0.043621838
114	0xbd3d9323	-0.0462829
115	0x3d08b3ca	0.033374585
116	0xbcffb785	-0.031215439
117	0x3996bab5	0.00028749337
118	0xbc483f11	-0.012222067
119	0x3bd72ced	0.006566635
120	0xbc97c3ee	-0.018526044
121	0x3d2c93fc	0.042133316
122	0xbb131fb5	-0.0022449319
123	0x3d3975e1	0.045278434
124	0x3d652434	0.05594273
125	0xbcf10462	-0.029421035
126	0xbd3e9147	-0.046525266
127	0x3d489b14	0.04897602
128	0x3d3d53f9	0.04622266
129	0xbd28be4b	-0.041197103
130	0xbb9b8b30	-0.004746817
131	0xbd6c773b	-0.057730895
132	0xbd3af919	-0.045647714
133	0x3c56f0d3	0.01311894
134	0x3c1d4f81	0.009601475
135	0x3c590dd6	0.013247928
136	0xbc7b3302	-0.015331985
137	0x3d618fe8	0.05506888
138	0x3bd27f12	0.0064238394
139	0xbd21e4db	-0.039524894
140	0x3ba43d05	0.005012157
141	0x3c75ec12	0.015009897
142	0x3cb037a0	0.021510899
143	0xbd2712f4	-0.04078956
144	0x3cae5d30	0.02128467
145	0xbcfedb78	-0.03111051
146	0xbd3b55c9	-0.045736108
147	0xbd05e50c	-0.03268914
148	0x3d60ba83	0.05486537
149	0x3d563ea8	0.052305847
150	0x3d5cd86a	0.053917326
151	0x3d0e155c	0.03468834
152	0x3d3b1044	0.04566981
153	0xbbf2053d	-0.0073858784
154	0xbcff4c1a	-0.031164218
155	0x3d04612c	0.032319233
156	0xbcd5cbc8	-0.026098147
157	0xbd1871fb	-0.037218075
158	0xbc9b72e0	-0.018975675
159	0x3c99dba3	0.018781489
160	0x3d010464	0.031498328
161	0xbcbed493	-0.023294723
162	0xbd004e38	-0.031324595
163	0x3becf390	0.0072311834
164	0xbcf6601f	-0.030075131
165	0xbd375a50	-0.044763863
166	0x3d1630dd	0.036667693
167	0xbc2536b0	-0.010083839
168	0x3d411a70	0.047144353
169	0x3d7cd37b	0.06172512
170	0x3cb0a88e	0.021564748
171	0x3cbf911a	0.02338462
172	0x3c42248b	0.011849533
173	0xbb11736d	-0.0022194043
174	0xbb7ba9a0	-0.0038400665
175	0x3b29b5e0	0.002589576
176	0x3ca4ca13	0.020115888
177	0x3d7300f0	0.059327066
178	0xbc60c4b2	-0.013718771
179	0xbcd07f49	-0.02545132
180	0xbc6f18c0	-0.014593303
181	0xbcde6136	-0.027145963
182	0x3c507f73	0.012725699
183	0x3d352087	0.044220474
184	0x3d38f3cd	0.04515438
185	0x3ce2f9c1	0.027706983
186	0xbd2dc688	-0.042425662
187	0xbcfcf584	-0.03087879
188	0xbc53eac7	-0.012934393
189	0xbc1e9c8c	-0.009680878
190	0x3b9c7c03	0.0047755255
191	0xbd50b41d	-0.05095302
192	0x3ca42ef0	0.020041913
193	0xbd3e96c9	-0.04653052
194	0xbd1b7ddf	-0.037961837
195	0xbd3357b5	-0.043784816
196	0x3d4ee315	0.05050953
197	0xbd647113	-0.0557719
198	0x3d3ee353	0.046603512
199	0xbb1c0816	-0.002380853
200	0xbc0f9a8e	-0.008764876
201	0x3d15144b	0.036396306
202	0xbbeb14fd	-0.007174133
203	0x3d0f16ee	0.034933977
204	0x3d2f1298	0.04274234
205	0xbd5b49b4	-0.053537086
206	0x3ca627e9	0.020282703
207	0x3c1072b4	0.00881641
208	0x3c55a19d	0.01303902
209	0x3c050dd4	0.008120973
210	0x3c8e4ba5	0.017370054
211	0xbce2a532	-0.027666662
212	0xbc0df9ca	-0.008665511
213	0x3d6c370f	0.057669695
214	0x3d1b725d	0.037950862
215	0xbba3d02b	-0.004999181
216	0xbd61e042	-0.05514551
217	0x3ae7ea5e	0.0017693748
218	0xbd39b84e	-0.045341782
219	0x3d29acad	0.041424442
220	0xbd07ef8b	-0.03318743
221	0xbba5f36f	-0.00506442
222	0xbcaac294	-0.020844735
223	0x3c4f3c54	0.012648661
224	0x3d6ed1d6	0.058305584
225	0x3ba9e83c	0.005185155
226	0x3d08b616	0.033376776
227	0x3d4164fb	0.047215443
228	0x3d44cea4	0.04804863
229	0xbca5ed7c	-0.020254843
230	0xbc491dd4	-0.012275178
231	0x3cff3d29	0.031157093
232	0xbc5baafc	-0.013407465
233	0x3cf54aa4	0.029942818
234	0xbc59d978	-0.0132964775
235	0xbd2b0b7c	-0.041759
236	0x3c9cf4e4	0.019159742
237	0x3bee8dd3	0.0072800904
238	0x3cd8bf2d	0.026458347
239	0x3d6e1c7c	0.058132634
240	0x3d18fda8	0.03735128
241	0x3d60d2c6	0.05488851
242	0x3b0e3ade	0.0021702568
243	0xbd5d2034	-0.05398579
244	0xbd2bdef8	-0.041960686
245	0xbd2616c8	-0.04054907
246	0xbd4e15b8	-0.05031368
247	0xbcfd0cea	-0.030889947
248	0xbd6a51cd	-0.057206918
249	0xbd6ff96a	-0.05858747
250	0xbd1459a6	-0.036218308
251	0xbd722877	-0.05912062
252	0xbd271e13	-0.040800165
253	0x3c9c25e3	0.019061035
254	0x3d33b7e0	0.04387653
255	0xbc8ca4bf	-0.0171684

cnn.cnn.3.bias f4 [64]
0	0xbd6f1a8b	-0.058374923
1	0xbc58735c	-0.013211098
2	0x3d08fbbe	0.033443205
3	0xbd30d28e	-0.04316955
4	0xbca91523	-0.020639962
5	0x3b3c4c7b	0.002873211
6	0xbcd70355	-0.026246706
7	0x3b9b64c3	0.0047422363
8	0xbd7574b4	-0.05992575
9	0x3bf19d52	0.0073734904
10	0x3d660728	0.05615917
11	0x3b956412	0.0045590485
12	0x3d65529c	0.055986986
13	0xbd722a29	-0.05912224
14	0xbd00d374	-0.031451657
15	0xbc91b369	-0.017785745
16	0x3d4f5988	0.050622493
17	0xbd66f9e4	-0.056390658
18	0xbbee7645	-0.0072772824
19	0xbd706ef2	-0.058699556
20	0x3c5098c8	0.012731738
21	0xbd706af4	-0.05869575
22	0xbd594eee	-0.05305379
23	0xbd245ae5	-0.040125746
24	0xbcbfd736	-0.02341805
25	0x3d039308	0.03212264
26	0x3b8e9f95	0.0043525198
27	0xbd690785	-0.056891937
28	0x3d5e0f26	0.054213665
29	0xbbd84e33	-0.006601119
30	0x3c9b12f1	0.01892993
31	0xbd103742	-0.035208948
32	0xbce1ad39	-0.02754842
33	0xbd31efe6	-0.043441676
34	0xbd2b7f4c	-0.041869447
35	0xbd0e79b5	-0.034784038
36	0x3d02d184	0.03193809
37	0xbcab9f38	-0.020949945
38	0xbd5296bb	-0.05141328
39	0x3c546f12	0.012965934
40	0xbc9191d4	-0.017769732
41	0xbd27241d	-0.040805925
42	0x3d3c1bd0	0.04592496
43	0xbd82c313	-0.06384864
44	0xbd6f9a36	-0.058496676
45	0x3ce7719a	0.028252412
46	0x3d065cca	0.032803334
47	0xbca93068	-0.020652965
48	0x3d1cd08a	0.038284816
49	0xbd248eae	-0.040175132
50	0xbccfd014	-0.025367774
51	0xbc289f28	-0.010291852
52	0xbc9d8049	-0.01922621
53	0x3d2b6a11	0.0418492
54	0xbd7ec7d2	-0.062202282
55	0x3d3e797b	0.04650257
56	0x3cead312	0.0286651
57	0xbd0999f3	-0.033594083
58	0xbd08b6cb	-0.03337745
59	0x3b971b81	0.004611433
60	0xbb64845c	-0.0034868931
61	0xbd5a485c	-0.053291664
62	0x3d2e0b57	0.042491283
63	0x3d322130	0.04348868

cnn.cnn.5.weight f4 [64]
0	0x3f809f5e	1.0048635
1	0x3f809fab	1.0048727
2	0x3f81194b	1.0085844
3	0x3f8101c8	1.0078669
4	0x3f807e00	1.0038452
5	0x3f80c296	1.0059383
6	0x3f8090d2	1.0044196
7	0x3f80d80a	1.006593
8	0x3f813e9c	1.0097232
9	0x3f816909	1.0110179
10	0x3f80d15b	1.006389
11	0x3f802ed2	1.0014288
12	0x3f80b707	1.0055856
13	0x3f8128cf	1.0090579
14	0x3f8048bc	1.0022197
15	0x3f814228	1.0098314
16	0x3f80c539	1.0060188
17	0x3f80f731	1.0075437
18	0x3f810610	1.0079975
19	0x3f8098c0	1.0046616
20	0x3f80ac79	1.0052634
21	0x3f807fa3	1.0038952
22	0x3f80f9bf	1.0076216
23	0x3f810902	1.0080874
24	0x3f80ad54	1.0052896
25	0x3f806ccc	1.0033202
26	0x3f810014	1.0078149
27	0x3f80e69a	1.0070374
28	0x3f80baf1	1.005705
29	0x3f80a119	1.0049163
30	0x3f80fb80	1.0076752
31	0x3f809091	1.0044118
32	0x3f80ab7f	1.0052336
33	0x3f80d78c	1.006578
34	0x3f807934	1.0036988
35	0x3f80b61e	1.0055578
36	0x3f812f74	1.0092607
37	0x3f80b936	1.0056522
38	0x3f8157c5	1.010491
39	0x3f807a1f	1.0037268
40	0x3f806509	1.0030833
41	0x3f80837b	1.0040125
42	0x3f80ad19	1.0052825
43	0x3f812090	1.0088062
44	0x3f8103bb	1.0079263
45	0x3f812049	1.0087978
46	0x3f813a59	1.0095931
47	0x3f81363a	1.0094674
48	0x3f807ae4	1.0037503
49	0x3f803817	1.0017117
50	0x3f811594	1.008471
51	0x3f80c94c	1.0061431
52	0x3f801705	1.0007025
53	0x3f80c9bc	1.0061564
54	0x3f818476	1.0118549
55	0x3f80737d	1.0035244
56	0x3f80c836	1.00611
57	0x3f80c9b7	1.0061558
58	0x3f809b64	1.0047421
59	0x3f80a67d	1.0050808
60	0x3f80b96f	1.005659
61	0x3f812695	1.0089899
62	0x3f8103ed	1.0079323
63	0x3f806682	1.0031283

cnn.cnn.5.bias f4 [64]
0	0x3b2a1aae	0.0025955844
1	0x3b5e6fe1	0.0033941197
2	0x3adea433	0.0016986191
3	0xb9034682	-0.000125194
4	0xb9671ef9	-0.00022041415
5	0x3a97f0bf	0.0011592134
6	0xba042254	-0.00050405157
7	0xbb1eb464	-0.0024216408
8	0x3acca197	0.0015612122
9	0xb925d518	-0.0001581501
10	0x3ae4ac73	0.0017446413
11	0x3943d870	0.00018677278
12	0xbb103756	-0.002200564
13	0xba15af0e	-0.0005709984
14	0x3aaa3b4a	0.001298764
15	0x39e8cd05	0.0004440324
16	0x3a839082	0.0010037574
17	0x39c1c8cd	0.00036961437
18	0xb9efc4c1	-0.00045732225
19	0xb5faa2a0	-1.8673782e-06
20	0x3b097ffd	0.0020980828
21	0xbb21a007	-0.0024662034
22	0xba0bf172	-0.00053384074
23	0xb9e0118c	-0.00042737683
24	0x3b1c7e8b	0.0023879136
25	0x3b20ab28	0.002451608
26	0x3a35eea3	0.00069401617
27	0x39c4fff5	0.00037574736
28	0xbacad1ee	-0.0015473941
29	0x3b019eff	0.0019778607
30	0x3b8077e1	0.0039205407
31	0x3a2109cd	0.0006143123
32	0x396816a0	0.00022133673
33	0xbab74ead	-0.0013985239
34	0xbb0d7f30	-0.0021590702
35	0x3a42c486	0.0007429797
36	0xbb4145ed	-0.0029491142
37	0x3b2c8fa7	0.002633074
38	0xb9fb36e3	-0.00047915344
39	0x3adca163	0.0016832765
40	0xb9bb2960	-0.00035698246
41	0x3aa13ce1	0.0012301469
42	0x3ac0d8be	0.0014713032
43	0x3bb0e5bb	0.0053984798
44	0x3ab9d9de	0.0014179309
45	0xb937f8ea	-0.00017544968
46	0xba49b544	-0.0007694552
47	0xbb0ba0ac	-0.0021305485
48	0x3b0f75dd	0.002189032
49	0xba552c27	-0.00081318844
50	0x3bc29b55	0.005938927
51	0xb9aece5c	-0.00033341616
52	0xb9599ed7	-0.00020753905
53	0xbb87762d	-0.0041339607
54	0x398ba6c5	0.000266364
55	0x3aa6d39f	0.0012727863
56	0x395e790d	0.00021216665
57	0xbb886503	-0.004162432
58	0xba3d283b	-0.00072157726
59	0x3b209329	0.0024501777
60	0x3a23d8ad	0.0006250244
61	0x3a3aa81e	0.00071203883
62	0xba39391e	-0.0007065701
63	0xba40e75e	-0.0007358695

cnn.cnn.5.running_mean f4 [64]
0	0x3d8c212b	0.06842264
1	0x3dd8570b	0.10563477
2	0x3e51c10d	0.204838
3	0x3da52a24	0.08064678
4	0x3d7342a5	0.05938973
5	0x3e02c022	0.12768605
6	0x3e0367c5	0.12832554
7	0x3dba48c4	0.0909591
8	0x3dd79db8	0.10528129
9	0x3e34d30a	0.1765863
10	0x3de9c5a9	0.11414654
11	0x3e551820	0.20809984
12	0x3e3c8cac	0.18413037
13	0x3d91232f	0.07086789
14	0x3e3fd005	0.18731697
15	0x3dc3493d	0.095354535
16	0x3e947e77	0.29002735
17	0x3da2fee5	0.079587735
18	0x3e9399f4	0.28828394
19	0x3db3d672	0.087811366
20	0x3e9b9404	0.30386364
21	0x3e029b0b	0.12754457
22	0x3db08f3b	0.08621069
23	0x3e4b63f9	0.19862355
24	0x3e05a77b	0.1305217
25	0x3e0da3a1	0.1383195
26	0x3de96eb1	0.11398066
27	0x3d3e2ac6	0.04642751
28	0x3e913d06	0.2836687
29	0x3e222a16	0.15836367
30	0x3e6ac578	0.22926891
31	0x3de12711	0.109937795
32	0x3e905547	0.2819006
33	0x3de75dbc	0.11297175
34	0x3eba1ab7	0.36348507
35	0x3d59636e	0.05307334
36	0x3e830bc7	0.25594923
37	0x3e2cfb55	0.1689275
38	0x3d47b4ec	0.048756525
39	0x3d7f705b	0.06236301
40	0x3d641ece	0.05569344
41	0x3e85b6c2	0.26115996
42	0x3e2d4052	0.16919068
43	0x3d91fc8f	0.0712825
44	0x3d87e3e8	0.066352665
45	0x3e3107d8	0.17288148
46	0x3decb34c	0.11557636
47	0x3d96f645	0.07371191
48	0x3e0a37d9	0.13497867
49	0x3ea498e0	0.32147884
50	0x3e0434e8	0.12910807
51	0x3e57ae07	0.2106248
52	0x3dd406f9	0.103528924
53	0x3e277d02	0.1635628
54	0x3da96c42	0.08272602
55	0x3d9efcec	0.07763085
56	0x3e4e7de6	0.20165214
57	0x3dbc8c36	0.092064306
58	0x3df79639	0.120891996
59	0x3dc23a71	0.09483803
60	0x3e3af358	0.18256891
61	0x3e20f514	0.1571849
62	0x3e4eb066	0.20184478
63	0x3e077355	0.1322759

cnn.cnn.5.running_var f4 [64]
0	0x3d6fd2a2	0.058550484
1	0x3da656a6	0.08121996
2	0x3e2622ff	0.16224287
3	0x3d3359db	0.043786865
4	0x3cb66850	0.022266537
5	0x3da310be	0.07962178
6	0x3d4120b6	0.047150336
7	0x3d3e2f10	0.0464316
8	0x3d77181c	0.060325727
9	0x3ce9f60b	0.028559705
10	0x3d1f7b86	0.03893616
11	0x3d470073	0.048584413
12	0x3dcf8c21	0.10134149
13	0x3d3f8ae4	0.046763316
14	0x3de84698	0.1134159
15	0x3d8b0082	0.06787206
16	0x3e7ba943	0.24576287
17	0x3d2b9a32	0.0418951
18	0x3d843b4f	0.06456625
19	0x3d9a1f68	0.075255215
20	0x3e2d5d18	0.16930044
21	0x3dbce88b	0.092240416
22	0x3d6f31c1	0.05839706
23	0x3dbd26ae	0.09235893
24	0x3ce1a08d	0.027542377
25	0x3deb4105	0.11487011
26	0x3d8450ee	0.064607486
27	0x3d051066	0.032486342
28	0x3e7898f3	0.24277095
29	0x3db56d17	0.08858698
30	0x3e1212e0	0.14265013
31	0x3d6b6480	0.05746889
32	0x3e21963f	0.1577997
33	0x3d139d2c	0.036038563
34	0x3d9635e0	0.073344946
35	0x3cf99f3a	0.030471433
36	0x3d22ec98	0.039776415
37	0x3df07bd8	0.11742371
38	0x3d221540	0.039571047
39	0x3ce08e3b	0.02741157
40	0x3c2e6ca8	0.010646023
41	0x3e46dcf6	0.19420227
42	0x3d3caadf	0.046061393
43	0x3d3d2d6f	0.046185907
44	0x3d7813e3	0.06056584
45	0x3d83345f	0.06406473
46	0x3d1b44eb	0.037907522
47	0x3d8fba8b	0.07018002
48	0x3dbe30f5	0.092866816
49	0x3e7d09f7	0.24710833
50	0x3db04b01	0.08608056
51	0x3e15d898	0.14633405
52	0x3d1866a6	0.03720727
53	0x3ce0a2b9	0.027421342
54	0x3cbdb782	0.023158792
55	0x3d50e0e3	0.05099572
56	0x3d67ee4e	0.05662375
57	0x3ce5bc4d	0.02804389
58	0x3d0eefd6	0.034896694
59	0x3d9d2a47	0.076740794
60	0x3df317e2	0.1186979
61	0x3dbeb1c8	0.09311253
62	0x3d3e3876	0.046440564
63	0x3cad2305	0.021134863

cnn.cnn.6.weight f4 [64, 64, 3, 3]
0	0x3d093713	0.03349979
1	0x3cbb36ab	0.022853216
2	0xbce283ad	-0.027650679
3	0xbcbb612a	-0.02287348
4	0xbc94a4dd	-0.01814502
5	0x3c5a3d60	0.013320297
6	0x3cbc9789	0.023021476
7	0x3ad6c092	0.0016384295
8	0xbd277d70	-0.04089111
9	0xbcde0361	-0.02710122
10	0xbcaafdeb	-0.02087303
11	0xbcf613b8	-0.0300387
12	0x3cc319b5	0.023815969
13	0x3b99a9d9	0.004689437
14	0xbcdd0cf4	-0.026983716
15	0xbccf24d9	-0.025286125
16	0xbcfc135a	-0.030770946
17	0xbceffbfb	-0.029294958
18	0x3c859146	0.016304623
19	0xbc9ecb32	-0.019384
20	0xbd059304	-0.03261091
21	0x3b8fe710	0.0043915585
22	0xbac22730	-0.0014812704
23	0xbd06a927	-0.03287616
24	0x3c338684	0.010957364
25	0x3b29e3f0	0.0025923215
26	0x3b921a19	0.0044586775
27	0x3ca2fc8f	0.01989582
28	0xbca51e55	-0.020156065
29	0xbd108dc8	-0.035291463
30	0x3cd92207	0.026505483
31	0x3d1d8895	0.038460333
32	0x3d1fc0a9	0.039002094
33	0x3cac6928	0.021046236
34	0x3d109d57	0.0353063
35	0x3c4eca10	0.012621418
36	0xbd2174c3	-0.039417993
37	0x3c37248f	0.01117815
38	0xbd06ef27	-0.032942917
39	0xbd358c5c	-0.04432331
40	0x3c1cc9c0	0.009569585
41	0xbccccc19	-0.024999665
42	0xbcf52990	-0.029927045
43	0x3d221ddf	0.03957927
44	0x3c6d4862	0.014482589
45	0x3c926d87	0.017874492
46	0xbc38596f	-0.011251791
47	0x3c9ca0e0	0.01911968
48	0xba5621d4	-0.0008168493
49	0xbc126689	-0.008935579
50	0xbbfb3bd1	-0.007667043
51	0x3d00ce03	0.031446468
52	0xbcf0c166	-0.029389095
53	0xbc3de3be	-0.0115899425
54	0x3cfa0619	0.030520486
55	0x39840a40	0.0002518464
56	0x3cc89be5	0.024488399
57	0xbcaa5ce0	-0.02079624
58	0x3cf25a1a	0.02958398
59	0xbcf3c92b	-0.02975901
60	0xbcc6ffb3	-0.024291849
61	0xbcf0b85f	-0.02938479
62	0xbcfff30e	-0.031243827
63	0x3cdb0b44	0.02673877
64	0x3ce00961	0.027348222
65	0x3cbd10ea	0.023079354
66	0x3c998fa9	0.01874526
67	0x3ce2db1b	0.027692368
68	0x3ccb9028	0.024849012
69	0x3cb10bcb	0.021612069
70	0xbcb0f0da	-0.021599222
71	0x3cfceae7	0.030873729
72	0x3cf8a0ae	0.030350056
73	0x3c9ce276	0.019150954
74	0xbadc6a68	-0.001681638
75	0x3d126995	0.035745222
76	0xba7ecad5	-0.00097195554
77	0xbd16148f	-0.0366407
78	0xbc90d2e1	-0.01767868
79	0x39eeb674	0.00045530836
80	0x3ca0b387	0.019616855
81	0x3c8be936	0.017078977
82	0x3c477af2	0.012175309
83	0x3d29c9bd	0.04145216
84	0x3ce390f1	0.027779074
85	0xbcbfa840	-0.023395658
86	0xbc693220	-0.014233142
87	0xbb1ee9ea	-0.002424831
88	0x3992e49a	0.00028017611
89	0xbd01aaa0	-0.03165686
90	0xbc45b85b	-0.01206788
91	0x3d08e9a3	0.03342594
92	0xbd1ed613	-0.038778376
93	0x3ba328de	0.004979237
94	0x3c28934a	0.010289023
95	0xbc5f15e2	-0.013616057
96	0xbc628ddf	-0.01382777
97	0xbcb15a56	-0.02164952
98	0xbd0fb336	-0.03508302
99	0xbd23cfd3	-0.03999312
100	0x3ca47f69	0.020080285
101	0xbb8a45d2	-0.004219749
102	0xba9b6c40	-0.0011857823
103	0xbbb6c51f	-0.005577698
104	0xbd20d6c2	-0.03926731
105	0xbbf93bb2	-0.007605993
106	0xbd1d6639	-0.038427565
107	0x3ca5700d	0.020195032
108	0xbc858d5b	-0.016302755
109	0xbc7fbe4c	-0.015609335
110	0x3c4b169c	0.012395527
111	0xbd000618	-0.03125581
112	0xbceac855	-0.028659979
113	0xbcc87303	-0.024468904
114	0xbc53dbcd	-0.012930823
115	0xbce4b718	-0.027919337
116	0xbd27ed5f	-0.04099786
117	0x3c731a5e	0.014837829
118	0x3ca5ed9d	0.020254904
119	0xbc903a9a	-0.017606068
120	0xbd10acf1	-0.03532118
121	0x3cef30ef	0.029198138
122	0xbcc10a29	-0.023564415
123	0xbcf383b4	-0.029725887
124	0xbd10b374	-0.03532739
125	0x3c4b0144	0.0123904385
126	0x3b103551	0.0022004435
127	0x3d0d8f37	0.03456041
128	0xbca03429	-0.019556122
129	0xbcf1586d	-0.02946111
130	0x3d1b9559	0.037984226
131	0x3cdea538	0.027178392
132	0xbd15c86e	-0.036568098
133	0xbd1e4069	-0.038635645
134	0x3c879511	0.016550573
135	0xbca51ee8	-0.020156339
136	0x3bee7bac	0.0072779264
137	0xba3ae9b3	-0.0007130161
138	0xbc1e59ef	-0.0096649965
139	0x3d1f9096	0.038956247
140	0x3c9e436a	0.019319255
141	0x3c523931	0.012831018
142	0xbd04469c	-0.0322939
143	0xbc759f11	-0.014991538
144	0x3c97a85c	0.018512897
145	0x3cb90786	0.022586595
146	0x3bbc1f70	0.0057410523
147	0xbd27f169	-0.04100171
148	0xbcaff6c6	-0.021479975
149	0x3d2ba24a	0.041902818
150	0x3d0304f0	0.03198713
151	0x3cafb4cb	0.021448513
152	0xbcc650bc	-0.024208419
153	0xbc85c93d	-0.01633131
154	0x3caeeacd	0.021352196
155	0xbcea4d87	-0.028601421
156	0x3b4bdb0f	0.003110591
157	0x3cbedecc	0.023299597
158	0x3cb5d02e	0.022193994
159	0x3ca2facd	0.019894982
160	0x3b92a13c	0.004474787
161	0x3cee67d5	0.029102245
162	0xbd2e1d58	-0.042508453
163	0xbcc96cf1	-0.02458808
164	0xbc861443	-0.016367083
165	0x3cb561f4	0.022141434
166	0xbd1ec1c0	-0.038758993
167	0x3ce5fa71	0.028073521
168	0xbcc34479	-0.023836361
169	0xbc8439b3	-0.016140794
170	0x3d0aab7f	0.033854958
171	0x3d181cbd	0.037136782
172	0x3c2c12e7	0.010502554
173	0xbc335ef8	-0.010947935
174	0x3cce33ee	0.025171246
175	0xbb5d807d	-0.0033798509
176	0x3cc854c9	0.024454491
177	0x3c735750	0.01485236
178	0xbb08c6f0	-0.002087053
179	0x3d25df5f	0.040496226
180	0x3c9e0b92	0.019292627
181	0x3d1da5a3	0.03848804
182	0x3d221388	0.039569408
183	0x3baf71e7	0.0053541544
184	0xbcb14419	-0.021638917
185	0xbc75aaec	-0.014994364
186	0xbc13b285	-0.00901473
187	0xbc758f92	-0.014987843
188	0x3b71fa05	0.0036922705
189	0x3d1e94ce	0.03871613
190	0x3cf32814	0.029682197
191	0x3c584973	0.013201105
192	0x3ca63b10	0.020291835
193	0xbcb47433	-0.022028064
194	0x3c9d5c71	0.019209119
195	0x3d1093fb	0.035297375
196	0x3c85e1f6	0.016343098
197	0x3aa030b5	0.0012221547
198	0x3d054320	0.03253472
199	0xbd159791	-0.036521498
200	0x3ca573f9	0.020196902
201	0xbb9402c0	-0.0045169294
202	0xbd0c616c	-0.034272596
203	0x3cd5d5b6	0.026102882
204	0xbc07a633	-0.008279371
205	0xbc4a69c4	-0.012354318
206	0xbca12173	-0.01966927
207	0xbc59ea8a	-0.013300547
208	0xbba3e91a	-0.005002153
209	0xbd215c0b	-0.03939442
210	0x3cb51633	0.022105312
211	0x3b96c703	0.0046013608
212	0x3c782d5a	0.015147531
213	0x3d2c5bec	0.04207985
214	0xbc1db2d9	-0.00962516
215	0xbcd5e4ac	-0.026110016
216	0xbcdc1de4	-0.026869722
217	0xbbb79769	-0.0056027663
218	0xbc36d80f	-0.011159911
219	0x3c7eeb0e	0.015558971
220	0x3b8aea9f	0.004239395
221	0x3c800add	0.01563018
222	0xbcd88582	-0.026430849
223	0xbd178efd	-0.0370016
224	0x39bd2daf	0.00036082926
225	0x3bf93141	0.0076047485
226	0xbcb8b559	-0.02254741
227	0xbc7e5272	-0.015522586
228	0xbbeccdbc	-0.007226674
229	0xbd109f09	-0.035307918
230	0x3d23f11f	0.040024873
231	0x3cfa7566	0.030573558
232	0xbcee7481	-0.029108288
233	0xbd239fd1	-0.039947335
234	0x3d1ddab6	0.038538657
235	0x3d2edf62	0.042693503
236	0xbcfb1df2	-0.030653927
237	0x3b673e04	0.0035284767
238	0xbcd917c4	-0.02650059
239	0xbcf5299b	-0.029927066
240	0xbce41409	-0.027841585
241	0x3b6370c4	0.0034704665
242	0x3d22f401	0.03978348
243	0x3c81d40d	0.015848184
244	0xbd295035	-0.041336257
245	0x3ca48db8	0.020087108
246	0x3d21df1a	0.039519407
247	0x3cfec506	0.031099807
248	0x3d28f504	0.04124929
249	0xbcdb124e	-0.026742127
250	0xbcc469e5	-0.023976276
251	0x3cc23e38	0.023711309
252	0xbd0d5a20	-0.034509778
253	0xbc47a4e7	-0.012185312
254	0x3ce6b15c	0.028160743
255	0x3c1cb0d3	0.009563643

cnn.cnn.6.bias f4 [64]
0	0xbd0dbcf8	-0.034604043
1	0xbc8157ce	-0.015788939
2	0xbce04609	-0.027377145
3	0x3c35c964	0.011095379
4	0x3c5a7bd5	0.013335188
5	0xbc127d45	-0.008940999
6	0x3c994f0c	0.01871445
7	0x3b39f5ab	0.002837519
8	0x3d1e5221	0.038652543
9	0x3bbdf46f	0.005796961
10	0x3d072fa8	0.033004433
11	0x3cdc1319	0.026864575
12	0xb982e3c3	-0.00024965228
13	0x3cb13f0a	0.021636505
14	0x3c26df9a	0.010185147
15	0xbc32323d	-0.010876236
16	0x3cb1fb02	0.021726135
17	0x3cbee797	0.02330379
18	0xbcc4671d	-0.02397495
19	0xbcaa130e	-0.02076104
20	0xbce95316	-0.028482001
21	0xbcd59771	-0.02607319
22	0xbcce9e1b	-0.025221875
23	0xbce3c5cb	-0.027804276
24	0x3cc52a4b	0.024068018
25	0xbcf75d11	-0.030195745
26	0xbd0103bf	-0.031497713
27	0xbcdf6b53	-0.027272856
28	0xbbca9d60	-0.0061833113
29	0x3d2456a1	0.04012168
30	0x3ad3a6b3	0.0016147703
31	0xbd002196	-0.03128203
32	0xbc0db503	-0.008649114
33	0x3bf19530	0.007372521
34	0x3cf35ed4	0.029708304
35	0x3b921fc0	0.0044593513
36	0x3d3073ff	0.043079372
37	0x3c58d42c	0.0132341795
38	0x3d0947cb	0.033515733
39	0xbcc3fd12	-0.023924384
40	0xbb7830c3	-0.003787086
41	0x3b0f5ee7	0.0021876635
42	0x3d2a4398	0.04156837
43	0xbc929ac4	-0.017896064
44	0x3c5fd519	0.013661646
45	0xbd12184e	-0.03566771
46	0xbc8516a1	-0.016246142
47	0xbc5efefe	-0.0136106
48	0xbc413e71	-0.011794672
49	0x396a9935	0.00022373053
50	0x3c857700	0.016292095
51	0x3d1d8d9e	0.038465135
52	0x3cb2c47c	0.021822207
53	0xbc313c31	-0.010817573
54	0x3c977022	0.018486086
55	0xbced287a	-0.028949965
56	0xbbdcce97	-0.0067384946
57	0x3ce1e1f9	0.027573572
58	0x3d0c26a4	0.034216538
59	0xb9d93fb7	-0.00041436937
60	0x3cff77a7	0.031184984
61	0xbc91d8f3	-0.017803645
62	0x3cf05134	0.029335596
63	0xbb8194c3	-0.0039545014

cnn.linear.0.weight f4 [64, 1152]
0	0xbc968e47	-0.01837839
1	0xbc7aebe5	-0.015315031
2	0xbb3acdb8	-0.0028503966
3	0x3cc713b5	0.02430139
4	0x3c047256	0.0080839
5	0xbc59e116	-0.013298294
6	0xbc3212ea	-0.010868767
7	0xbc8989e2	-0.01678938
8	0x3cc52825	0.024066994
9	0xbcd72a9e	-0.026265439
10	0x3ba72395	0.0051006773
11	0xbc0f29d8	-0.008738004
12	0x3c81a1a7	0.015824152
13	0x3959a07d	0.00020754519
14	0xbc4a7ad4	-0.012358386
15	0x3b2d797d	0.0026470118
16	0x3cbeba14	0.023282088
17	0xbc2178cf	-0.009855463
18	0x3cb8a09b	0.02253752
19	0xbc8e342f	-0.017358867
20	0x3ce362a5	0.027756998
21	0x3c110500	0.00885129
22	0xbc6e45fc	-0.014543053
23	0xbc224dda	-0.009906257
24	0x3cc8f280	0.024529696
25	0xbb95cef7	-0.0045717913
26	0x3ce8bcc1	0.028410317
27	0xbcbfd940	-0.023419023
28	0x3c585ade	0.013205258
29	0xbca4f2e0	-0.020135343
30	0xbc9ff3eb	-0.019525489
31	0x3be5cea1	0.0070131575
32	0x3c3f9545	0.0116933035
33	0xbc3c9aae	-0.011511488
34	0x3ca6b426	0.020349573
35	0xbc731951	-0.014837579
36	0xbc1d826c	-0.0096136145
37	0xbc43f45e	-0.011960117
38	0xbc3ecb10	-0.011645094
39	0xbcca0bda	-0.024663854
40	0xbc7b82e8	-0.015351035
41	0xbc4594da	-0.012059415
42	0xbcea0e5c	-0.0285713
43	0xbcbc838c	-0.023011945
44	0x3c79725f	0.015225022
45	0x3bc24202	0.005928279
46	0x3c34ce38	0.0110354945
47	0x3ae0cec7	0.0017151468
48	0x3c86b936	0.016445737
49	0x3a78a6ee	0.00094853237
50	0x3bd8d11f	0.006616726
51	0xbc491214	-0.012272377
52	0xbb9de853	-0.004818955
53	0x3c87e747	0.016589774
54	0xbcbb565c	-0.022868328
55	0x3c01c53a	0.007920558
56	0xbb8e740f	-0.0043473314
57	0xbcdd7efb	-0.027038088
58	0xbcaabea0	-0.02084285
59	0x3c73235f	0.014839976
60	0xbc024863	-0.007951829
61	0x3ccd0514	0.025026836
62	0xbcc22f2d	-0.023704136
63	0xbc14c67b	-0.009080525
64	0xbcd8f573	-0.026484227
65	0xbbd3b29e	-0.006460502
66	0xbca210fd	-0.019783491
67	0x3b7bf5a9	0.0038445985
68	0xbc7a0202	-0.015259268
69	0x3ccb39f8	0.024807915
70	0xbc6387d4	-0.013887364
71	0xbca1e44d	-0.019762183
72	0xbbbace81	-0.0057008867
73	0x3cb83d10	0.022490054
74	0x3cc73233	0.024315929
75	0xbce1cfb8	-0.027564868
76	0xbcc6ae56	-0.024253052
77	0xbc0d4187	-0.00862158
78	0xbbec079b	-0.007203055
79	0xbc9cffd6	-0.01916496
80	0xbbbb9bd6	-0.005725364
81	0x3c8f6937	0.017506225
82	0x3b4d0594	0.0031283842
83	0x3c5ead42	0.013591113
84	0x3bcc24f1	0.0062299897
85	0xbc57802a	-0.013153115
86	0x3a8ac75e	0.001058798
87	0x3c17dbbb	0.009268696
88	0x3c5900fe	0.013244865
89	0x3cd3a252	0.025834236
90	0xbc44474e	-0.011979891
91	0xbbf17ace	-0.007369376
92	0x3cd4e161	0.025986375
93	0x3c760f46	0.01501829
94	0xbccf2795	-0.025287429
95	0xbcd2ca15	-0.025731126
96	0xbc3e9c20	-0.011633903
97	0x3cb55849	0.022136824
98	0xbc6431ab	-0.013927857
99	0xbca2614c	-0.019821785
100	0x3c3c3b97	0.011488817
101	0xbc19ff65	-0.00939927
102	0x3c787887	0.015165455
103	0xbb64c8ba	-0.0034909681
104	0x3ca342c0	0.01992929
105	0xbb83273b	-0.0040024794
106	0xbc407d42	-0.011748614
107	0xbc038363	-0.0080269305
108	0x3c1c4149	0.00953705
109	0xbcb18ae6	-0.021672677
110	0x3cbb6594	0.022875585
111	0x3c09ddb7	0.008414677
112	0xbcace596	-0.021105569
113	0xbca4c1ee	-0.020112004
114	0xbcdc7f04	-0.026916035
115	0x3bf42b37	0.0074514407
116	0x3a071713	0.00051532796
117	0x3ba233ea	0.0049500363
118	0x3cc9dbd4	0.024640955
119	0x3c934265	0.017975995
120	0xbb8633c2	-0.0040955255
121	0xbcd2c854	-0.02573029
122	0xba8ce71c	-0.0010750028
123	0xbbd8ed82	-0.00662011
124	0x3c9aad83	0.018881565
125	0xbcc42bab	-0.023946604
126	0x3b726608	0.0036987085
127	0xbc03ebba	-0.008051807
128	0xbc5255cc	-0.012837838
129	0xbc5e56fd	-0.013570544
130	0x3c2b1842	0.010442795
131	0xbb1a15b0	-0.0023511462
132	0x3bfcf282	0.007719339
133	0xbcd8863e	-0.0264312
134	0xbc0cc705	-0.008592372
135	0xbcbf8110	-0.023376971
136	0x3cb2b3fb	0.021814337
137	0xbb9e8601	-0.004837752
138	0x3cb45fd1	0.022018345
139	0xbcbadeb3	-0.02281127
140	0x3be8e9d8	0.0071079545
141	0xbbe6135b	-0.0070213503
142	0xbcdb63e3	-0.026781028
143	0x3c69bc25	0.014266049
144	0xbcea4485	-0.028597126
145	0xbc7fde41	-0.015616954
146	0x3bdd4ea0	0.0067537576
147	0xbc8df20d	-0.017327333
148	0xbcd5a512	-0.026079688
149	0xbcc67ec1	-0.024230363
150	0x3afeb8ff	0.0019433795
151	0x3cb9ad33	0.022665596
152	0xbc98dab5	-0.018658975
153	0x3cbcb50f	0.023035554
154	0xbcc0a44a	-0.02351584
155	0x3c831dfb	0.016005507
156	0x3ca56b89	0.020192878
157	0x3bcc0e4a	0.0062272893
158	0x3c767faa	0.015045086
159	0x3c737b5e	0.014860956
160	0xbbc9c14c	-0.006157076
161	0xbcb1c396	-0.021699708
162	0xbc52edd9	-0.01287409
163	0x3b020cba	0.0019844011
164	0x3ca0ff9b	0.019653132
165	0xbcc229d0	-0.023701578
166	0xb99d8d5a	-0.0003005069
167	0xbcd5a328	-0.026078776
168	0x3b8975cd	0.004194951
169	0x3b3271ac	0.0027228398
170	0xb978333c	-0.0002367021
171	0x3b83a5fb	0.004017589
172	0x3c9ef23c	0.019402616
173	0xbc49ff02	-0.012328865
174	0xbcbc3cbf	-0.022978185
175	0xbcb8802f	-0.02252206
176	0xbcdfd3db	-0.0273227
177	0xbc486fdb	-0.0122337
178	0x3cd26c19	0.02568631
179	0x3cdc082d	0.026859367
180	0xbcbb200e	-0.022842433
181	0xbbe15230	-0.0068762526
182	0xbc92781d	-0.01787954
183	0x3b1569fc	0.0022798767
184	0x3bbabcb7	0.005698766
185	0x3ca92399	0.020646857
186	0x3cbd495e	0.023106273
187	0xbcbf055f	-0.02331799
188	0x3c782ee5	0.015147899
189	0x3a8ef613	0.0010907076
190	0xba803220	-0.0009780563
191	0x3c07d8dd	0.00829145
192	0x3a895ace	0.0010479332
193	0x3cde7025	0.027153084
194	0x3c909356	0.01764838
195	0x3c82168a	0.015879888
196	0xbc17d053	-0.009265977
197	0xbc68df2b	-0.014213364
198	0x3b555a56	0.0032555065
199	0x3cc2b4aa	0.023767788
200	0x3c7fac31	0.0156050185
201	0x3c87275c	0.01649826
202	0x3ce065fb	0.027392378
203	0x397f0ed9	0.00024324226
204	0x3c84afbd	0.01619708
205	0xbc05a4dc	-0.008156981
206	0x3c882470	0.016618937
207	0x3cd7b7fb	0.026332846
208	0x3c9098b3	0.017650938
209	0xbc41644a	-0.011803696
210	0x3b01c301	0.001980007
211	0x3ce81a1f	0.028332768
212	0xbc2ab428	-0.010418929
213	0xbcda331b	-0.026635697
214	0x3c484577	0.012223593
215	0xbacfe21f	-0.0015860236
216	0x3c1aa226	0.009438073
217	0x3ca76481	0.020433666
218	0xbb6ac44f	-0.0035822575
219	0x3c60927d	0.0137068005
220	0x3c3afd13	0.011412877
221	0x3c5acbf4	0.01335429
222	0x3cd05807	0.0254326
223	0xbbdb5d61	-0.0066944812
224	0xbcaa974f	-0.020824103
225	0xbab138bf	-0.001352094
226	0xbc78aec7	-0.015178389
227	0xbcb1ccc7	-0.02170409
228	0x3cd2c00b	0.025726339
229	0x3ccd1d80	0.02503848
230	0xbbecaea2	-0.0072229663
231	0xbcf6f348	-0.030145302
232	0x3cea42f0	0.028596371
233	0x39e289c8	0.00043208734
234	0x3ac90b2e	0.0015338415
235	0xba764e95	-0.0009395865
236	0x3c32725b	0.010891522
237	0xbb8fc3b9	-0.0043873456
238	0xbc4f43dd	-0.012650457
239	0xbcc9ebd6	-0.024648588
240	0xbc0ba26c	-0.008522611
241	0x3cb01a6d	0.021496976
242	0x3c1aeb19	0.009455466
243	0xba5f97ba	-0.0008529384
244	0x3a7e6b27	0.0009705298
245	0x3c3e0dac	0.011599939
246	0xbc5512f2	-0.013005005
247	0xbce9b736	-0.028529745
248	0xbbb25a0b	-0.005442863
249	0x3c016bbe	0.007899223
250	0xbbbe387f	-0.0058050747
251	0xbc150cca	-0.009097287
252	0x3c9868dd	0.01860469
253	0x3b609048	0.0034265686
254	0xbcb2c610	-0.02182296
255	0x3c663f8b	0.014053236

cnn.linear.0.bias f4 [64]
0	0x3942c951	0.00018576278
1	0xbc4df00d	-0.01256944
2	0x3c98b233	0.01863966
3	0xbc433854	-0.011915285
4	0xbc211683	-0.009832027
5	0xbc0195e7	-0.007909275
6	0x3caf00a5	0.021362612
7	0xbcf9d0de	-0.030495103
8	0x3bc641a0	0.0060503036
9	0xbc2c9c1e	-0.010535268
10	0x3c05ba71	0.008162127
11	0xbca91610	-0.020640403
12	0xbce4364c	-0.027857922
13	0x3bd234fe	0.0064150086
14	0xbc9c4d84	-0.019079931
15	0xbce023c7	-0.02736081
16	0x3c7aee95	0.015315671
17	0x3cc77f01	0.024352552
18	0x3bcd50b5	0.0062657245
19	0x3c03eca7	0.008052028
20	0xbc9190e4	-0.017769285
21	0x3c2df152	0.010616617
22	0x3ab4c282	0.0013790878
23	0xbb8e7682	-0.0043476233
24	0x3cce1a32	0.025158975
25	0x3c1c72a6	0.009548819
26	0xbc7ac6ae	-0.015306158
27	0xbb2fc7ec	-0.0026822044
28	0x3caf0483	0.021364456
29	0x3bcafbc9	0.006194566
30	0xbb942b53	-0.004521766
31	0xbcdf9b78	-0.027295813
32	0xbb9e7d3c	-0.0048367064
33	0x3ce13cb1	0.02749476
34	0x3ce04bbb	0.027379861
35	0x3c3d1a5f	0.011541932
36	0xbcce93da	-0.025216985
37	0xbc8dc301	-0.0173049
38	0x3c8eec38	0.017446622
39	0xbb39fbe4	-0.0028378898
40	0x3cd3bc77	0.025846703
41	0xbc901756	-0.017589252
42	0xbbbfcd5a	-0.0058533372
43	0xbb146d33	-0.0022648096
44	0xbc79328e	-0.015209807
45	0xbb954533	-0.0045553683
46	0x3b5f925f	0.0034114344
47	0xbcb903d5	-0.022584835
48	0x3cdc4ef6	0.02689312
49	0x3c92f52b	0.01793917
50	0x3c913a68	0.017728046
51	0xbb20ec62	-0.0024554958
52	0xbbe68e0f	-0.0070359777
53	0xbce6ba66	-0.028165054
54	0x39388101	0.00017595665
55	0x3ca544b0	0.020174354
56	0xb9fc9a1c	-0.00048180006
57	0xbc046684	-0.008081082
58	0x3c8ae9be	0.01695716
59	0x3cc1f317	0.023675485
60	0xbae25239	-0.0017266936
61	0xbc63ae8f	-0.0138965985
62	0x3c9d5c5a	0.019209076
63	0xbc9c252a	-0.01906069

value_stream.0.weight f4 [128, 64]
0	0x3d9dcef2	0.07705487
1	0x3c3c467f	0.011491417
2	0xbd47e040	-0.048797846
3	0xbb52d523	-0.0032170496
4	0xbdb19673	-0.08671274
5	0x3c67625e	0.014122574
6	0x3d1737a0	0.036918283
7	0xbccc01a1	-0.02490312
8	0xbdf7acb4	-0.120934874
9	0xbd241cf5	-0.040066678
10	0x3a9dbf87	0.0012035229
11	0xbdc4467d	-0.09583757
12	0x3d4c95a4	0.049947396
13	0x3dfb16f8	0.1226024
14	0xbd949a22	-0.07255961
15	0x3da0fd31	0.078607924
16	0x3d7415c1	0.05959106
17	0x3d2a22f3	0.041537236
18	0xbb633543	-0.0034669198
19	0xbde06429	-0.10956604
20	0x3d9e776d	0.077376224
21	0x3d84ec7a	0.06490417
22	0xbdab0af8	-0.083517015
23	0xbdb8037d	-0.0898504
24	0x3dfb35e6	0.1226614
25	0xbd711c08	-0.058864623
26	0x3b17fa45	0.0023189944
27	0xbc7368dc	-0.014856543
28	0x3dfc3440	0.123146534
29	0xbd7bb496	-0.061451517
30	0x3c64d746	0.013967341
31	0xbde8a17c	-0.11358926
32	0x3dcbfc64	0.09960249
33	0x3df9b86d	0.121933796
34	0xbd48e546	-0.049046777
35	0xbde7ef94	-0.11324993
36	0x3d86cfc4	0.06582597
37	0x3c20e2ba	0.009819681
38	0x3c3def84	0.0115927495
39	0xbd9d3eed	-0.07678018
40	0xbd4c1166	-0.04982128
41	0xbdc8e200	-0.09808731
42	0xbc7107a5	-0.014711295
43	0x3dd5c4ab	0.10437902
44	0x3d2f931c	0.042864904
45	0x3d0eb4d0	0.034840405
46	0xbdcb0d60	-0.099146605
47	0x3dca568e	0.0987979
48	0xbd691bdc	-0.056911334
49	0x3da39a63	0.07988431
50	0x3dfb514d	0.12271366
51	0xbd91466d	-0.07093511
52	0xbd9c969f	-0.07645916
53	0x3d866d0c	0.06563768
54	0xbd449323	-0.047991883
55	0x3a752b70	0.0009352481
56	0x3d345b54	0.04403241
57	0xbd6bf82e	-0.05760973
58	0x3de1d623	0.110271715
59	0xbdf7b18a	-0.1209441
60	0xbd8a3aff	-0.06749534
61	0x3d856933	0.06514206
62	0xbdd8da0f	-0.105884664
63	0x3ddc3280	0.107518196
64	0xbda1caa4	-0.07899979
65	0x3df68c5d	0.12038491
66	0x3da0413f	0.07824945
67	0xbd338d49	-0.043835912
68	0xbcca1f18	-0.02467303
69	0xbdde8cf4	-0.108667284
70	0x3c902cfa	0.017599571
71	0xbc61b514	-0.013776083
72	0x3cf25de0	0.029585779
73	0x3d01ace9	0.03165904
74	0x3e021bff	0.12705992
75	0xbca5c4bd	-0.020235414
76	0xbd076eac	-0.03306453
77	0x3dd1cff8	0.10244745
78	0x3d04cf7d	0.03242444
79	0x3c8a8b2b	0.016912064
80	0xbc575dbf	-0.013144909
81	0x3b8f4c15	0.0043730834
82	0x3dc62d3e	0.09676598
83	0x3dab42cd	0.083623506
84	0x3d36124a	0.044451036
85	0xbcf2c0c0	-0.029632926
86	0x3d0dcb4a	0.0346177
87	0x3da321b9	0.079654165
88	0x3c8a925a	0.016915489
89	0x3d7c12ec	0.061541483
90	0x3c7d8bca	0.015475223
91	0xbdda67f2	-0.10664357
92	0x3dfa18f9	0.122117944
93	0x3db036cf	0.08604204
94	0x3d8278ff	0.063707344
95	0xbdc0c0da	-0.094117835
96	0xbd43f7a4	-0.04784359
97	0xbde206e5	-0.11036471
98	0xbd35b9dd	-0.044366706
99	0xbdb51fd2	-0.0884396
100	0x3d67b78c	0.05657153
101	0xbdc60241	-0.09668399
102	0x3d719e8f	0.058989104
103	0x3d230fa7	0.03980985
104	0xbdab7c58	-0.08373326
105	0x3d98b6b2	0.07456721
106	0xbdd2633b	-0.10272833
107	0xbc072a70	-0.008249864
108	0xbd3accdf	-0.045605537
109	0xbdbf4420	-0.09339166
110	0xbc1fc06c	-0.009750467
111	0x3d8070ce	0.06271516
112	0x3da3e177	0.080019884
113	0xbca2180c	-0.019786857
114	0xbcfed586	-0.031107675
115	0x3de6944a	0.11258753
116	0x3c8c55b7	0.017130716
117	0x3d5218a4	0.05129303
118	0x3cebe574	0.028795935
119	0x3735f800	1.0846183e-05
120	0x3d9264ef	0.07148158
121	0x3d02bd66	0.031918906
122	0xbde29975	-0.11064426
123	0x3d5b3db9	0.05352566
124	0x3de6c54d	0.11268101
125	0x3d58a062	0.052887328
126	0x3de4f724	0.11179951
127	0xbd31991e	-0.043358915
128	0x3dfd4044	0.12365773
129	0xbd4a7cf3	-0.049435567
130	0xbe080561	-0.13283302
131	0x3d70da66	0.05880203
132	0xbe0119ad	-0.12607451
133	0x3da2319e	0.0791962
134	0x3da45eb2	0.08025874
135	0x3baac74d	0.005211747
136	0x3da36035	0.079773344
137	0x3dcf0fdc	0.10110447
138	0xbda1f430	-0.07907903
139	0xbda3a381	-0.0799017
140	0x3dd0d0e2	0.10196091
141	0x3d202462	0.039097197
142	0xbdb11608	-0.0864678
143	0x3de90b03	0.113790534
144	0xbd990e6c	-0.07473454
145	0x3dab2d36	0.08358233
146	0x3dcdda5d	0.10051415
147	0xbdcece12	-0.100978985
148	0x3d6265c1	0.05527282
149	0xbd3be5f1	-0.045873586
150	0x3c784275	0.015152563
151	0xbd9c3fa0	-0.07629323
152	0x3dfc9c95	0.12334553
153	0xbd771c3c	-0.06032966
154	0x3dbda008	0.09259039
155	0xbdc2cdb9	-0.09511895
156	0x3d637d35	0.05553933
157	0xbdd570a9	-0.10421879
158	0xbde727b8	-0.112868726
159	0x3dc9bd3d	0.098505475
160	0xbd5d2520	-0.053990483
161	0xbd824dbb	-0.06362482
162	0xbd7dbd4d	-0.06194811
163	0x3d61d353	0.055133175
164	0xbde7855a	-0.11304732
165	0x3de5bf34	0.1121811
166	0x3cf27843	0.02959836
167	0xbc794748	-0.015214749
168	0x3db9b252	0.09067215
169	0xbc828160	-0.015930831
170	0xbcbb9c2a	-0.022901613
171	0x3b921fad	0.0044593425
172	0x3db76c3b	0.0895619
173	0x3ceab136	0.028648954
174	0x3d874dd4	0.066066414
175	0x3dc9bb31	0.09850157
176	0x3d7cfd03	0.06176473
177	0xbdbb381e	-0.09141563
178	0x3dc12325	0.094305314
179	0x3d687dc9	0.056760583
180	0x3dff8998	0.12477416
181	0xbcbd7aa0	-0.023129761
182	0x3d38a802	0.0450821
183	0xbce0899e	-0.027409371
184	0x3d99d516	0.07511346
185	0xbd8b1e3c	-0.06792876
186	0xbbb1f43a	-0.0054307254
187	0x3d96cd20	0.07363343
188	0x3da1f537	0.07908099
189	0x3dce7797	0.10081404
190	0x3d97b505	0.074075736
191	0xbc9f5828	-0.019451216
192	0x3cb27372	0.021783564
193	0x3da79865	0.08183364
194	0xbdc2c91d	-0.095110156
195	0x3dd8b0b6	0.1058058
196	0x3d8cd2ba	0.068761304
197	0xbcd37f53	-0.025817549
198	0xbd0aa254	-0.033846214
199	0x3d456dce	0.04820042
200	0xbd57c533	-0.0526783
201	0xbcafcca7	-0.02145989
202	0xbda9b781	-0.08286954
203	0xbc87f203	-0.016594892
204	0xbb7c4740	-0.0038494617
205	0x3dd28052	0.102783814
206	0x3d358836	0.044319354
207	0xbc852236	-0.016251665
208	0xbd80272c	-0.062574714
209	0x3b10ce17	0.0022095495
210	0xbd339655	-0.04384454
211	0x3dcae032	0.09906043
212	0x3dc98fd9	0.0984189
213	0x3d96bf7a	0.0736074
214	0xbbf19022	-0.0073719183
215	0xbdf8b527	-0.12143927
216	0x3d7ec1e9	0.062196646
217	0x3c66d120	0.014087945
218	0xbc8041b7	-0.015656335
219	0xbc727d8b	-0.01480044
220	0xbc6a4b9e	-0.014300255
221	0x3dc4dbe6	0.09612255
222	0x3cc010c3	0.023445493
223	0xbd9ff593	-0.078105114
224	0x3d22960c	0.039693877
225	0xbce0d390	-0.02744463
226	0xbc79b37a	-0.015240544
227	0xbda69a3c	-0.081348866
228	0x3db2919a	0.087191775
229	0x3dd9af22	0.10629107
230	0xbd102549	-0.035191808
231	0xbd322533	-0.043492507
232	0x3cef4cab	0.029211363
233	0x3c47f5c0	0.012204587
234	0xbd4a0e0b	-0.0493298
235	0xbdc2b9ee	-0.095081195
236	0xbd56dd6b	-0.052457254
237	0x3cb8b725	0.022548268
238	0x3d003eaa	0.03130976
239	0x3d88ca08	0.066791594
240	0xbda1fbfd	-0.07909391
241	0x3d8f7d18	0.070062816
242	0xbcdbc6ca	-0.026828188
243	0x3dc3bed4	0.09557882
244	0x3de3ad4b	0.111170374
245	0x3c2f1050	0.010685042
246	0x3c8eee16	0.017447513
247	0xbd3ae00b	-0.04562382
248	0xbd036fc3	-0.032089006
249	0x3df06743	0.117384456
250	0xbc8074c8	-0.015680686
251	0xbdd3d57c	-0.10343453
252	0x3d2e5906	0.042565368
253	0x3df84401	0.12122346
254	0xbaa93a5d	-0.001291107
255	0x3df0826c	0.11743626
